3设备模型/model_weight/chill_pump_model_weights.pth (torch, 181435 bytes, 14 tensors)

fc1.weight f4 [256, 1]
000000 b1 ca bb be be fb 88 be e8 81 11 bd 27 2e f9 be
       -0.3667808 -0.26754564 -0.03552428 -0.48668024
000010 69 a9 0f bf 0f 84 f0 bd f6 77 22 3d 2d dd 81 be
       -0.56117874 -0.11743938 0.039665185 -0.25364056
000020 4a 86 fe be e9 7c 20 3c 98 7c cd 3c 1f 21 46 3e
       -0.4971183 0.009795406 0.025083825 0.19348572
000030 5f 1b 85 be 3e 12 de bd f6 7d 0d bf 5a 59 88 3c
       -0.25997445 -0.10843323 -0.55270326 0.016644169
000040 8e dd b3 be 19 b2 3d 3d 00 8d c2 be aa 4d a3 bc
       -0.3512997 0.046312425 -0.379982 -0.019934494
000050 ca cc 5c 3c 7e b7 9a bd 2b cc 1a be 30 c2 c7 bb
       0.01347656 -0.075545296 -0.15116946 -0.006096147
000060 0b c8 aa be b0 33 fa be b4 35 e5 bc 79 67 72 be
       -0.33355746 -0.4886756 -0.02797971 -0.23672284
000070 d6 8a 25 bf 38 d4 6d bd ed ae b8 3c be 3f ed 3d
       -0.6466497 -0.058063716 0.022544349 0.115844235
000080 0f c8 7f be 98 1d 81 be a6 61 e7 bc 70 bd af be
       -0.2497866 -0.2521789 -0.028244805 -0.34324217
000090 d3 63 04 be 63 a1 ac 3b 93 d4 54 be 9b 77 a5 3e
       -0.12928705 0.0052682622 -0.20784216 0.32317814
0000a0 24 39 c2 3c 8e f6 e6 3d 78 57 85 bd 27 ae fe be
       0.023708887 0.11277495 -0.06510824 -0.49742243
0000b0 57 d8 b6 3c 9f be 57 bd b0 63 f9 be 2f 71 e7 be
       0.022319956 -0.052672025 -0.48708868 -0.4520354
0000c0 67 ca f7 bc 8a b2 a3 bd 68 1d 24 be 52 61 35 be
       -0.03024788 -0.07993038 -0.16026843 -0.17712906
0000d0 95 cf 9b be e8 1e d2 3d 35 ff 78 bd 00 37 9a 3d
       -0.3043181 0.10259801 -0.06079026 0.07530022
0000e0 dd 18 f8 bd 6c bd 00 3d da 4d 2f bd b3 fd 12 b8
       -0.12114117 0.031430647 -0.042798854 -3.504539e-05
0000f0 84 0a 46 bd c8 3e fd be fc 21 13 bd 94 f3 e9 be
       -0.048349872 -0.4946196 -0.035921082 -0.45693648
000100 12 bf a7 be 5a fb 80 bd 1c 22 11 3d 7f 16 83 bd
       -0.32762963 -0.062979415 0.03543292 -0.06400775
000110 cf 7c 25 bf d5 42 8e be f8 a6 a4 bd 85 13 83 bd
       -0.6464357 -0.27785364 -0.08039659 -0.064002074
000120 4a a4 9f bc d2 cc bf bd 26 31 99 be 0e 48 22 3d
       -0.019487519 -0.09365238 -0.2992031 0.039619498
000130 70 82 ab bd 39 c8 82 be 8c 01 34 3d c2 96 54 3e
       -0.08374488 -0.25543383 0.043946788 0.20760635
000140 c2 30 01 be e7 70 81 be 00 a9 06 be 6b d1 f1 be
       -0.12616256 -0.2528145 -0.13150406 -0.47230086
000150 8a 49 d9 3d 32 83 5b bc 97 3a b5 bd 18 b4 ba bc
       0.106097296 -0.013397979 -0.08849066 -0.022790954
000160 ed 6b fe be 5b f6 99 3d 51 0c 93 3d e7 2d 84 3d
       -0.49691716 0.07517692 0.071800835 0.06454068
000170 0f 59 19 bf b8 21 4b 3c e0 b0 25 3d a1 02 75 bd
       -0.5990152 0.012398176 0.040451884 -0.05981696
000180 12 5d bd 3b 4f 0a 6a be d9 70 f1 3c d4 f3 80 3d
       0.005778917 -0.22855495 0.029472755 0.062965065
000190 c3 18 77 3c 59 ec 3a be ac 5b 6c be 27 16 3f 3e
       0.015081587 -0.18254222 -0.23081845 0.18660794
0001a0 95 94 b0 be d4 a4 9e bd 24 97 cf bd 80 cc 97 bd
       -0.3448836 -0.07746282 -0.1013625 -0.07412052
0001b0 32 15 59 be ff fe a6 bd 23 65 97 bd 5d 00 04 bf
       -0.21199492 -0.081541054 -0.07392337 -0.51563054
0001c0 88 25 1b be ae 20 37 be 82 31 85 bd cd b6 0f be
       -0.15151036 -0.1788356 -0.065035835 -0.14034577
0001d0 43 4b 35 3d db 75 7d be 5a 12 9b 3d 2d 05 78 be
       0.04426123 -0.2475199 0.0757186 -0.24220724
0001e0 d9 c7 2a 3d b2 87 8f 3d a2 ce 81 be d2 85 dc be
       0.041694496 0.07008304 -0.2535296 -0.43070847
0001f0 f5 2d df 3d 12 c5 ec be 92 08 57 3d be f0 18 3e
       0.108974375 -0.46244103 0.052498408 0.14935586
000200 d0 ef 36 3e f7 18 b1 be 1c d3 0b bd 02 42 a0 3d
       0.17864919 -0.3458936 -0.034136876 0.0782509
000210 7d 08 91 bc 5d d0 40 be 1c c7 12 be 8a 16 b0 3d
       -0.017704243 -0.18829484 -0.14333767 0.08598049
000220 2a f0 ba 3d 99 b6 b8 be 29 e8 0d bf e1 b5 c5 3d
       0.09127839 -0.3607681 -0.55432373 0.09653831
000230 70 ce 90 bd b0 7b b4 3c 18 bb db bd f0 2c 01 3e
       -0.07070625 0.022031635 -0.10729045 0.12614799
000240 9c d8 0f 3e 28 3d 76 be 3f 48 08 bf 4d 07 8b 3d
       0.14047474 -0.24046767 -0.5323524 0.06788502
000250 52 db c1 3b 2f 78 0a be 20 7b bd be 4a fa 8c 3d
       0.0059160376 -0.13522409 -0.37008 0.06883676
000260 1b 4d 05 bf c9 08 7f bd b5 af a1 3d ee 9f 7f be
       -0.5207078 -0.062264238 0.078948416 -0.24963352
000270 d4 03 9a be 16 42 fd be 2c f5 24 bd 79 4b 17 be
       -0.30081046 -0.49464482 -0.040272877 -0.14774884
000280 63 b8 a6 be 76 60 8b 3d ae c9 44 bd 7b 7c 91 be
       -0.3256255 0.06805508 -0.0480439 -0.28415284
000290 a6 1c 21 bf a7 bd c4 be 7d b6 61 bd cb f0 76 38
       -0.6293434 -0.38425943 -0.055105675 5.8875226e-05
0002a0 54 ba 90 bd c4 a1 97 be b4 6e d6 3d 78 c1 65 be
       -0.07066789 -0.29615605 0.10470334 -0.22437084
0002b0 04 ec e2 bd 32 5a 6d bd 6d 94 bc be 52 97 84 3d
       -0.11080173 -0.057947345 -0.3683199 0.064741746
0002c0 8c 4a ed 3d 00 b2 52 be 68 93 c4 3d 79 81 a3 bd
       0.11586484 -0.20575714 0.09598428 -0.07983679
0002d0 e3 fb 96 be 31 91 a9 be b5 51 96 3d 3a 14 3c bd
       -0.2948905 -0.33118585 0.07339803 -0.045917727
0002e0 3b 7a 56 be 7d 42 ff bc 5e 4b 64 3c 32 a0 85 be
       -0.20945065 -0.031159634 0.013933985 -0.26098782
0002f0 95 21 13 be 21 34 1f bf 32 a5 ec be 69 10 52 bd
       -0.1436828 -0.6218892 -0.46219784 -0.05128518
000300 66 5c 75 be 41 bd 20 bd fd f7 3f bf 67 be 0d be
       -0.23961028 -0.039242987 -0.74987775 -0.13842164
000310 3f ee a3 bd be 76 e3 3e b9 1b 3e be 8a c2 aa be
       -0.08004426 0.4442653 -0.18565263 -0.33351547
000320 f7 a4 0c 3e 6f d3 fc bc d3 0d 67 be dc b9 52 bd
       0.13734804 -0.030862538 -0.22563867 -0.05144678
000330 57 4d b7 3c f8 df cb bc e1 51 06 bf 08 57 9d 3c
       0.022375746 -0.02488707 -0.5246869 0.019206539
000340 b2 44 a6 be bb d3 d7 3c 06 dc 2b be 19 f5 91 ba
       -0.32474285 0.026346078 -0.16783151 -0.0011135667
000350 d0 e1 75 be b1 2c 2b be c8 19 cd bd 33 84 33 bc
       -0.24011922 -0.16716267 -0.10014683 -0.010956812
000360 44 06 e0 bd a2 f2 b3 3d 58 a8 39 be 6a b7 d2 3d
       -0.10938695 0.08786513 -0.18130624 0.1028889
000370 2b 0d 9e bd 2f 23 10 bd a1 b1 b8 bd 11 45 b0 bd
       -0.07717355 -0.035189804 -0.09018255 -0.08606923
000380 18 5b 77 be 6d 5f 2f 3c fa 0d e7 3c 63 d1 f1 bd
       -0.24155843 0.010703904 0.028204907 -0.118075155
000390 97 a9 35 bd cb a0 d9 3d 74 26 02 bf d7 14 c1 be
       -0.044351187 0.10626372 -0.50839925 -0.37711212
0003a0 1d eb c4 be 6c 86 21 3d 4b 33 05 bf d9 ca 15 be
       -0.38460627 0.039434835 -0.5203139 -0.14628161
0003b0 30 88 22 bf e7 d5 95 3d 5a 81 b8 3c a2 45 86 3d
       -0.63489056 0.07316189 0.022522617 0.0655625
0003c0 3f 07 0f 3d 0d 15 23 be 51 b9 c4 bd 87 1c 1b 3e
       0.03491902 -0.15925999 -0.09605659 0.15147601
0003d0 d9 33 a4 3c 53 fe e3 be 38 60 8d 3d b0 c2 02 3c
       0.020044254 -0.4452997 0.06903118 0.007980987
0003e0 40 98 12 bf d2 6c 98 bd 57 51 11 3e f0 11 1f bf
       -0.57263565 -0.07442631 0.14191185 -0.62136745
0003f0 51 85 2c bd 87 58 0c 3d 40 0d c0 3c 2f ab 90 bc
       -0.042119328 0.034264114 0.023443818 -0.017659752

fc1.bias f4 [256]
000000 54 f8 7b 3e b3 89 37 3e 38 fa 7e be df 1f b0 3e
       0.24606448 0.17923622 -0.24900138 0.34399316
000010 08 45 04 3f 40 e9 63 bd 50 84 64 bf 15 f7 d7 3d
       0.51667833 -0.055642366 -0.8926439 0.10545174
000020 85 f2 b3 3e e2 e2 a7 3e 76 9b 30 bf f0 9f 47 bf
       0.35145965 0.32790285 -0.68987215 -0.7797842
000030 ca 5a ff 3e 08 bd 41 bf bf 33 16 3f 6a f0 31 bf
       0.49873954 -0.75679064 0.5867271 -0.6950747
000040 ed c4 7e 3e 70 2f a1 be 5c ca 2a 3f 10 5a d5 be
       0.24879809 -0.31481504 0.66715026 -0.41670275
000050 d4 d5 1c bf 08 4b ec be 3e 3e 5a bf f0 2a 20 bf
       -0.61263776 -0.46150994 -0.85251224 -0.6256552
000060 8f cd 64 3e ed f4 a6 3e f8 4b b3 be 9c 54 c2 3e
       0.2234404 0.3260874 -0.35018897 0.37955177
000070 05 b3 de 3e 07 94 dc 3e 1a 85 26 bf d0 46 56 be
       0.43495956 0.43081686 -0.65046847 -0.2092545
000080 a8 92 2a bf fa 58 d4 3d b8 0c 32 3c 7a c8 30 3f
       -0.6663003 0.103685334 0.01086729 0.690559
000090 ca b9 47 3f 10 88 eb bd 07 a4 a3 3d 96 f7 37 be
       0.78017867 -0.11500561 0.0799027 -0.1796554
0000a0 dc a2 cd bc 58 27 b7 be 10 19 6d be 50 5b b7 3e
       -0.025102071 -0.35772204 -0.23154092 0.35811853
0000b0 88 d2 5f bf 42 bc 23 3c a4 09 b8 3e 18 f4 a3 3e
       -0.8743062 0.009993615 0.35944855 0.32022166
0000c0 f9 29 3a 3c 9a 87 73 bf 98 04 92 be d9 62 ce 3e
       0.011362546 -0.95128787 -0.2851913 0.4030979
0000d0 4a 22 5f 3e f8 43 d4 bd d8 ea 62 bf ec d5 67 bf
       0.21790424 -0.103645265 -0.88639593 -0.90560794
0000e0 ba 39 d1 3e cc fd 45 bf 48 3e 1a be 20 64 a0 be
       0.40864354 -0.7734039 -0.15062821 -0.3132639
0000f0 b8 a3 26 be 20 ad a9 3e 8a 6d 09 bf d4 1f 9c 3e
       -0.16273391 0.33139896 -0.5368277 0.30493033
000100 c5 1f 71 3e d8 59 11 bf c4 cb cf be f6 d7 4a 3f
       0.23547275 -0.56777716 -0.40585148 0.7923578
000110 62 89 e9 3e 67 d0 3e 3e b3 c2 1a 3f ba 33 c8 3c
       0.45612627 0.18634187 0.6045334 0.024438728
000120 5c f0 d9 be 58 1d 4a 3e ef 3f 4d 3e 3c be 02 bf
       -0.42566192 0.19737756 0.2004392 -0.51071525
000130 9c 84 eb 3e 33 bd 3b 3e e8 51 69 bf 4e 9b 7c bf
       0.4599961 0.18333893 -0.91140604 -0.98674476
000140 b9 e5 46 3d b8 66 2d 3e f8 f9 36 bf 3f 34 ad 3e
       0.048558924 0.16933715 -0.7147517 0.33828923
000150 74 ae 66 bf c6 0a 6d bf f0 cf 97 be 8c ce 07 bf
       -0.90109944 -0.92594564 -0.2965083 -0.5304954
000160 55 44 b4 3e 93 88 c5 bd f3 6f 94 bd 1d 0f 38 3f
       0.35208383 -0.0964519 -0.07247915 0.7189806
000170 8b fc d8 3e d3 c2 7f 3e 74 fe e8 be 2c ee 21 3f
       0.42380175 0.24976663 -0.45506632 0.63254046
000180 6c 2c 89 3c 4e 74 21 3e da fd 1e bf 28 8b 0e bf
       0.016744815 0.15767023 -0.62106097 -0.55681086
000190 d4 ef cf be ef d9 03 3e 32 e4 b2 3e e5 46 1e 3f
       -0.40612662 0.12876104 0.34939724 0.61826926
0001a0 cf 1e 7a 3e 70 47 1c be 28 02 5d be 0c 2a 4d bf
       0.24425815 -0.15261626 -0.21582854 -0.80142283
0001b0 60 2c ba 3d 14 a2 18 bf 3e 7c e8 3c 09 12 be 3e
       0.09090495 -0.5962231 0.028379556 0.37123135
0001c0 f0 51 c4 be f2 54 ed 3e b0 3d 2a be 3e 04 e3 3e
       -0.38343763 0.4635387 -0.16625094 0.44339174
0001d0 f4 3e e3 be f6 0b 27 3f 9c bf 47 bf c7 16 df 3e
       -0.44383967 0.65252626 -0.7802675 0.43572065
0001e0 26 52 3a bd d7 78 2a 3f da e9 1a bf dc 63 ce 3e
       -0.0454885 0.66590637 -0.6051308 0.40310562
0001f0 a6 94 62 bf 7e 85 1a 3f ec 8e b4 be 50 ed 46 bf
       -0.8850807 0.6035994 -0.3526529 -0.7770586
000200 96 22 06 3e 10 15 22 3f 80 d2 14 bd ca 89 7e bf
       0.13099131 0.6331339 -0.03633356 -0.99429
000210 29 46 dd 3b ee 0a 77 bf 04 55 9e be 50 a0 3e be
       0.0067527485 -0.9650105 -0.30924237 -0.18615842
000220 38 35 4f bf e7 7f 77 3e 32 77 59 3e c8 0b c1 be
       -0.8094058 0.24169885 0.21236876 -0.377043
000230 12 da 2c 3f 16 f9 28 bf 42 2b 1f bf d0 96 6e be
       0.6752025 -0.66005075 -0.6217538 -0.23299718
000240 1b 2d 84 3b 06 8c d7 3e ad 6e 1d 3f 52 6e 58 bf
       0.0040336973 0.42099017 0.61497 -0.84543335
000250 90 4e 9b bd 1b 1a 23 3f 0d c2 7d 3e a4 c7 47 bf
       -0.07583344 0.6371171 0.24781056 -0.78039
000260 45 b8 63 3e 42 0c 6d bf bc e2 a0 3e 3e 0a 2b 3e
       0.22238262 -0.9259683 0.31422985 0.16703126
000270 3f 5c 4e 3e d9 fa a9 3e d8 0c e4 be d4 06 48 3f
       0.20152377 0.33199194 -0.4454105 0.7813542
000280 35 f2 30 3f 38 c9 eb be fc f3 d9 be 13 b6 b2 3e
       0.6911958 -0.46051955 -0.42568958 0.34904537
000290 47 f8 33 3f 63 63 a7 3e d0 da 4b bf 96 a4 16 3f
       0.70300716 0.32693014 -0.79630756 0.5884489
0002a0 9d 5e e4 3e dd 00 4b 3e ec f3 b7 be 4c 53 0f 3f
       0.44603434 0.19824548 -0.35928285 0.55986476
0002b0 48 e1 40 be 22 c3 f5 3e 66 85 85 3e f0 8b 01 be
       -0.18835938 0.48000437 0.26078337 -0.12651038
0002c0 78 48 eb be ce 84 ef 3d 1c 06 2a bf 0e f0 06 bf
       -0.45953727 0.11695252 -0.6641557 -0.52710044
0002d0 ff 3a 72 3e 2e 9f 6f 3e 0e 35 0e bf d4 6d 6b bf
       0.23655318 0.23400566 -0.55549705 -0.9196446
0002e0 f7 7d f1 3e 4a 76 60 bf 76 19 4c bf df 54 e3 3d
       0.47166416 -0.87680495 -0.7972635 0.11100172
0002f0 07 79 f7 3e 3d 0f 75 3e 5b e2 9d 3e 8c cd c9 be
       0.48334524 0.23931594 0.30836758 -0.39414632
000300 7c 68 e3 3e e8 5d 91 be 37 6d 0b 3f 08 69 9a be
       0.44415653 -0.28391957 0.54463524 -0.30158257
000310 ac 80 6d bf 83 19 ac be bd 73 24 3f fd cf 71 3e
       -0.9277446 -0.33613214 0.642391 0.23614497
000320 04 2c 13 3f f5 69 78 3b 22 96 13 3e 24 12 4b bf
       0.5748904 0.0037904952 0.1441274 -0.79324555
000330 5a 21 72 bf 40 f0 b0 bc f1 66 c1 3e e4 ba 8e be
       -0.9458214 -0.021598935 0.3777385 -0.2787696
000340 b1 2e 43 3f 88 5b 96 be 6f a5 75 3d d8 99 71 be
       0.7624312 -0.29366708 0.059972223 -0.23593843
000350 27 f6 7b 3d 1e 63 9c 3e 2c 6a 12 bf e0 63 3c bf
       0.061514046 0.3054437 -0.57193255 -0.735899
000360 7e c1 62 bf e4 e5 96 be 82 54 16 3f e0 50 54 be
       -0.88576496 -0.29472268 0.587227 -0.20733976
000370 00 b5 22 bc 6c 8d e2 be 90 4b 67 be c4 58 71 bf
       -0.009930849 -0.4424852 -0.22587419 -0.9427607
000380 8c 59 31 3e 92 97 6a bf d2 83 15 bf 87 cf 3a 3d
       0.17319316 -0.9163753 -0.58404267 0.04560807
000390 0c d0 41 bf 3b cc db bd 28 73 ae 3e 6d f7 88 3e
       -0.7570808 -0.10732313 0.34072232 0.2675127
0003a0 93 77 8b 3e 1a 6f 06 3e 13 bb bc 3e e0 fc a8 bd
       0.27239665 0.1312832 0.36861476 -0.08251357
0003b0 70 a9 37 3f 02 02 03 bf c8 3d d9 be 6c 9d f7 3e
       0.71742916 -0.5117494 -0.42429948 0.4836229
0003c0 48 77 c1 be b6 98 b9 3e 88 a5 0d bf 14 e1 54 bf
       -0.37786317 0.36249322 -0.55330706 -0.8315594
0003d0 12 54 ca 3e f0 86 b1 3e 00 4a 21 be 70 64 82 bd
       0.39517266 0.34673262 -0.15750885 -0.06366813
0003e0 f3 4a 11 3f e9 98 bf 3e a8 10 78 bf e8 65 e6 3e
       0.5675499 0.3742135 -0.96900415 0.44999623
0003f0 fc 9c ee be e8 80 46 bf a8 58 80 be 58 57 db be
       -0.46604145 -0.77540445 -0.2506764 -0.42840075

fc2.weight f4 [128, 256]
000000 6e 17 6c be e9 dd 38 be bf ac 57 3c 3b a8 43 3d
       -0.23055813 -0.18053402 0.0131637445 0.04776786
000010 14 15 64 be f2 2a 04 bd aa ad 04 3e 26 a0 0a 3d
       -0.22273666 -0.03226752 0.12956873 0.033844136
000020 fb a1 d4 bc 6e cd 0a bd ce e8 1b bd 78 0f 11 3e
       -0.025956145 -0.03388732 -0.038063817 0.14166057
000030 ee 9d 40 3d a6 9e fc bb 89 6a 75 3d 83 8a fa bc
       0.047025613 -0.007709342 0.059916053 -0.030583626
000040 48 9a a9 bd a1 a9 a5 bc 24 05 42 3e f3 40 87 bd
       -0.0828138 -0.020222487 0.18947273 -0.06604185
000050 98 8f 8f 3e 2f 97 24 3d ea cc 0d 3e 0f 58 f4 bc
       0.2803924 0.040183242 0.138477 -0.029827146
000060 28 5e 03 3e e1 5a 9e bd f4 4e 71 bb 2d 5d e2 3c
       0.12828887 -0.077321775 -0.0036820741 0.02763232
000070 a6 ac 5c be 29 2a 6d 3e 9b 77 dd 3d 9e b2 81 bd
       -0.21550235 0.23160614 0.108138286 -0.06332897
000080 85 54 61 3e 12 e7 05 3e 16 f0 98 3e 29 18 e0 3c
       0.22004898 0.13076428 0.2987067 0.02735527
000090 0d df 29 3d a6 d5 96 bd 16 91 82 be 6f f2 f9 bc
       0.041472483 -0.07364969 -0.25501317 -0.03051111
0000a0 59 8e 4f bd a0 8f 4d 3e e4 9e af bd b3 db 2c 3d
       -0.050672863 0.2007432 -0.08575228 0.04220171
0000b0 b8 67 4a 3e 12 44 e5 3d 16 d2 fa 3d 96 f2 23 3d
       0.19766128 0.11194624 0.12247102 0.04002627
0000c0 c7 da 88 3d 86 4f 76 3c 13 9f 05 bd 1c 01 0a be
       0.066823535 0.015033608 -0.032622408 -0.13476986
0000d0 03 6b 26 3d 82 a8 1c bc 22 de 8e 3b ae 24 de bd
       0.040629398 -0.00956166 0.0043599764 -0.1084684
0000e0 47 96 00 be a2 22 92 3d dd 7e 9e bd 86 d0 47 3e
       -0.12557326 0.07135512 -0.07739041 0.19513139
0000f0 8a 41 b6 3d e6 16 97 be c7 ad c6 bd 14 de 06 3e
       0.08899219 -0.29509658 -0.09701114 0.13170654
000100 44 55 d6 3d 9f 49 02 bd bb 55 37 bc c2 44 b7 3d
       0.10465482 -0.03180849 -0.011189873 0.089486614
000110 95 c8 3c be 0a 29 ea 3d 6d 1f 4f be 03 52 89 be
       -0.18435891 0.11433609 -0.20226832 -0.26820382
000120 e9 d2 6a 3d ce bf fa 3c 31 2c 80 3d 33 ff 15 be
       0.057330046 0.030609038 0.06258429 -0.14648132
000130 22 41 f9 3d 02 a3 ee bd d0 81 04 be 45 b1 fb bd
       0.12170626 -0.11652185 -0.12940145 -0.12289671
000140 e0 da 4b be a6 cc 64 3c da b1 20 be 2f 30 ec bd
       -0.19907713 0.013964808 -0.15692845 -0.11532628
000150 35 50 44 bd 44 9e d2 bd 7e 1f 92 3d 9b 8d 41 bd
       -0.047928054 -0.10284093 0.07134913 -0.047254186
000160 da 6d f4 bb 6f 19 9c be fc a1 4d 3c b1 20 eb 3d
       -0.0074593844 -0.30488154 0.012550827 0.11480845
000170 eb f8 41 3b 13 78 7a be f0 1a 69 3d f8 24 4d bd
       0.002959783 -0.24459867 0.056910455 -0.050084084
000180 5f ba 92 3d 99 9e 40 3e 55 60 a6 bd 6d 1b 8d bc
       0.07164454 0.188105 -0.081238426 -0.017224992
000190 39 b2 91 bd 48 5c 9e bd 9d 5b 7f be 3f 57 9b 3d
       -0.071140714 -0.07732445 -0.24937291 0.07585
0001a0 80 42 43 be b2 24 0f be df 2f 9e 3a 1e e3 17 3e
       -0.19068336 -0.13978842 0.001206871 0.14832732
0001b0 dc c2 bb 3c e1 b9 21 be 1e 88 30 3e 5f 24 0a be
       0.022920065 -0.15793563 0.17239425 -0.13490437
0001c0 a8 9a 2c 3d 2d b5 50 be 81 18 4c bd bf 9d 2a 3a
       0.04213968 -0.20381613 -0.049828056 0.00065084914
0001d0 2f d1 3f 3c 7a c9 44 be 4c 9f 90 3d 81 d9 bc 3d
       0.011707588 -0.19217482 0.070616335 0.09221173
0001e0 34 bc c5 3d 8f ee f1 bd 3a a9 3e be 0c a4 8b be
       0.096550375 -0.118130796 -0.18619242 -0.27273595
0001f0 7d 1f d3 bc 15 1a be bd f0 e1 5b 3c 72 c7 10 be
       -0.02577185 -0.092823185 0.013420567 -0.14138582
000200 98 7d e5 bd d6 20 44 bc 79 ac f4 3d 83 7d f7 bd
       -0.11205596 -0.011970719 0.11946959 -0.12084486
000210 ec 7e e0 bd c9 bd 51 bc be bb 27 3e 1d 0e 6a be
       -0.109617084 -0.012801596 0.16380212 -0.22856946
000220 5b 72 61 3c 00 bc df bd 50 91 b1 3c df b1 74 be
       0.013760175 -0.1092453 0.021675736 -0.23895977
000230 9e 5f 8a 3e 7d 97 21 3d e0 ca 65 3d 06 9e 18 be
       0.27026075 0.03945111 0.05610168 -0.14904031
000240 fc 76 08 3d 29 25 ef 3d 88 e2 14 bd 4d 83 02 3e
       0.033316597 0.116770096 -0.03634885 0.127454
000250 19 70 67 be 17 c6 98 bd f9 24 be bc d7 08 c7 bb
       -0.22601356 -0.07459658 -0.02321099 -0.006074052
000260 02 83 8b 3d 51 c3 92 3d 21 a8 7c bc 00 60 9c bd
       0.06812097 0.0716616 -0.015420944 -0.07635498
000270 c1 33 aa bd 83 14 0f bc 80 d8 4d 3c df bf 81 3d
       -0.083106525 -0.008732918 0.012563825 0.06335425
000280 b1 5d 8e bd 0a 59 1b be 70 d9 a3 bd 5f c3 b9 bd
       -0.06951464 -0.15170684 -0.08000457 -0.09070467
000290 38 5d d7 bd 0b 1a f2 3b 65 22 fd 3d 3d cf 2e be
       -0.10515827 0.0073883585 0.12360076 -0.17071243
0002a0 ca f9 44 be 45 93 b4 bd 41 b0 65 3d d9 0a 83 be
       -0.19235912 -0.08817152 0.056076292 -0.25594214
0002b0 56 be 1d 3d 7a 59 16 3e f9 53 ee bd cf 1b d6 ba
       0.038511597 0.1468257 -0.1163711 -0.0016335192
0002c0 79 d8 5e 3e e8 7d d5 3d e6 38 a5 3d f0 14 e4 3d
       0.21762265 0.10424405 0.08067493 0.11136806
0002d0 c5 79 a8 3b 9b 9e 2a 3d ef 61 66 be c6 4c 15 bc
       0.005141469 0.041655164 -0.22498296 -0.0091125425
0002e0 01 2d 16 3d 02 ad 01 3d 1d b8 c9 bd 01 06 a0 bd
       0.036664013 0.031659134 -0.0984957 -0.07813645
0002f0 da 69 05 be 2b 3e 07 3d 6f 48 bd bd f7 da 2e bd
       -0.1302866 0.033018272 -0.09242331 -0.04268929
000300 d8 9d 5f be 6c e3 e6 bc 05 1c 41 3d 06 6e 20 be
       -0.21837556 -0.028184615 0.047145862 -0.1566697
000310 8b 01 92 3c 60 fb f4 3d fe 12 9a 3d b2 01 0f 3b
       0.017823001 0.119620085 0.07523154 0.002182108
000320 38 18 24 3e 5b 5f 00 3e 16 10 22 3e 89 50 cf 3c
       0.16024864 0.12536375 0.15826449 0.025306957
000330 13 f9 d0 3d 78 ae e1 3d 62 f3 ba bd ce ac a9 3d
       0.10203757 0.110196054 -0.09128453 0.08284913
000340 c4 3c 00 be c8 4f e0 3c 0e 34 13 be b2 42 94 bc
       -0.1252318 0.027381793 -0.14375326 -0.018098209
000350 d6 3e 34 be 9d ad 1d 3e da 14 1b bd db 98 35 3e
       -0.17602095 0.1539826 -0.037861682 0.17734091
000360 ea 9b 03 3d b3 d3 d8 bd 84 e8 21 3d 1a f2 aa 3d
       0.032131113 -0.105872534 0.039528385 0.083469585
000370 14 02 ba 3c 6f 14 25 3e 4a 6a 87 3e 33 f6 c9 3d
       0.022706069 0.16121076 0.2644828 0.09861412
000380 6b c4 fe 3d 0f 63 c5 bd 09 ad 23 3d 5c 19 1d 3d
       0.124398075 -0.096380346 0.03995994 0.038354263
000390 4f f8 2b 3e ad 92 74 be 4a ff 32 be af c2 2d 3d
       0.16793941 -0.23884077 -0.17480198 0.042421993
0003a0 ab ca 6e 3e b8 a8 80 be 23 ff 2a bc 24 ff c3 bd
       0.23319499 -0.25128722 -0.010436806 -0.095701486
0003b0 3c f7 3d 3c a7 01 9c 3d 87 d7 c8 bd 76 4c 96 3d
       0.01159459 0.07617503 -0.098067336 0.073388025
0003c0 cf 4e fb 3d 14 a7 7c bb 66 6a 50 3d dd e4 86 3d
       0.12270891 -0.0038551735 0.05088272 0.06586621
0003d0 3d 13 29 bd ec 53 72 bb 34 f9 2d be 51 aa 41 3e
       -0.041278113 -0.003697629 -0.16989595 0.18912627
0003e0 73 62 aa 3c d2 e4 1e bc 28 9f 06 3e 53 38 7d bd
       0.020798897 -0.00969811 0.13146651 -0.061821293
0003f0 af 19 78 bd e9 6b d2 bd 61 85 4c 3b f7 18 af bd
       -0.06057137 -0.102744885 0.003120743 -0.085496835

fc2.bias f4 [128]
000000 2c 4b 63 bc e7 5d eb bb 94 34 ff bc eb 3e 1d 3d
       -0.013872903 -0.007182825 -0.031153 0.03839008
000010 34 99 96 bc 5d d5 aa bd e5 e7 4e bc 33 ef 69 bd
       -0.0183836 -0.08341477 -0.01262853 -0.057112884
000020 90 1b 8e bd a4 6e 35 bd 2e 99 c7 bc a5 31 d4 bd
       -0.06938851 -0.04429497 -0.024365034 -0.103610314
000030 01 66 26 bd 5a d7 26 3d 1e e4 b7 bd 60 a1 a9 ba
       -0.040624622 0.04073272 -0.08979057 -0.001294177
000040 95 85 8a bc 18 d5 63 3c fc 71 0f 3d e2 c1 4a bd
       -0.0169094 0.013905786 0.035020813 -0.049501307
000050 08 f9 77 bd c1 ee 8b bd 7c 6e 1c bc 0d 00 8d bd
       -0.06054023 -0.06832648 -0.009547826 -0.06884775
000060 78 ab ab 3c 1e 89 90 bb 5f ed 8f 3c 88 26 4b bc
       0.020955786 -0.004410877 0.017569242 -0.012399323
000070 2f 46 88 bd 18 44 3b bd ae ca b4 bc 6b df de bc
       -0.066540115 -0.045719236 -0.022069301 -0.027206143
000080 a3 46 15 bc f7 89 14 bd 90 c6 98 bd f1 5f df 3c
       -0.009111079 -0.036264386 -0.07459748 0.027267428
000090 e6 8b 5a 3d 2f 35 90 bd 43 8a 51 bd 6d c4 2c bd
       0.053356074 -0.07041394 -0.051157247 -0.042179514
0000a0 41 45 ae bd 6a 96 22 bd 35 76 fb 3c be ae 8b bc
       -0.08509303 -0.039694227 0.030696014 -0.017051097
0000b0 bf 09 0f 3d ad 73 1d 3c 80 86 9f 3b 1b 7c 79 bd
       0.034921404 0.009610099 0.0048683286 -0.06090937
0000c0 cf 02 4f bc 82 f8 fc bc cc a9 1f bd b1 cc a2 bd
       -0.012634947 -0.030880217 -0.03898029 -0.07949198
0000d0 0a d4 13 bd f7 4b 71 bc f2 8b 0a 3d ca 31 aa 3c
       -0.036090888 -0.014727584 0.03382487 0.020775694
0000e0 2a 69 5e bd 20 d7 24 bd f4 51 5d 3d 24 d5 4a bd
       -0.05429951 -0.04024422 0.054033235 -0.049519673
0000f0 0f 49 f7 bc ea fe b0 bc 7c 2b 20 3d c2 a4 4b bd
       -0.030186204 -0.021605927 0.03910397 -0.049717672
000100 36 73 c3 bb 3d 61 c2 3c f2 5e 1a 3d 80 f8 d8 bd
       -0.005964662 0.023728007 0.037688203 -0.105942726
000110 6a ac 83 bd f2 48 7b 3c 17 ab 46 bd 98 bc 3c bd
       -0.0642937 0.015337216 -0.048503008 -0.046078295
000120 02 20 5e bd 6d 12 9a bc 15 6b 1e bd f2 3a 47 3d
       -0.054229744 -0.018807614 -0.03867634 0.0486402
000130 b2 f6 f8 bd c5 ac 86 bd 70 aa 9c 3c 97 d1 62 bd
       -0.121564284 -0.06575922 0.01912424 -0.05537566
000140 22 11 f7 bc 56 cd 69 3d bf 76 33 bc b8 8c 50 bd
       -0.030159537 0.05708059 -0.010953604 -0.05091545
000150 f8 40 4b 3c a0 62 09 3c 1e 04 f4 3c b3 1a ce bc
       0.0124056265 0.00838533 0.02978712 -0.025159216
000160 b0 f2 11 bd 19 f4 8f b9 76 29 5d bd a0 22 95 bb
       -0.035631835 -0.00027456952 -0.05399462 -0.0045512468
000170 54 de cf bc 3a 9a a7 3c 89 2b 07 bb 59 a0 69 bc
       -0.025374569 0.020459283 -0.0020625314 -0.014259421
000180 9a 86 df bb 80 38 4c bd ee 5c 77 bb 6d 82 1a 3c
       -0.0068214657 -0.04985857 -0.00377446 0.00943051
000190 80 81 45 bd 60 83 4d bc 0a 23 fd 3b 1c 76 37 bc
       -0.048219204 -0.012543529 0.0077251242 -0.011197593
0001a0 94 e6 c2 bd 07 13 f3 bb 5a 90 ad bd 79 d2 d7 3b
       -0.095166355 -0.0074180397 -0.084747985 0.0065863696
0001b0 e4 59 e8 bc 04 e5 e3 3c d7 26 08 3d 30 a9 29 3d
       -0.028363176 0.027819164 0.033240166 0.041421115
0001c0 f6 74 99 bd dd cd c0 bd ad 54 65 bd fa 31 50 bd
       -0.07493012 -0.09414265 -0.055988956 -0.05082891
0001d0 2a c8 3d 3d 4c d9 9e bd ed f7 4f bd 77 f9 81 3c
       0.04633347 -0.0775629 -0.05077355 0.015866024
0001e0 ce e3 46 3d 08 05 52 bc 8d 66 9e bc 70 41 14 bd
       0.048557095 -0.012818582 -0.01933601 -0.03619522
0001f0 60 05 35 3b 5f af 3e 3c dd 18 d4 bc 12 9b 4b bd
       0.0027621612 0.011638491 -0.025890762 -0.049708433

fc3.weight f4 [64, 128]
000000 a6 e5 c8 3d 25 37 75 bd 3c 2f 8a be af e3 23 3c
       0.09809427 -0.059867043 -0.26989162 0.0100030145
000010 79 ac 93 3e 27 46 97 3d e3 a7 1e 3e 7d 38 a6 3e
       0.28842524 0.073864274 0.15493731 0.32464972
000020 55 4c 82 3e 8c 30 31 3e 81 37 0f bd 2e 17 5e be
       0.25448862 0.17303675 -0.034965042 -0.2168853
000030 7c 24 c4 be 6c c2 66 be ae 33 b0 bd b8 4a 05 3e
       -0.38309085 -0.22535104 -0.08603607 0.13016784
000040 26 ae 3c be 5d c9 fc 3d 67 55 c5 bd d7 3a 61 bb
       -0.18425807 0.123430945 -0.0963543 -0.0034367347
000050 e9 15 48 3e aa c3 14 be d1 f0 31 3e 79 37 2d be
       0.19539608 -0.14527765 0.1737702 -0.16915692
000060 e7 1e a9 3d 3a 78 9b bd 7d 57 32 3d f0 ec a6 3e
       0.08257847 -0.07591291 0.043540467 0.32602644
000070 02 6d c8 be 86 c1 11 3e 6a ea 97 3e 91 8b cc 3d
       -0.39145666 0.1423398 0.2967103 0.09987558
000080 48 70 0c 3e 47 de 4f 3e 38 4f bc be bf 5d 13 be
       0.13714707 0.20299636 -0.3677919 -0.1439123
000090 9b 5c 18 3c cc 6c 9a 3b 58 89 8f 3d 96 88 48 3e
       0.009299423 0.0047126766 0.07008618 0.19583353
0000a0 3f 0a 49 3d 0e 5b 92 be 90 d9 5c be a1 f7 83 3d
       0.049082037 -0.28585094 -0.21567369 0.06443716
0000b0 f3 7a 99 bd f0 b0 3e bd 61 55 7d be 2c 67 90 be
       -0.07494154 -0.04655546 -0.247396 -0.28203714
0000c0 d2 9f 4a 3c 69 cf b6 3d 01 22 88 bd 36 33 91 be
       0.012367206 0.08926279 -0.06647111 -0.28359383
0000d0 d7 d8 ab be ed 4e f2 bd 71 ad 8d be 65 22 9c be
       -0.33563873 -0.1183146 -0.27671388 -0.3049499
0000e0 ac 1d 10 3e 54 10 8f bc 19 c4 f9 3d 37 08 8a bc
       0.14073819 -0.01746384 0.12195606 -0.01684962
0000f0 06 60 f5 3d a4 70 99 bd bd 71 60 be 96 6d 61 3d
       0.11981206 -0.074921876 -0.21918388 0.05503615
000100 7b 43 5f bc 90 67 23 be 75 aa 23 be 13 ad 14 be
       -0.013626928 -0.15957475 -0.15982993 -0.14519148
000110 68 3b 64 be 6b 88 c0 3b fc a2 25 bb 8b 45 55 3d
       -0.22288287 0.0058756373 -0.0025274148 0.052068274
000120 4f 75 55 be fa 57 ac 3e dc 64 8a be 78 9e ed bc
       -0.20845531 0.3366087 -0.27030075 -0.029006228
000130 a4 3e 9c 3d 13 4e 75 be be b4 37 be 3d a3 b6 be
       0.07629135 -0.23955564 -0.17940041 -0.35671416
000140 ba ff 99 bd b6 cc 7a bc b1 63 cf 3c 37 c5 21 3d
       -0.07519479 -0.015307596 0.025316091 0.03949472
000150 7c 60 a8 bd a9 7d f0 3c c5 f9 03 3d c4 cf 22 3d
       -0.08221528 0.029356794 0.03222062 0.039748922
000160 c6 f9 86 bd 32 6d 0a 3c f2 7b 88 be b8 56 4d 3e
       -0.06590609 0.008448886 -0.26657063 0.20052612
000170 44 c5 20 3e 43 a1 24 bc a7 7a c9 be 20 39 97 bd
       0.15700251 -0.010048213 -0.3935139 -0.073839426
000180 b4 84 46 bd b6 10 a8 3e 2a 56 88 be 9c d3 1d 3d
       -0.0484664 0.3282525 -0.26628238 0.038531885
000190 1f 64 70 3e 49 ee 06 3e 2e cb 30 3e b5 9c 8a 3e
       0.23475693 0.13176836 0.17265007 0.27072683
0001a0 52 03 3c bd 3a 81 42 be 35 b5 45 3e b4 c3 d7 bd
       -0.045901604 -0.18994609 0.19307406 -0.10535374
0001b0 b7 cb be ba 69 02 54 3d b7 45 6a bd 62 e0 15 be
       -0.0014556561 0.05176011 -0.05719539 -0.14636377
0001c0 bf 9a 58 be b1 59 98 3e 6f cf 95 3d 89 be 59 3e
       -0.21152781 0.2975593 0.073149554 0.2126409
0001d0 7d 00 8b bd 5e ad 9c be 00 bc 8b be 7d 99 a3 bd
       -0.067872025 -0.3060102 -0.2729187 -0.0798826
0001e0 52 3a 26 be e9 70 a3 be d6 f5 80 be cb 9c 28 be
       -0.16233185 -0.3192208 -0.25187558 -0.16466062
0001f0 c4 02 9f 3d 18 af 05 be 1f b7 be 3e e3 0d d6 bd
       0.077641994 -0.13055074 0.37249085 -0.104518674
000200 ff a8 27 3e ed 21 be be 19 a0 d7 bd 89 07 36 3d
       0.1637306 -0.37135258 -0.10528583 0.04444078
000210 f7 94 46 be ac 27 fd 3b 6d 00 ea 3d 1c 7f 24 3c
       -0.19392763 0.0077256765 0.114258625 0.010040071
000220 ae 23 23 3d 3c 66 9c 3d 89 53 dc 3d e9 74 6f 3e
       0.03982895 0.07636687 0.107581206 0.23384441
000230 c8 b3 04 bd a8 e4 8d be fc 98 b7 bd 92 e5 4a be
       -0.032398015 -0.27713513 -0.08964726 -0.19814137
000240 97 00 1a bf a4 cc 4a 3d 77 8b 38 3d 61 2b 59 3e
       -0.6015715 0.049511567 0.04505488 0.21207954
000250 97 80 5f 3e 75 e2 44 be 28 e7 54 3b 45 b0 9e 3d
       0.21826397 -0.19227012 0.0032486413 0.077484645
000260 dc b5 83 be ff 5e 22 bd d9 96 84 be da 61 ba 3d
       -0.25724685 -0.039641377 -0.25896338 0.09100695
000270 8e 37 3c 3e 21 c4 03 3e ee a5 ae be 5a 39 20 be
       0.18380567 0.12867786 -0.3411097 -0.15646878
000280 ea 0c 48 3d af 68 ee 3e 70 47 b3 3d fd a0 79 be
       0.04884044 0.46564242 0.0875386 -0.24377818
000290 f9 a6 b3 3e 84 13 83 bd 61 d4 69 bc 66 e2 53 3e
       0.35088328 -0.06400207 -0.0142718265 0.20691833
0002a0 f6 9c e0 3d 79 ce 35 3e 57 0a 70 3e d8 82 ee bd
       0.10967438 0.17754544 0.23441444 -0.1164605
0002b0 59 c8 24 3e d8 9b fb bd 28 36 d2 3d 4f 03 a8 3d
       0.16092052 -0.12285584 0.10264236 0.08203756
0002c0 7b 39 1a 3c 45 cc 10 3d 15 23 14 3e b2 6c b8 bd
       0.0094131185 0.035351057 0.14466508 -0.09005107
0002d0 88 a9 16 3e 2c 2b 4f 3e 9b 34 7b 3d 95 82 25 be
       0.14713109 0.20231313 0.061329465 -0.16163094
0002e0 ea bc 7a be 5a d1 8d be 7f 96 6f bb 17 b1 4f 3e
       -0.24486127 -0.27698785 -0.0036558209 0.20282398
0002f0 cb 19 97 3d ef 0d 33 3e 77 30 7c be 0c 9a 28 bc
       0.073779665 0.17485784 -0.24627863 -0.010290634
000300 e3 8b c4 bd 27 c6 b0 bd b7 c5 0b be 59 ae 83 be
       -0.09596994 -0.086315446 -0.13649641 -0.25718954
000310 23 11 05 3e 63 98 26 be 10 6a 14 3d ca 83 ad bd
       0.12994818 -0.16269068 0.03623396 -0.084724024
000320 d9 c0 2d be 91 a7 c1 bd 86 5d 02 bf fd 40 95 3d
       -0.16968097 -0.09455789 -0.50923955 0.07287786
000330 7d ba fe 3d b0 c2 8f 3d 87 9e 01 3e 19 f7 08 bc
       0.124379136 0.070195556 0.1265813 -0.008359694
000340 b9 b2 5d be d6 b0 f1 bd 1c 88 34 be e1 1c fb 3d
       -0.21650209 -0.11801307 -0.17630047 0.122613676
000350 0e 3e 84 3e 9d c5 6f be 76 52 87 be cd 13 a2 3e
       0.25828594 -0.23415227 -0.264301 0.31655732
000360 b2 22 69 3e 8a 42 41 be 17 0e 90 3d 5c 75 09 be
       0.22767141 -0.18873039 0.070339374 -0.13423675
000370 f1 14 6a 3d b8 be d6 bb f7 35 49 bd ef 64 16 3e
       0.057148878 -0.006553497 -0.04912373 0.1468694
000380 48 00 bc 3c b8 8c 26 be c9 7b 04 be 25 e1 8f bd
       0.022949353 -0.16264617 -0.12937845 -0.07025365
000390 f1 71 fb bc 20 21 97 be 70 09 77 3e da eb 0e 3e
       -0.03069398 -0.2951746 0.24124694 0.13957158
0003a0 1b d3 10 bd 50 db 79 3d 04 2b 93 be e8 79 9e bd
       -0.035357576 0.06100017 -0.28743756 -0.077380955
0003b0 e3 9f 8d 3e 16 8d 09 3c f3 e4 f1 3c 32 91 7c be
       0.27661046 0.008395454 0.029528117 -0.24664763
0003c0 7e 45 2e bd 4c 45 2c be 7e 0a 77 3e cc 9c b3 bb
       -0.04254674 -0.1682331 0.24125096 -0.005481338
0003d0 06 af 71 3d 0e 59 f1 bc 96 71 8c be d2 d1 84 bd
       0.059004806 -0.02946141 -0.2743041 -0.064853325
0003e0 59 69 ca be bd 90 fa 3c bd cb 93 3e 91 0e 91 be
       -0.395335 0.030586595 0.28866377 -0.28331426
0003f0 5c cd a3 be 89 3f 15 be f2 73 c1 be 59 33 03 bd
       -0.31992614 -0.14575018 -0.37783772 -0.03203139

fc3.bias f4 [64]
000000 73 80 0f be 0a b2 a8 bd 83 62 3b bd 90 b9 96 be
       -0.14013843 -0.08237083 -0.045748245 -0.29438448
000010 8f ab ce bd a4 0e f2 bd c7 63 51 3d f2 09 27 be
       -0.10091316 -0.11819199 0.051120546 -0.16312388
000020 fe 5b 08 be 9b 61 48 be e1 11 52 bd 30 96 9e bd
       -0.13316342 -0.19568484 -0.051286582 -0.0774349
000030 d7 b5 8c bd f3 a7 81 bd 1f 6c 4b be 79 4e 88 bd
       -0.06870621 -0.06330862 -0.19865464 -0.066555925
000040 f5 fa 2f be 60 9e 82 bd db 5a ad be 5a b8 81 bd
       -0.17185576 -0.06377864 -0.3385838 -0.063339904
000050 20 19 95 bd 67 70 a5 bd 80 e3 99 bd f9 f0 60 bd
       -0.07280183 -0.0807808 -0.07514095 -0.05491731
000060 00 6e 1a 3c 65 22 d4 bd 27 a2 b3 bd 2a d9 e1 bd
       0.00942564 -0.10358123 -0.087711625 -0.11027749
000070 96 56 73 bc 0f 02 37 bc fb 20 8b bd d1 1c 39 be
       -0.014852187 -0.011169924 -0.067934 -0.18077399
000080 26 9a 2d be c5 4a 01 bd a3 b6 8a bd c8 88 9a bd
       -0.16953334 -0.031565446 -0.067731164 -0.0754562
000090 b2 3a 0b be 1a 8c 06 be 45 8f b8 be 5a 5d e7 bd
       -0.13596609 -0.13139382 -0.36046806 -0.11297102
0000a0 21 b0 fa be 74 f9 20 bd 6f e7 75 bd 96 d6 56 3e
       -0.489625 -0.039300397 -0.060035165 0.20980296
0000b0 6d 2e 04 be 53 09 27 bd 06 da bb be 68 b7 0b be
       -0.12908335 -0.040780377 -0.36689776 -0.13644183
0000c0 26 45 a8 be ef ba 6d bd c5 ca b6 bd 38 c6 2e bd
       -0.32865256 -0.058039602 -0.08925394 -0.042669505
0000d0 8f 46 e9 bd 1e 86 e8 bd d1 5c 6a bd d3 35 e8 bc
       -0.11390411 -0.11353706 -0.057217423 -0.028345978
0000e0 4f ce ca bd cb 58 83 bd 55 52 a8 be 0e c9 04 3e
       -0.099026315 -0.0641342 -0.32875314 0.12967321
0000f0 f2 c1 1f be eb 1f 0b be 5f 20 61 bd 1e 79 71 be
       -0.15601328 -0.13586394 -0.054962512 -0.23581359

fc4.weight f4 [32, 64]
000000 d8 32 8c be 8f 2f d9 3d 50 7b 5b 3e e3 77 5a 3e
       -0.2738254 0.10604774 0.21433759 0.21334796
000010 0e 29 a7 bd b0 e1 a9 bd 22 06 fc 3e fb 00 e9 bd
       -0.081621274 -0.082949996 0.4922343 -0.1137714
000020 ed d3 61 3e 8b fd 3b 3d 53 2d 0d be b0 de 7a 3b
       0.220535 0.045896094 -0.13786821 0.0038279705
000030 69 c1 a3 3e 2c ce 7b be 77 b4 cc bc 0f 09 26 be
       0.31983498 -0.24590367 -0.024988396 -0.16214393
000040 cd 88 e5 bd 1f 9a 94 bd ad 00 b3 be 8f 3a 1a be
       -0.11207733 -0.07255959 -0.34961453 -0.15061401
000050 4d 72 6e bd 7d f5 74 be f9 90 61 be 32 37 f2 3d
       -0.058214474 -0.23921771 -0.22027959 0.11826934
000060 4d b3 78 bd 30 36 3a 3f f8 2a 00 bf 6e 8a c3 be
       -0.06071787 0.72738934 -0.50065565 -0.3819155
000070 81 5d 0c be 96 98 57 be 4b 77 ba be c3 78 aa 3e
       -0.13707544 -0.210543 -0.36419138 0.3329526
000080 e8 05 0c 3c 3c fc a0 bd 73 f9 8e be dd 2a ac 3d
       0.00854633 -0.0786061 -0.2792469 0.08406613
000090 23 f3 69 bd 14 46 07 bf 6f 66 4f bd ff 08 dd 3c
       -0.05711664 -0.52841306 -0.050634798 0.026981829
0000a0 a1 cf b5 bd 76 3f 53 be 4f 23 4c bd 64 31 98 3e
       -0.08877493 -0.20629677 -0.04983836 0.29725182
0000b0 47 48 2c bd 0c 47 34 3e a2 e5 23 3e 9f 38 0b be
       -0.042061117 0.17605227 0.16005567 -0.13595818
0000c0 4d 71 c8 3e d7 de 8a be a7 6b 42 bd 26 c0 d4 be
       0.39148942 -0.27123138 -0.047465947 -0.41552848
0000d0 15 c1 18 3e 33 a3 8f bd 95 95 81 3c 7c 95 81 3c
       0.14917405 -0.0701355 0.015818397 0.01581835
0000e0 17 fd 7e be 01 21 6b 3e b8 8b 4a bd c9 ac fc bc
       -0.24901234 0.22961809 -0.049449652 -0.03084411
0000f0 3f d0 07 be f6 5e b3 be 26 d6 f3 bd ca 77 91 be
       -0.13263033 -0.35033387 -0.1190608 -0.28411704
000100 71 cb e3 3c cf ac b2 be 7e 99 8a be bb d6 24 3e
       0.02780697 -0.34897467 -0.2707023 0.16097538
000110 66 89 a5 3d 44 97 58 3d 30 e3 97 3d aa b6 85 be
       0.08082847 0.052878633 0.074163795 -0.26115924
000120 98 ed ed bd 7a 23 ef be 72 07 3c bf cc 7c 2a 3f
       -0.11617583 -0.46706754 -0.7344886 0.66596675
000130 d4 33 78 bd c4 1e ce 3d f3 c1 31 3e b8 c2 bc 3d
       -0.060596302 0.10064462 0.17359142 0.09216827
000140 dd 1f 96 3e 46 1b 43 be a6 f0 9a 3e c9 64 c2 be
       0.29321185 -0.19053373 0.30261725 -0.37967518
000150 43 99 9b 3d f0 71 a4 3d b2 c6 00 3e 07 3c 8e bd
       0.07597592 0.08029544 0.12575796 -0.06945043
000160 78 6a 24 3e b2 0b bc bd da 72 77 3e 17 35 38 3e
       0.1605624 -0.09181918 0.24164906 0.17989002
000170 c3 7c bf 3d c5 df 8e bd b2 7f 8e be 23 a1 77 be
       0.09349968 -0.069762744 -0.278318 -0.24182563
000180 40 b5 5e be 78 37 5f be c6 1d 4c 3d c0 dd 44 be
       -0.21748829 -0.21798503 0.04983308 -0.19225216
000190 e1 db cf bc a3 8e ab 3e ca 79 dd 3a 08 f4 22 3e
       -0.025373401 0.3350726 0.0016897258 0.15913403
0001a0 d0 8c 04 3e 1b 64 ef be 21 bc bf be f9 42 20 bd
       0.1294434 -0.46756062 -0.37448218 -0.03912637
0001b0 e0 ac a6 bd f9 05 0e be c5 01 ba be 0b a6 2d 3e
       -0.08138442 -0.13869466 -0.36329475 0.16957872
0001c0 a5 d4 ad be a9 a9 37 be fc bb 25 be 87 32 99 3d
       -0.33951297 -0.17935814 -0.16184992 0.074803405
0001d0 f4 63 a8 3d 5e de 79 3e 38 be cf 3c 2d f8 52 be
       0.082221895 0.24401233 0.025359258 -0.20602484
0001e0 c9 a5 35 bf 4c 20 e6 bd f2 63 81 bd c0 4c dc 3d
       -0.70956093 -0.11236629 -0.06317891 0.107568264
0001f0 4f 58 a7 3e 0d 3e 9a be 6b 03 43 3f 56 8f d1 be
       0.32684562 -0.30125466 0.7617709 -0.4092967
000200 4f b4 32 be 51 9a e3 bc e1 a8 5f be c7 ab e2 3d
       -0.17451595 -0.027783545 -0.21841766 0.1106792
000210 f9 87 81 be 9f df 76 be f5 42 2a 3b 23 89 10 bf
       -0.2529905 -0.24108742 0.002597985 -0.56459254
000220 23 5a 80 3e 01 41 2f be f2 2d 3b be ba d8 cd 3e
       0.2506877 -0.17114641 -0.18279245 0.40204412
000230 88 bf 8d 3d 4d 6a bd 3e be 8e 26 3f 73 a5 c7 be
       0.06921297 0.36995164 0.6506156 -0.38993415
000240 0a 24 64 bd 66 92 47 be 95 b9 38 3e b1 b8 77 be
       -0.055698432 -0.1948944 0.18039544 -0.24191548
000250 8f 32 38 3b b6 c9 b6 3e 09 a8 69 3c 1a f1 db 3e
       0.0028106307 0.35700768 0.014261254 0.42957383
000260 d6 fb 8a 3e d2 b6 50 bf 58 62 35 3e 2d 15 4c bd
       0.2714526 -0.8152896 0.17713296 -0.049824882
000270 22 ec 65 be c9 d0 9d bd a8 a7 2b bf c9 83 51 bc
       -0.22453359 -0.07705838 -0.670527 -0.012787768
000280 89 ab d2 be 7a e1 03 bf e0 0d 88 3d 9b a7 b2 be
       -0.41146496 -0.51515925 0.066432714 -0.34893498
000290 d4 0e e0 3e 94 cd cc be 83 00 0d 3e de bc 44 3e
       0.43761313 -0.40000594 0.13769726 0.19212672
0002a0 ca f8 a1 bd 86 18 39 bf ea f1 e9 3e 63 69 01 bd
       -0.07908781 -0.72303045 0.45692378 -0.031594645
0002b0 da b7 91 bc 16 7b d4 bd 2c 0e d2 bd b2 25 9d bd
       -0.017787863 -0.10375039 -0.10256609 -0.076732054
0002c0 40 12 5b be b3 02 8f 3e 33 c8 f9 bd 4e d3 29 3e
       -0.2139368 0.27931747 -0.12196388 0.16584513
0002d0 c5 27 d7 3e 52 4f 70 be b7 b6 87 be 7c 65 ae bd
       0.4202253 -0.23467758 -0.26506588 -0.0851545
0002e0 51 6e c7 be a2 0c ec 3c 47 61 4c bc 6d 45 05 3f
       -0.38951352 0.028814618 -0.012474365 0.5205906
0002f0 01 06 52 be fa a7 7d be 6b 21 46 3e e2 9f 09 3e
       -0.20510103 -0.24771109 0.19348685 0.13439897
000300 86 4b 1a 3e 8a 1c 3b be 9b 84 16 3e d2 81 92 3d
       0.15067872 -0.18272606 0.14699022 0.071536675
000310 75 6c dc 3d af 78 a7 3e 05 b3 13 bf e4 31 71 be
       0.10762874 0.32709262 -0.5769504 -0.23554188
000320 3b 9e 31 3e 5c 32 b7 3d 03 41 c0 bc 36 27 b7 3c
       0.17345516 0.08945152 -0.0234685 0.022357564
000330 2c 20 45 3d 56 20 31 3d 33 99 39 3e 31 89 a2 be
       0.048126385 0.04324373 0.18124847 -0.31745294
000340 a9 17 8e 3d ac 2d 2f bd 5a 34 fa bc e7 d3 1d bd
       0.069381066 -0.042768165 -0.030542541 -0.038532164
000350 de 8b 7c 3d b0 6c b9 3d 8d bf 69 be 03 72 a3 be
       0.061656825 0.090539336 -0.22826977 -0.31922922
000360 5c 7b 6d 3e 4e 75 71 3d c6 f7 a1 3e 9d 2d 9e 3d
       0.23191589 0.05894976 0.3163435 0.07723544
000370 e5 b6 bb be 41 6b a9 be 64 ba f2 bd f2 69 b3 bd
       -0.36662975 -0.3308964 -0.118519574 -0.08760442
000380 1b 0c 9d be 11 e9 57 be 5f 5a de be d0 38 37 3d
       -0.30673298 -0.21085002 -0.43428323 0.044731915
000390 c8 5e ba be 8f 4a d8 bd 22 e5 9c 3e 0e a0 a1 3c
       -0.36400437 -0.10561096 0.30643564 0.01972964
0003a0 74 1a a3 3d 66 e5 25 be 23 c0 14 be 7e fe 26 bc
       0.0796403 -0.1620079 -0.1452642 -0.010192512
0003b0 b2 82 da be d5 f0 06 be e9 c9 f2 be af e5 36 be
       -0.42677838 -0.13177808 -0.4741967 -0.17861055
0003c0 29 4a df be 7b 5e 81 be 7b 4f 98 be b5 16 e0 bd
       -0.43611267 -0.25267395 -0.2974814 -0.10941831
0003d0 fa 84 91 3e 60 0f 24 3f af fb 81 3e 9d c7 d1 3e
       0.28421766 0.6408596 0.25387332 0.40972605
0003e0 6a 49 81 be b9 1f 11 bc 5d 78 cb be b5 8a e9 39
       -0.25251323 -0.008857661 -0.39740267 0.00044544568
0003f0 01 ae 28 be d5 ef 82 3e 98 8d 0c 3e d3 6c b8 3d
       -0.16472627 0.25573602 0.13725889 0.090051316

fc4.bias f4 [32]
000000 7d 4c 03 be f6 d7 ad bd 4e 5c f4 bd 66 30 25 bc
       -0.12822147 -0.08488457 -0.11931668 -0.01008234
000010 8a 9a 2a bc bc d5 20 bd de 36 1d be e3 a2 88 bc
       -0.010412822 -0.039266333 -0.15352961 -0.016679233
000020 1f 5e 84 bc 17 03 ae bd 6c 41 ca bd 40 6a c0 bd
       -0.016158162 -0.08496683 -0.098757595 -0.093952656
000030 d2 2d f2 bd b4 d0 eb bd 90 0d 82 bd 3e ae 05 be
       -0.11825146 -0.11514416 -0.06350243 -0.1305475
000040 52 f7 ce bc b5 ea 13 be eb 1c 6f 3e 24 70 92 bd
       -0.025264416 -0.14445002 0.23350875 -0.071502954
000050 f7 e8 9d bd b1 96 81 bd 0a a1 ce bd ff 41 77 3d
       -0.0771045 -0.0632757 -0.100893095 0.060365673
000060 51 c0 8e bd 75 6b a1 bd a1 03 52 3d dd 9d fc bd
       -0.06970275 -0.07881824 0.051272992 -0.123347975
000070 35 dc a5 bd f7 99 d2 bd 86 18 22 be 19 09 d0 bd
       -0.08098642 -0.10283273 -0.15829667 -0.10157985

fc5.weight f4 [16, 32]
000000 f3 00 2f 3f 0f bc af be 1c 04 fc 3e 8a 2d 22 be
       0.68360823 -0.34323165 0.49221885 -0.15837684
000010 8d 84 71 3d b7 fb 86 be 93 4e f5 bd 87 9d 5c 3d
       0.0589643 -0.26363918 -0.119778775 0.053861167
000020 c0 f4 00 be 74 b5 dc be 55 55 e7 3e a9 1c c2 bd
       -0.12593365 -0.43107188 0.4518229 -0.09478123
000030 6a 9b 6a 3d 1d 25 05 3f e8 f9 9e bd ae 9f de be
       0.05727712 0.52009755 -0.077625096 -0.434812
000040 ea ce 0f 3f c1 55 05 3a 86 11 02 bf 40 af cb 3e
       0.561751 0.00050863257 -0.5080799 0.39782143
000050 ef 9b 5d 3d ba ac 02 be d0 42 f5 3c f5 ae 05 3f
       0.054103788 -0.12761202 0.029939085 0.5222009
000060 93 20 11 3f e9 43 88 3f 0f ca c7 bd 95 ae f1 3d
       0.5669033 1.0645725 -0.097553365 0.11800877
000070 3b d8 c6 bd 93 4e 68 3e 13 a2 df be a9 de 6c be
       -0.097092114 0.22686224 -0.4367834 -0.23131813
000080 78 d7 93 3e 55 0f b9 3e 87 75 58 bd 48 10 33 3f
       0.28875327 0.3614451 -0.052846458 0.6994672
000090 ee be 30 3f f2 2e 4e 3d 0a 48 eb 3e 01 4b 40 be
       0.69041336 0.05033774 0.459534 -0.18778612
0000a0 98 05 28 3f a0 76 d1 3d a2 65 e4 be 3d 95 2c bb
       0.65633535 0.10227704 -0.4460879 -0.002633407
0000b0 d8 09 86 3e 9a 7f 49 bf 39 02 38 bf 4b 74 18 be
       0.26179385 -0.7871033 -0.7187839 -0.14888112
0000c0 9c 19 1a 3f 10 34 02 be ee 11 1b bf 71 89 1b 3e
       0.60195327 -0.12715173 -0.60574234 0.15189148
0000d0 e4 c8 4a 3e bf 26 9f 3e cd 83 22 be 63 cb 0f bf
       0.19803196 0.31084248 -0.1587059 -0.5616972
0000e0 cc 26 8a be 2e d4 8f 3e 1e fa 98 be e0 b1 99 be
       -0.26982725 0.28091568 -0.29878324 -0.3001852
0000f0 20 9a b1 be 77 73 84 bd 7e 67 3f bf a0 b3 dc bc
       -0.346879 -0.06467336 -0.7476729 -0.02694112
000100 91 39 d6 be 84 ae 3e bf 0d a3 5e bd ee 7a fe be
       -0.41840795 -0.7448504 -0.054354716 -0.49703163
000110 e1 aa 20 be f5 60 a0 bc cf 69 15 3e 4e d5 07 3f
       -0.15690185 -0.019577483 0.14591144 0.5305985
000120 35 d3 79 3e 12 9e 20 be 7a 6c e1 bc dc 3f bf bd
       0.24396975 -0.15685299 -0.027517546 -0.09338352
000130 55 73 69 3d 68 6b b5 bd c9 67 db 3d c2 0e b6 be
       0.056994755 -0.08858377 0.10713155 -0.35558134
000140 ed 29 be be 19 bc 5a 3e 35 e2 00 bf 34 f8 93 3e
       -0.37141362 0.21360816 -0.50345165 0.289003
000150 bc 52 dd bd 80 01 6e be 52 23 cc be 43 f6 2b 3e
       -0.10806796 -0.2324276 -0.39870697 0.1679316
000160 a4 15 ec 3e 36 e4 b1 bd 29 32 f6 be 18 b3 c5 3e
       0.4611026 -0.08686106 -0.48085144 0.386132
000170 42 82 87 be 4e 3a 36 be 74 9f 0f 3f 27 e7 d8 be
       -0.26466566 -0.17795679 0.5610268 -0.42363855
000180 64 35 85 3e be 80 7e 3c 41 55 00 3f 01 c6 f7 bd
       0.26017296 0.015533624 0.5013009 -0.12098313
000190 66 a5 0a 3f c5 06 a8 be bf 80 8f be 96 b7 00 3d
       0.5415863 -0.32817665 -0.28027913 0.03142508
0001a0 cb c8 3f 3b b0 db b5 be 6e db d4 3e 2d e5 58 3e
       0.002926397 -0.3551917 0.41573662 0.21181174
0001b0 17 ea 8a be 85 38 a3 be 1d ce 11 bf 8a 6b d4 be
       -0.2713172 -0.31879058 -0.5695513 -0.41488296
0001c0 9e 2a 34 3d 66 9a c6 be 35 dc cb be b4 ad 26 3e
       0.043985955 -0.38789672 -0.39816442 0.162772
0001d0 10 3b 10 3e 74 10 bc be 0e 5c 9e be 19 98 a4 3e
       0.1408503 -0.36731303 -0.30929607 0.3214729
0001e0 ce 7c 41 3f d7 63 57 bd d5 f8 1d be a5 71 69 be
       0.7558106 -0.05258545 -0.15426953 -0.22797258
0001f0 0c c0 b9 bd 89 9b ec be 63 6a bb 3d 64 d4 85 bf
       -0.09069833 -0.46212414 0.09151151 -1.0455441
000200 e3 a6 37 be 3d 10 2c 3f 23 74 e1 be 05 9a 82 be
       -0.17934756 0.6721228 -0.44033918 -0.25508133
000210 b9 59 b5 3d 0f 68 14 bf 95 3e 28 3f 5f 11 93 bf
       0.08855004 -0.5797128 0.6572049 -1.1489676
000220 84 f4 95 3e e3 da 0a 3e 2e 9e 46 3e 16 d2 1c 3f
       0.29288113 0.13560061 0.19396278 0.61258066
000230 36 f9 b8 bc 0d 20 99 bd 7f bb 0f 3f 87 3d 9d 3e
       -0.02257977 -0.07476816 0.5614547 0.30711004
000240 22 f5 5a 3e 41 02 27 bd d8 62 c5 bd 8a 0c c9 bd
       0.21382573 -0.040773634 -0.096379936 -0.09816845
000250 73 a1 f0 3e 9b d0 6c 3e 3a 4a 94 be 29 a4 27 3e
       0.46998176 0.23126452 -0.2896288 0.16371216
000260 75 65 a5 3c 76 77 a3 be a7 c9 98 bf 35 f6 2c bf
       0.02018998 -0.3192708 -1.193654 -0.6756318
000270 cf 7c 24 be ee 75 00 3f 11 51 79 bd a7 f2 33 be
       -0.16063236 0.50179946 -0.060868327 -0.17573033
000280 2e 7e d8 be 7a 2d 9b be 30 af 91 3d b3 88 d9 be
       -0.42283767 -0.30308133 0.071134925 -0.42487106
000290 ba 0a 8a 3e e1 c8 b8 bd fa 6b 96 3e 55 18 18 3e
       0.2696131 -0.090226896 0.29379255 0.14853032
0002a0 f1 06 50 3e bc 7d b8 be f4 61 a4 be 9f 6c a3 3e
       0.20315148 -0.36033428 -0.32105982 0.3191881
0002b0 f5 2f cf be 73 fc 1c 3e 54 92 04 bf 25 51 60 3e
       -0.40466276 0.15330677 -0.5178578 0.21905954
0002c0 24 b2 b0 bd 53 fa 16 3e a0 b1 2f be f8 89 11 be
       -0.08627728 0.14743929 -0.17157602 -0.14212787
0002d0 b6 b9 3f 3f 66 fc b0 3e 74 1b ab 3e 56 d5 fa be
       0.7489275 0.34567565 0.33419383 -0.48990887
0002e0 48 fb b1 3e 60 d5 8c be e6 50 6b bf 81 8d 6f 3e
       0.34762025 -0.27506542 -0.91920316 0.23393823
0002f0 d1 d9 ab bc 37 be be be df 49 1c bf 70 a0 82 3e
       -0.020977886 -0.37254497 -0.6105022 0.2551303
000300 4d 97 9b 3d b3 68 9d be 4f a0 0d be 5d ae d1 3c
       0.07597218 -0.30743942 -0.13830684 0.025595838
000310 90 74 30 bf 4f 5f 89 be bf 78 a3 bd 6a 58 f8 3d
       -0.6892786 -0.26830527 -0.07982015 0.12126239
000320 80 31 cc be 31 7b 86 3e b9 f5 4f 3e 40 fa 8c 3c
       -0.39881516 0.26265863 0.2030858 0.017209172
000330 9e 7c 1d 3f 81 1a 96 3e d0 98 13 3e 98 77 d5 be
       0.61518276 0.29317096 0.14413762 -0.41692805
000340 a1 60 8a 3e 26 5b f0 3d 0c 97 0f be 8c 18 17 3d
       0.27026847 0.11736135 -0.14022464 0.036888644
000350 5e 79 02 be ab b7 bc 3e bb 80 b3 bc 16 88 04 bf
       -0.1274161 0.36858878 -0.02191197 -0.5177015
000360 f6 1a 9e 3e c7 e0 07 be ca e4 c8 bd a6 8b 36 3e
       0.30879945 -0.1326934 -0.09809263 0.17826709
000370 ad 1d 4a 3e 34 32 0a 3f 39 60 68 be 2a ab a4 bd
       0.19737883 0.53982854 -0.22692956 -0.080404595
000380 ee 5d 9f 3e 17 f6 16 3e b8 04 19 bf ad 7a bc bd
       0.3112635 0.14742313 -0.59772825 -0.09203086
000390 32 3b 3c 3e ce dc 9d 3e 16 c0 40 3e 68 60 cd bc
       0.18381956 0.30832523 0.18823275 -0.025070384
0003a0 a2 b3 3f be fd 9d 28 bf 8c c2 34 3d 5d 4f a2 3e
       -0.18720868 -0.6586607 0.044130847 0.31701174
0003b0 4a 3e d5 be 78 c4 ce 3e 10 70 14 3e f3 4f e7 3e
       -0.41649085 0.4038427 0.14495873 0.45178184
0003c0 56 5e 7a bd c2 08 c2 3d 2b bc 8c be 41 bc c5 3e
       -0.061125122 0.09474327 -0.2748731 0.3862019
0003d0 99 58 43 be 66 52 e6 3e c3 37 11 3f 2a f4 06 bf
       -0.19076766 0.4498474 0.5672571 -0.52716315
0003e0 b4 21 11 3e 4a 54 54 bc ad a6 b9 be 68 8d 83 be
       0.14173013 -0.012959549 -0.36259976 -0.25693822
0003f0 7e d8 a4 be 52 92 94 3d 6c fd 13 3d 4c b4 d0 be
       -0.3219642 0.07254471 0.036130354 -0.40762556

fc5.bias f4 [16]
000000 41 19 ca bd f8 fc e1 bd fb 42 1a 3d b0 d1 ad 3d
       -0.09868098 -0.11034578 0.037661534 0.0848726
000010 6e b6 27 be 61 b2 08 3b fd 92 61 be 0d e7 21 be
       -0.16378185 0.0020858275 -0.22028728 -0.15810795
000020 d2 00 a8 be 14 17 5e be 7a 9a 37 3d aa 99 77 be
       -0.32813126 -0.21688491 0.044825055 -0.24179712
000030 74 de 27 be 1f 1a 13 be f9 a3 79 be 18 b7 41 3e
       -0.16393453 -0.14365433 -0.24378957 0.18917501
