3设备模型/model_weight/chiller_model_weights.pth (torch, 185531 bytes, 14 tensors)

fc1.weight f4 [256, 5]
-0.0028539805 0.24199472 -0.17917076 -0.138299 0.23629712 0.036149833 -0.035422884 -0.17100967
-0.02863941 0.08112956 -0.110519394 -0.039943974 0.014597429 -0.007854097 0.017790558 -0.1195252
-0.015333327 -0.0648817 0.046867985 0.001968968 -0.042392425 -0.65644383 -0.24001665 0.09211
0.2576431 -0.26803944 -0.28731278 -0.090201855 0.15227361 -0.056371767 -0.07309162 -0.07420768
-0.019163348 -0.00952065 0.033222917 -0.1351805 -0.07466093 0.0663783 -0.12378194 -0.0063925292
0.03383417 0.19029932 0.2860894 -0.12145866 0.035621963 0.027364584 -0.039482493 -0.036088973
0.100361615 -0.09753001 -0.12728436 0.14384425 -0.020257996 -0.06757367 -0.020941297 -0.12227724
-0.3337582 -0.018107023 0.016146086 0.109114565 -0.104080394 -0.01984552 -0.16723108 -0.15339676
0.1908429 0.014083876 0.003037297 -0.18976453 -0.030204581 -0.47707656 0.05610214 0.09024091
-0.088890776 -0.06839651 0.055725615 -0.122433156 0.062055573 -0.2294134 -0.10681812 -0.11191008
0.2278771 0.06002869 0.007115629 -0.11620001 0.11386811 -0.21585274 -0.07328824 0.04741551
-0.007603014 -0.14392442 0.092787616 0.09027698 0.010205891 -0.18044011 -0.073493265 -0.082405426
-0.14644787 0.09159509 -0.047671806 0.017762264 0.015503266 -0.055798966 -0.027848603 0.032510977
0.04856652 0.0043221437 -0.145887 0.04053883 0.083335415 -0.20216374 -0.20091563 0.10128103
0.028715547 0.06385211 -0.45166522 0.003541327 -0.07130835 -0.23050782 0.19390549 -0.06483043
0.07872778 0.048389964 0.101428084 -0.10623772 0.07181488 0.11976446 0.04995014 0.1727467
-0.066102274 -0.1124585 0.0016464852 -0.0044273213 0.0016827642 -0.12919839 -0.07706853 -0.13205294
0.038575605 0.009728583 -0.0037909665 0.0022210989 -0.0045291716 0.04175038 -0.062495198 -0.28804353
0.3993407 0.09594963 -0.15530294 0.07707941 0.14176609 -0.031950843 -0.025412893 -0.088137
0.12595499 0.038176738 -0.13361494 0.049141727 0.059399128 -0.17716575 -0.13843533 -0.0744233
0.05249075 -0.0033106974 0.13090728 0.15836589 0.05726695 -0.12707889 -0.350179 -0.13878319
-0.06846772 0.0072016646 0.16639674 -0.071388476 0.20968792 -0.21570776 -0.39208344 -0.061179537
-0.118217334 0.0034878543 0.029917998 -0.09904841 0.084676854 0.13531063 -0.018556478 0.08220939
-0.1838122 0.10235849 -0.16167027 -0.08909128 -0.23654763 -0.15824823 -0.27052376 0.014506335
-0.084235184 0.31090143 -0.0251174 -0.06322817 -0.10261278 -0.25079963 0.06699747 -0.1458217
0.20068769 -0.0825752 -0.06617493 0.012880966 0.09974366 -0.051194195 -0.032114293 0.062133517
0.017637508 0.10694355 -0.18784462 0.17951415 -0.08911848 -0.20847574 0.029178426 0.0059555764
-0.07393448 0.07040486 -0.023294806 0.13032407 -0.024718314 -0.020755732 0.07033915 -0.0067523485
-0.09021206 -0.21186368 0.1897102 -0.081850685 -0.26738617 0.10844491 -0.085583724 -0.116149135
-0.013254079 -0.11252036 0.00477497 0.09586978 0.056783177 0.03178002 0.10018351 -0.011905718
0.13350873 -0.09588568 0.22219327 0.24562486 -0.25058457 -0.0773724 -0.07495056 -0.049392533
0.057680815 -0.024785293 -0.28233588 0.03061826 0.1574433 0.094716266 -0.037389904 0.039426804
00000000: d909 3bbb 77cd 773e 8a78 37be 419e 0dbe
00000010: dff7 713e d911 143d 9617 11bd 291d 2fbe
00000020: 329d eabc 4127 a63d fe57 e2bd 4b9c 23bd
00000030: 0e2a 6f3c 78ae 00bc 81bd 913c a1c9 f4bd
00000040: a338 7bbc b2e0 84bd a5f8 3f3d cd09 013b
00000050: aea3 2dbd b40c 28bf edc6 75be 2ba4 bc3d
00000060: cce9 833e 773c 89be a91a 93be c0bb b8bd
00000070: 9ded 1b3e 15e6 66bd 0fb1 95bd 32fa 97bd
00000080: 74fc 9cbc 80fc 1bbc c114 083d c26c 0abe
00000090: d4e7 98bd 59f1 873d 6381 fdbd 6c78 d1bb
000000a0: b395 0a3d d3dd 423e 4f7a 923e 51bf f8bd
000000b0: 56e8 113d b12b e03c 65b8 21bd 08d2 13bd
000000c0: 648a cd3d d0bd c7bd d556 02be e84b 133e
000000d0: 19f4 a5bc 1064 8abd 158d abbc 7d6c fabd
000000e0: 5be2 aabe 2e55 94bc cc44 843c 7577 df3d
000000f0: 1a28 d5bd 1293 a2bc a03e 2bbe 0a14 1dbe
00000100: 526c 433e 0fc0 663c 630d 473b a251 42be
00000110: 996f f7bc 6143 f4be 5ccb 653d 3ad0 b83d
00000120: 5e0c b6bd 7813 8cbd 8b40 643d 3cbe fabd
00000130: fc2d 7e3d 59eb 6abe 75c3 dabd 1d31 e5bd
00000140: 9d58 693e a5e0 753d 392a e93b 45fa edbd
00000150: af33 e93d 8008 5dbe 2518 96bd c436 423d
00000160: b422 f9bb ec60 13be 6f07 be3d 23e3 b83d
00000170: 9c36 273c 4bc5 38be a383 96bd 2dc4 a8bd
00000180: 6ef6 15be 3596 bb3d 8343 43bd 2b82 913c
00000190: 6901 7e3c 758d 64bd c122 e4bc 3b2a 053d
000001a0: b0ed 463d c5a0 8d3b 6763 15be 0b0c 263d
000001b0: c2ab aa3d 0304 4fbe d4bc 4dbe 6e6c cf3d
000001c0: de3c eb3c e5c4 823d aa40 e7be 9c15 683b
000001d0: 1d0a 92bd 3e0a 6cbe 298f 463e d1c5 84bd
000001e0: 083c a13d 8e34 463d 87b9 cf3d 2993 d9bd
000001f0: ae13 933d 1247 f53d 8598 4c3d 83e4 303e
00000200: a160 87bd a450 e6bd e0ce d73a 1013 91bb
00000210: 3290 dc3a 954c 04be 1bd6 9dbd e338 07be
00000220: 7401 1e3d a264 1f3c dd71 78bb db8f 113b
00000230: 7269 94bb 7202 2b3d f7fa 7fbd 717a 93be
00000240: 6276 cc3e 3d81 c43d bc07 1fbe cfdb 9d3d
00000250: 212b 113e e3de 02bd b32e d0bc 2c81 b4bd
00000260: 58fa 003e 365f 1c3d 5bd2 08be d648 493d
00000270: 804c 733d f06a 35be fec1 0dbe 3e6b 98bd
00000280: 8a00 573d 49f8 58bb 8f0c 063e ab2a 223e
00000290: c090 6a3d f820 02be a94a b3be 2e1d 0ebe
000002a0: ce38 8cbd f1fb eb3b e863 2a3e 1f34 92bd
000002b0: 6eb8 563e 7fe2 5cbe 29bf c8be 6597 7abd
000002c0: ee1b f2bd 7c94 643b 9716 f53c e5d9 cabd
000002d0: 0f6b ad3d df8e 0a3e c103 98bc 665d a83d
000002e0: 4439 3cbe 54a1 d13d e48c 25be 7d75 b6bd
000002f0: 8b39 72be d30b 22be 1782 8abe fbab 6d3c
00000300: 7f83 acbd 792e 9f3e 01c3 cdbc c57d 81bd
00000310: a626 d2bd cf68 80be f835 893d 4952 15be
00000320: 1381 4d3e 301d a9bd b986 87bd b00a 533c
00000330: 6746 cc3d 01b1 51bd 478a 03bd b77f 7e3d
00000340: 897c 903c 3805 db3d 575a 40be 8fd2 373e
00000350: c083 b6bd aa7a 55be 9807 ef3c ff26 c33b
00000360: f66a 97bd 6c30 903d c0d4 bebc ac73 053e
00000370: 107e cabc ed07 aabc f90d 903d ce42 ddbb
00000380: 1ac1 b8bd cbf2 58be 6443 423e 55a1 a7bd
00000390: d7e6 88be 5d18 de3d 8546 afbd 99df edbd
000003a0: a327 59bc 1371 e6bd 5a77 9c3b 6057 c43d
000003b0: 7a95 683d c42b 023d 032d cd3d 3310 43bc
000003c0: 83b6 083e b65f c4bd a286 633e 1585 7b3e
000003d0: 9f4c 80be 6c75 9ebd ae7f 99bd d34f 4abd
000003e0: b842 6c3d 870a cbbc 548e 90be 25d3 fa3c
000003f0: d138 213e 9afa c13d 2826 19bd 007e 213d

fc1.bias f4 [256]
-0.00044762093 0.2340224 -0.36965814 -0.19428247 0.07030208 0.25894752 -0.0011120439 0.18537998
-0.06597004 -0.23356164 -0.34932575 0.1376899 0.15165971 0.2455834 -0.37688267 0.30150294
-0.28635025 0.35022864 0.043190993 -0.3533603 -0.40130192 0.06570768 0.25595933 0.05189821
0.22494395 -0.2719612 -0.1158565 -0.040162385 -0.060449712 0.100696646 -0.42978612 -0.15059972
-0.41661632 0.24139653 0.120857455 -0.2936392 -0.24953909 0.258455 0.09249419 0.2235906
-0.35398218 0.157329 0.2297528 0.2833285 -0.41582918 0.23474258 -0.32499462 -0.32220906
-0.07512556 -0.26360065 0.11998553 0.051589455 -0.0644055 -0.26295984 -0.20296603 0.19096637
-0.38850218 -0.38157168 -0.41057822 -0.11638108 -0.038563132 0.17030627 0.049568146 -0.39980865
0.0025691444 -0.11640838 -0.049129806 -0.24859093 0.19141114 0.25535676 0.22251818 -0.35023868
0.2584805 -0.07078849 0.16823997 0.11895795 0.354304 0.29321563 -0.11119762 0.23230806
-0.26385355 -0.03843351 0.2069545 -0.35607654 0.12006257 0.2484447 0.1916809 -0.14363599
0.14909533 0.042721998 0.22342573 0.12956055 0.27292877 -0.16530642 -0.19941914 0.18320838
-0.2813024 -0.20250179 -0.22291592 0.21739995 0.03848459 -0.13664179 0.18544763 -0.37076193
-0.08564186 0.007415265 -0.36465567 0.19845712 -0.30293053 -0.23476057 -0.4238282 0.16360055
-0.048159342 -0.35968715 0.12088633 0.11821205 -0.27052307 -0.08999196 -0.40730602 0.17518471
0.22460279 0.16182375 0.08024443 -0.422854 -0.38184842 -0.13504598 -0.35738978 -0.22986749
0.11894255 0.20426051 0.058556437 -0.18889196 0.23074907 -0.26068643 0.3001224 0.055216428
-0.37262806 -0.40473974 -0.32721913 -0.40415096 -0.07389968 -0.045659274 -0.28546906 -0.40094617
0.16822872 -0.4351363 0.06538955 0.20126893 -0.2299029 0.16372964 0.09206866 0.121056505
0.16523051 -0.07536304 -0.16347319 0.2991958 0.2820375 0.28734872 -0.31176817 0.22465776
0.03276698 -0.33907604 0.011217105 -0.054473553 -0.41533315 0.11793006 -0.3284855 0.15945482
0.13007231 -0.41920084 0.35580215 -0.21114282 -0.33542305 0.31390867 0.19003771 0.1459445
0.07217355 -0.31888694 -0.027666036 0.18114558 -0.18307629 -0.15997732 -0.42435664 -0.0023813844
-0.16597188 0.12876947 -0.26762038 -0.21003202 -0.13476881 -0.3788076 -0.18342051 0.09924756
0.23390935 0.29820812 -0.37166253 0.10755987 -0.20393302 0.27040446 0.24724641 0.29812756
-0.12341133 0.15182185 0.12103295 0.3809595 -0.33946612 0.090444334 0.39713067 -0.12705341
0.16648781 0.023305861 -0.3117725 0.3640554 -0.26982272 0.08282159 0.04709492 -0.013989005
0.020430444 0.26586142 -0.23596229 -0.33311692 0.08710431 -0.3397345 -0.015037244 -0.17699152
-0.15177497 0.094464585 -0.42919254 0.036914557 0.32400683 0.027904902 -0.0742481 -0.049442995
0.07999293 -0.35009497 0.017363403 0.19125417 0.19741002 -0.18711889 -0.15336266 -0.42088315
0.15234154 0.28200576 0.28199834 0.37837988 -0.4058249 0.20129621 -0.22522375 -0.042651284
0.14970979 0.12513188 -0.10778639 0.13433306 0.12440918 -0.002951281 0.20079593 -0.34353477
00000000: aaae eab9 91a3 6f3e d543 bdbe fcf1 46be
00000010: 89fa 8f3d c594 843e 00c2 91ba 40d4 3d3e
00000020: 4d1b 87bd c82a 6fbe d3da b2be 95fe 0c3e
00000030: af4c 1b3e 377a 7b3e c4f6 c0be 985e 9a3e
00000040: 809c 92be 2b51 b33e 0ae9 303d a4eb b4be
00000050: 7277 cdbe c091 863d 1a0d 833e 3893 543d
00000060: b557 663e 803e 8bbe 2c46 edbd 5081 24bd
00000070: 1e9a 77bd 0b3a ce3d ed0c dcbe d036 1abe
00000080: bc4e d5be a730 773e 1d84 f73d e157 96be
00000090: 2d87 7fbe 3754 843e 986d bd3d eff4 643e
000000a0: 273d b5be da1a 213e 5144 6b3e 6f10 913e
000000b0: 90e7 d4be 5c60 703e b265 a6be 96f8 a4be
000000c0: 6edb 99bd aaf6 86be f9ba f53d 774f 533d
000000d0: 08e7 83bd aca2 86be 54d6 4fbe b08c 433e
000000e0: c2e9 c6be 5d5d c3be 4f37 d2be 3459 eebd
000000f0: 60f4 1dbd c464 2e3e f807 4b3d b8b3 ccbe
00000100: 175f 283b 8467 eebd 563c 49bd 9f8e 7ebe
00000110: 4801 443e 1fbe 823e cedb 633e 7c52 b3be
00000120: 8e57 843e 8ef9 90bd 1947 2c3e 3aa0 f33d
00000130: 5567 b53e 5c20 963e 94bb e3bd 2ae2 6d3e
00000140: d017 87be 756c 1dbd e1eb 533e aa4f b6be
00000150: 5de3 f53d 4a68 7e3e ff47 443e 5015 13be
00000160: 72ac 183e 43fd 2e3d b7c9 643e 85ab 043e
00000170: 52bd 8b3e 1646 29be 8834 4cbe fa9a 3b3e
00000180: de06 90be a15c 4fbe 1244 64be 189e 5e3e
00000190: 04a2 1d3d d3eb 0bbe fce5 3d3e 82d4 bdbe
000001a0: 0065 afbd c0fb f23b 26b4 babe 5838 4b3e
000001b0: b619 9bbe 1365 70be 0300 d9be e786 273e
000001c0: bb42 45bd ea28 b8be 4193 f73d 2919 f23d
000001d0: 0082 8abe b44d b8bd 6a8a d0be 9f63 333e
000001e0: 46fe 653e 20b5 253e 3157 a43d 5280 d8be
000001f0: a381 c3be 7e49 0abe cbfb b6be 6262 6bbe
00000200: 2798 f33d ab29 513e e0d8 6f3d e56c 41be
00000210: 7c49 6c3e b178 85be a5a9 993e 9f2a 623d
00000220: 1bc9 bebe 0c3a cfbe 4489 a7be e0ec cebe
00000230: b758 97bd 3805 3bbd 0029 92be d148 cdbe
00000240: 2644 2c3e 2fca debe f5ea 853d 7119 4e3e
00000250: aa6b 6bbe bea8 273e 7e8e bc3d 79ec f73d
00000260: 3032 293e f057 9abd 8465 27be 3130 993e
00000270: 3867 903e 5f1f 933e 14a0 9fbe af0c 663e
00000280: ab36 063d 609b adbe f3c7 373c a91f 5fbd
00000290: 8ca6 d4be 5185 f13d 402f a8be 2048 233e
000002a0: ad31 053e 7ea1 d6be b32b b63e d335 58be
000002b0: 92bc abbe a3b8 a03e 3f99 423e 7a72 153e
000002c0: bacf 933d 2645 a3be e2a3 e2bc 3a7e 393e
000002d0: 5a78 3bbe 18d1 23be 4645 d9be 0011 1cbb
000002e0: 88f4 29be 25dc 033e 8a05 89be a212 57be
000002f0: d600 0abe 12f3 c1be 96d2 3bbe 4e42 cb3d
00000300: ef85 6f3e bcae 983e 8d4a bebe 5948 dc3d
00000310: d1d3 50be 7472 8a3e 2a2e 7d3e 2da4 983e
00000320: 14bf fcbd 3077 1b3e 20e0 f73d 200d c33e
00000330: 81ce adbe e13a b93d b654 cb3e 4a1a 02be
00000340: c87b 2a3e efeb be3c a5a0 9fbe 7865 ba3e
00000350: 3426 8abe 5e9e a93d 9ae6 403d 2432 65bc
00000360: bf5d a73c fd1e 883e 19a0 71be 4d8e aabe
00000370: bf63 b23d aef1 adbe c65e 76bc 443d 35be
00000380: e66a 1bbe a676 c13d 20bf dbbe b833 173d
00000390: 39e4 a53e d298 e43c 630f 98bd bd84 4abd
000003a0: 55d3 a33d a63f b3be b23d 8e3c 22d8 433e
000003b0: da25 4a3e 189c 3fbe 1a0b 1dbe ff7d d7be
000003c0: 6cff 1b3e 0f63 903e 1662 903e 02bb c13e
000003d0: 48c8 cfbe 9820 4e3e 0ea1 66be 1db3 2ebd
000003e0: 864d 193e 9222 003e 1cbf dcbd 9b8e 093e
000003f0: 3dca fe3d 476a 41bb 739d 4d3e cae3 afbe

fc2.weight f4 [128, 256]
0.0613233 0.14269021 -0.03501051 -0.17962079 0.038101114 -0.20027679 0.05817934 -0.2775047
0.036992073 -0.03536541 -0.051840838 -0.06635065 0.14259644 -0.07246684 0.080076024 -0.057496388
0.1120057 -0.15465106 -0.017858421 0.03652485 -0.19465621 -0.0031624308 -0.112051465 -0.21064298
-0.09885204 -0.09043762 -0.09181455 0.08773055 -0.0373113 -0.03784234 -0.077856764 -0.022541145
0.21333626 0.04087755 0.023177959 -0.0132265985 0.12689538 -0.206277 0.1290565 -0.21564806
-0.13420293 0.108994134 -0.082084514 -0.17822169 -0.07317972 -0.14798516 -0.07104448 0.0121179195
-0.102916695 -0.31520924 0.121487394 0.28224206 -0.18857612 -0.026337588 0.1921486 0.008342427
0.17423576 0.05508561 0.12360845 0.023072042 0.03984084 -0.24737945 0.048794873 -0.02881944
0.002839241 -0.1913881 0.0027305363 0.02690019 -0.0039328425 0.123057894 -0.2796578 0.018109294
-0.044205982 -0.03711126 -0.08985542 0.019880783 0.392271 -0.055222 -0.07944886 -0.16335557
-0.04039081 -0.025090119 -0.13347001 -0.09088894 0.046655834 -0.034917705 0.009737195 0.0033663835
-0.25265363 -0.18128738 0.17496224 -0.07176269 0.04129096 -0.05335755 0.13471462 0.22993879
0.13220206 0.2792333 -0.09008243 -0.20173126 -0.07471336 -0.25573832 0.052436784 0.020436283
0.078835614 -0.03497534 0.15720011 0.11017742 0.042926796 0.025710262 0.039045736 0.025710093
-0.03782578 0.019353587 -0.14823084 -0.034683883 0.2251556 0.25546923 -0.2542189 -0.2511933
-0.029595673 -0.08899167 -0.16850865 0.083002456 0.24447183 0.06845608 0.0035799923 -0.057292286
-0.058292933 0.07920309 -0.32524842 0.07377399 -0.21671426 -0.059387818 0.07840902 -0.10256362
0.0049366853 -0.084508486 0.23107927 -0.07525341 0.16395727 0.015276479 -0.06986127 -0.26535937
-0.03061997 0.098705694 0.13332011 -0.016473802 0.0152440015 -0.10378226 0.15650865 -0.06297074
-0.23179151 0.0068922 0.10743094 -0.099676296 0.0832068 -0.24854681 -0.17657273 0.2274568
-0.07305192 -0.053573243 0.15421651 0.042876318 0.03719257 0.0024530117 0.0927815 -0.0691963
0.12988189 -0.15547286 0.02391147 -0.21022 -0.018730666 -0.24011874 0.27202922 -0.07951083
0.16115251 0.03541172 0.029857863 -0.10158652 -0.3628709 -0.0038972856 -0.1914035 -0.19662327
0.14595616 -0.12443247 -0.0066057825 -0.18516642 -0.07914467 0.03769004 -0.021063088 -0.024184294
0.04536893 -0.02143087 0.040948015 -0.17564347 0.07841361 -0.20805585 -0.19858438 -0.09135899
0.15344007 0.18454558 0.025522463 -0.22084479 -0.084477216 -0.18449819 0.04744933 -0.19361326
0.006927651 0.068360746 -0.13251865 0.043457173 -0.20835108 -0.066063076 -0.0047676093 0.193792
0.30817497 -0.12859634 0.095412575 -0.1347685 0.16050239 -0.22176796 -0.029489845 -0.14474124
-0.11540776 -0.074290596 0.15840341 0.051333394 -0.12902765 0.15490472 -0.15518165 -0.08083702
0.078476354 0.16453141 -0.20075966 -0.27160105 -0.087907664 0.016808638 0.0839615 0.06389077
0.029605739 -0.1369764 -0.066974975 -0.08955652 0.20746595 -0.07787846 -0.08211594 -0.2876784
-0.01554979 -0.26880506 -0.0989868 0.027301513 0.1023565 -0.12078031 0.0141109675 -0.048280094
00000000: 242e 7b3d 621d 123e 2e67 0fbd 83ee 37be
00000010: ea0f 1c3d 5c15 4dbe 764d 6e3d 1915 8ebe
00000020: 0085 173d 52db 10bd 0f57 54bd d9e2 87bd
00000030: cd04 123e 7f69 94bd e6fe a33d 5581 6bbd
00000040: 3f63 e53d d95c 1ebe d34b 92bc 159b 153d
00000050: f553 47be c940 4fbb 3d7b e5bd cbb2 57be
00000060: f072 cabd 5c37 b9bd 4409 bcbd 13ac b33d
00000070: bcd3 18bd 9200 1bbd 5e73 9fbd 35a8 b8bc
00000080: d274 5a3e 386f 273d b4df bd3c 60b4 58bc
00000090: ddf0 013e 473a 53be 6327 043e d8d2 5cbe
000000a0: 7e6c 09be 5138 df3d ed1b a8bd bf7f 36be
000000b0: 40df 95bd 6c89 17be c57f 91bd 3d8a 463c
000000c0: fdc5 d2bd 1b63 a1be 62ce f83d 0882 903e
000000d0: 191a 41be edc1 d7bc 9ac2 443e adae 083c
000000e0: dc6a 323e 73a1 613d 6d26 fd3d 9401 bd3c
000000f0: 2630 233d 0a51 7dbe 22dd 473d bf16 ecbc
00000100: 8f12 3a3b 3efb 43be ccf2 323b ca5d dc3c
00000110: 13df 80bb c705 fc3d 4f2f 8fbe f159 943c
00000120: 5511 35bd fa01 18bd 1e06 b8bd 06dd a23c
00000130: bfd7 c83e 7730 62bd 15b6 a2bd af46 27be
00000140: d670 25bd cb89 cdbc 5dac 08be fb23 babd
00000150: 301a 3f3d de05 0fbd c288 1f3c 8b9e 5c3b
00000160: d15b 81be 66a3 39be 4d29 333e 51f8 92bd
00000170: b620 293d 728d 5abd a1f2 093e 1375 6b3e
00000180: fa5f 073e abf7 8e3e 237d b8bd a492 4ebe
00000190: 5103 99bd 22f0 82be f4c7 563d fe69 a73c
000001a0: 9174 a13d 4d42 0fbd 11f9 203e b3a4 e13d
000001b0: 02d4 2f3d 549e d23c 6cee 1f3d f99d d23c
000001c0: 35ef 1abd 6a8b 9e3c d3c9 17be b010 0ebd
000001d0: 318f 663e ddcc 823e fb28 82be 699c 80be
000001e0: a072 f2bc 4441 b6bd 888d 2cbe 31fd a93d
000001f0: d356 7a3e b432 8c3d 4e9e 6a3b 51ab 6abd
00000200: 92c4 6ebd 3b35 a23d f686 a6be d116 973d
00000210: 58ea 5dbe a440 73bd e994 a03d e00c d2bd
00000220: ebc3 a13b c912 adbd 0ba0 6c3e 761e 9abd
00000230: 6ae4 273e 324a 7a3c 6d13 8fbd 2fdd 87be
00000240: bbd6 fabc 3626 ca3d 1185 083e 11f4 86bc
00000250: fac1 793c cb8b d4bd ce43 203e cef6 80bd
00000260: c15a 6dbe f7d7 e13b c104 dc3d 1623 ccbd
00000270: 5468 aa3d 0e83 7ebe 7bcf 34be 6fea 683e
00000280: 3f9c 95bd 9e6f 5bbd efea 1d3e 149f 2f3d
00000290: 3c57 183d b5c2 203b 3a04 be3d cab6 8dbd
000002a0: c2ff 043e 4734 1fbe fde1 c33c e943 57be
000002b0: 0e71 99bc b0e1 75be 6a47 8b3e 93d6 a2bd
000002c0: 2a05 253e e10b 113d 7a98 f43c 980c d0bd
000002d0: 37ca b9be 9a69 7fbb 47ff 43be 9c57 49be
000002e0: 8875 153e 73d6 febd 5275 d8bb 449c 3dbe
000002f0: 9a16 a2bd df60 1a3d 7f8c acbc 241e c6bc
00000300: c5d4 393d cb8f afbc 1bb9 273d e2db 33be
00000310: 5197 a03d 980c 55be b459 4bbe 6c1a bbbd
00000320: 651f 1d3e 84f9 3c3e 7c14 d13c 2325 62be
00000330: 6402 adbd 18ed 3cbe 3b5a 423d 8e42 46be
00000340: 5901 e33b b800 8c3d f8b2 07be 2600 323d
00000350: fc59 55be 144c 87bd 9b39 9cbb 6971 463e
00000360: 1cc9 9d3e c2ae 03be ab67 c33d c100 0abe
00000370: bd5a 243e 2417 63be b094 f1bc 0c37 14be
00000380: e75a ecbd ab25 98bd 8134 223e f742 523d
00000390: d31f 04be 589f 1e3e f0e7 1ebe e18d a5bd
000003a0: 36b8 a03d ec7a 283e f193 4dbe 4b0f 8bbe
000003b0: ef08 b4bd 45b2 893c 02f4 ab3d 2ad9 823d
000003c0: bc87 f23c 8b43 0cbe 2d2a 89bd 6969 b7bd
000003d0: f471 543e be7e 9fbd 672c a8bd 954a 93be
000003e0: 8cc4 7ebc d1a0 89be 97b9 cabd 6ca7 df3c
000003f0: 49a0 d13d ab5b f7bd b031 673c 59c1 45bd

fc2.bias f4 [128]
-0.0031913684 -0.0111101465 -0.023633473 -0.010822485 0.07838624 -0.0068855956 -0.053468376 0.0581357
-0.06881044 -0.036714334 0.0147167845 -0.045177553 0.025357291 0.026840504 -0.047318414 -0.09973579
-0.01907663 0.009208217 -0.04665271 -0.009591542 -0.09912677 -0.090257555 0.025709052 -0.027606571
0.018879116 -0.046740416 -0.039272748 0.00989627 0.010911974 0.08139221 0.030013995 -0.035670932
-0.061744414 -0.062468648 0.03356876 0.01743829 -0.01571137 -0.059583873 -0.04383003 0.00476775
0.02124482 -0.07036133 -0.00931189 0.03944106 0.022597164 -0.00054011674 -0.04287558 -0.092049204
-0.046937883 -0.01410599 0.05566955 -0.07247446 -0.039470144 -0.055229705 -0.04865928 -0.058842484
-0.048720945 -0.06862401 0.023940718 -0.0068932893 -0.007562373 -0.08370693 0.015585021 0.07200253
-0.07363439 -0.04755251 0.03607579 0.022847518 -0.009389841 0.03369435 -0.030324768 -0.058819965
0.026403219 -0.07026652 -0.0027136935 -0.019191222 -0.018152526 0.022579376 -0.06349437 0.018449198
0.061739627 -0.0482584 -0.008353575 -0.046916638 -0.014689435 -0.043856297 -0.03583026 0.096573174
0.009223528 0.009200139 0.040262643 -0.010709008 0.04264306 -0.048356038 -0.057760485 -0.0013093316
0.014259692 -0.07326814 -0.03515756 0.051188294 -0.036316916 -0.00817631 -0.016110834 -0.014979697
0.0278735 -0.021673005 0.005458134 0.028280493 -0.07364006 -0.007893619 -0.038821936 -0.024870649
-0.020914674 0.025395146 -0.08424942 0.03062352 -0.026531793 0.05675546 -0.07951923 -0.09088957
-0.05935706 -0.03894288 -0.069025375 -0.03434728 0.019241132 0.012484789 -0.07863762 -0.04575521
00000000: 4726 51bb 5507 36bc fc9a c1bc cb50 31bc
00000010: f788 a03d 90a0 e1bb a801 5bbd b31f 6e3d
00000020: 7dec 8cbd c561 16bd ab1e 713c 190c 39bd
00000030: 18ba cf3c 9ee0 db3c f4d0 41bd 4742 ccbd
00000040: 9846 9cbc 10de 163c e916 3fbd d825 1dbc
00000050: fa02 cbbd f4d8 b8bd ca9b d23c 2d27 e2bc
00000060: 60a8 9a3c e172 3fbd 76dc 20bd f723 223c
00000070: 23c8 323c f6b0 a63d e9df f53c af1b 12bd
00000080: b6e7 7cbd 20df 7fbd 657f 093d bfda 8e3c
00000090: 22b5 80bc 380e 74bd 1e87 33bd c93a 9c3b
000000a0: 9e09 ae3c 9a19 90bd e690 18bc f38c 213d
000000b0: b01d b93c 9f96 0dba 4e9e 2fbd 4b84 bcbd
000000c0: f041 40bd cf1c 67bc c105 643d 7d6d 94bd
000000d0: 72ab 21bd 8b38 62bd f44e 47bd d104 71bd
000000e0: 9d8f 47bd bf8a 8cbd 531f c43c 1ae1 e1bb
000000f0: c8cd f7bb 8a6e abbd 5158 7f3c 1076 933d
00000100: a1cd 96bd 6cc6 42bd 35c4 133d b82a bb3c
00000110: d9d7 19bc 1603 0a3d a66b f8bc 34ed 70bd
00000120: 904b d83c e5e7 8fbd 39d8 31bb e936 9dbc
00000130: 9bb4 94bc 62f8 b83c 5609 82bd c622 973c
00000140: b1e2 7c3d 9aaa 45bd 6fdd 08bc a92b 40bd
00000150: f5ab 70bc a9a2 33bd c0c2 12bd 28c8 c53d
00000160: 481e 173c 2ebc 163c 71ea 243d d674 2fbc
00000170: 7daa 2e3d fb10 46bd 4296 6cbd e19d abba
00000180: 7ca1 693c 9b0d 96bd 6001 10bd d1aa 513d
00000190: 0cc1 14bd eef5 05bc defa 83bc 676d 75bc
000001a0: f756 e43c 968b b1bc 26da b23b 7eac e73c
000001b0: 9ad0 96bd 3d54 01bc c003 1fbd 88bd cbbc
000001c0: 4055 abbc 7b09 d03c f68a acbd 2dde fa3c
000001d0: 3459 d9bc 6a78 683d fada a2bd 5024 babd
000001e0: 6320 73bd 9282 1fbd 2d5d 8dbd bcaf 0cbd
000001f0: 949f 9d3c 008d 4c3c c30c a1bd d169 3bbd

fc3.weight f4 [64, 128]
0.38019305 -0.03761191 0.08231908 0.005841295 -0.010831133 -0.024595633 0.08565091 0.22176579
-0.089842536 -0.057506714 0.24583723 -0.14516035 -0.020215815 -0.07881977 0.29351446 -0.26123026
-0.040622547 -0.020023819 0.2615861 0.121159375 -0.28417113 0.19446321 0.22143938 -0.026345968
0.059703972 -0.10938283 0.016922763 0.16118352 0.037773225 -0.17100528 -0.021776887 -0.024970688
0.34925607 -0.31815434 -0.16636513 0.0361807 0.29071537 -0.11821113 -0.025304027 -0.050287914
-0.20847854 0.33052027 -0.06868651 0.075661585 0.22294366 0.14464147 -0.23846059 -0.2180407
-0.21550876 -0.059841856 -0.07678703 -0.27286994 0.013128281 -0.18244018 0.098180495 -0.21482897
0.09693338 -0.18238157 -0.15806921 -0.11545156 0.3557058 0.06281289 -0.21097523 -0.15027653
-0.08265347 -0.06232651 0.043664027 0.055214755 0.04906619 -0.013555021 -0.27082908 0.014022033
0.04835306 -0.0486595 -0.05650433 -0.052650303 -0.27816024 -0.25373155 -0.12219033 -0.0035977531
0.29137665 0.32743227 -0.015793134 0.23561597 0.022267856 0.23711793 -0.014932413 -0.06541464
0.3599295 0.146957 -0.01668321 -0.22194378 0.051417634 -0.089810185 -0.15034594 0.033030715
-0.11387735 -0.20197535 0.03277095 -0.28016925 0.13121283 0.00853033 0.13513753 -0.09513422
-0.18742111 0.027284581 0.17416368 -0.045867227 -0.17989841 -0.067514 -0.17853943 -0.040359177
-0.12819329 0.38252142 0.055059396 -0.18439016 -0.08312177 0.19007407 0.024460468 -0.04070183
-0.07454507 -0.17810707 0.15824488 0.108293496 -0.06925588 -0.28741854 0.23948613 -0.1900494
-0.16137232 0.074847676 -0.0071895598 0.40895286 -0.2102105 -0.031525254 -0.032206256 -0.4577629
-0.33309773 -0.067759514 -0.16391711 -0.007652921 -0.106315926 -0.0138787255 0.2138692 -0.35472986
-0.08771893 -0.05116444 -0.067825496 -0.00902336 0.35580042 0.13571326 0.11542614 -0.13404988
-0.027061751 0.07726368 -0.08067151 0.075366236 0.03921943 -0.055848084 0.18491879 0.14454895
0.02690878 0.082412876 0.114030115 0.065257356 -0.0077505573 -0.16893123 0.19881262 0.28842255
-0.21631789 0.15079512 -0.14181736 0.30502248 0.08636636 0.040172316 -0.060148347 0.23095845
-0.1239928 -0.10064031 -0.0012135924 0.054520577 -0.17600559 -0.036711365 0.24809685 -0.07726704
0.0034494228 -0.018038357 0.097348996 -0.13587752 0.17413887 0.023014896 -0.16267456 -0.0691581
-0.1308415 -0.11745062 0.06356681 0.028275395 -0.07804616 -0.026176048 -0.046310607 -0.09348069
0.06797725 0.2339868 0.09475942 -0.12830986 -0.19334075 0.17427768 0.26980135 -0.001127783
0.008608106 0.22947784 0.13848865 -0.23761058 -0.302421 -0.099165924 -0.027441496 0.09521496
-0.11967474 0.14787123 -0.08458878 0.055394586 -0.12186533 0.2512337 0.13378532 -0.08116274
0.08572808 0.0043836264 0.072267346 0.06368078 0.040188324 0.053713 0.2694219 0.0037730131
-0.404936 -0.023752546 -0.24642827 -0.13343422 0.062692046 -0.15120456 0.12370396 0.12074384
-0.40624842 -0.030484285 -0.074277356 -0.41884682 -0.1170406 -0.04158086 -0.3646837 0.20151049
-0.119483605 -0.32874772 0.19924203 0.0007188384 -0.12426522 0.028540403 0.12765566 0.19668159
00000000: aaa8 c23e f20e 1abd e896 a83d 5568 bf3b
00000010: 1175 31bc c87c c9bc bf69 af3d 9216 633e
00000020: 5dff b7bd 298c 6bbd c1bc 7b3e eaa4 14be
00000030: a39b a5bc 426c a1bd 8747 963e f9bf 85be
00000040: d463 26bd fe08 a4bc 9dee 853e 6822 f83d
00000050: e17e 91be 5d21 473e 01c1 623e 80d3 d7bc
00000060: 278c 743d 1b04 e0bd 9ba1 8a3c 4b0d 253e
00000070: 19b8 1a3d 021c 2fbe 7165 b2bc 548f ccbc
00000080: b1d1 b23e 20e5 a2be 9f5b 2abe 3732 143d
00000090: a5d8 943e ad18 f2bd 644a cfbc b3fa 4dbd
000000a0: 667b 55be f439 a93e 83ab 8cbd 76f4 9a3d
000000b0: 584b 643e e51c 143e 032f 74be 1046 5fbe
000000c0: 54ae 5cbe bc1c 75bd 8542 9dbd 9cb5 8bbe
000000d0: 0018 573c 99d1 3abe db12 c93d 20fc 5bbe
000000e0: 0285 c63d 3cc2 3abe e5dc 21be de71 ecbd
000000f0: 121f b63e 0ba4 803d e409 58be 17e2 19be
00000100: 3946 a9bd 154a 7fbd 0dd9 323d de28 623d
00000110: a1f9 483d e115 5ebc 1caa 8abe abbc 653c
00000120: dc0d 463d 2f4f 47bd 1671 67bd d8a7 57bd
00000130: 056b 8ebe 1ae9 81be ec3e fabd 48c8 6bbb
00000140: 522f 953e 34a5 a73e 9a60 81bc 5045 713e
00000150: 146b b63c 0bcf 723e 14a7 74bc 1cf8 85bd
00000160: ae48 b83e e57b 163e 3aab 88bc 3b45 63be
00000170: 4c9b 523d 67ee b7bd 49f4 19be 374b 073d
00000180: 8738 e9bd a0d2 4ebe d53a 063d 5872 8fbe
00000190: a85c 063e ccc2 0b3c 7e61 0a3e bbd5 c2bd
000001a0: 52eb 3fbe ea83 df3c f757 323e 46df 3bbd
000001b0: 4a37 38be c844 8abd 0ad3 36be aa4f 25bd
000001c0: 1a45 03be d9d9 c33e f685 613d c6d0 3cbe
000001d0: bf3b aabd c7a2 423e 5261 c83c f6b6 26bd
000001e0: 16ab 98bd b361 36be f20a 223e fbc8 dd3d
000001f0: 07d6 8dbd 8628 93be da3b 753e 4f9c 42be
00000200: c93e 25be bd49 993d 6696 ebbb 4562 d13e
00000210: 6c41 57be a020 01bd b5ea 03bd e65f eabe
00000220: c98b aabe 80c5 8abd e3d9 27be 5bc5 fabb
00000230: 2abc d9bd 9863 63bc 8700 5b3e 279f b5be
00000240: fba5 b3bd ce91 51bd 18e8 8abd b7d6 13bc
00000250: 792b b63e 6bf8 0a3e 8a64 ec3d 5f44 09be
00000260: 9bb0 ddbc 6c3c 9e3d 1b37 a5bd 9d59 9a3d
00000270: 8ea4 203d f6c0 64bd 5a5b 3d3e a404 143e
00000280: cd6f dc3c 15c8 a83d 9f88 e93d a6a5 853d
00000290: 63f8 fdbb 4ffc 2cbe 8995 4b3e 1fac 933e
000002a0: 7082 5dbe 096a 1a3e 9238 11be e82b 9c3e
000002b0: d9e0 b03d ba8b 243d 1d5e 76bd 5f80 6c3e
000002c0: f0ef fdbd 821c cebd 6711 9fba f850 5f3d
000002d0: cf3a 34be a85e 16bd 1a0d 7e3e 2f3e 9ebd
000002e0: b60f 623b 2dc5 93bc e95e c73d 7a23 0bbe
000002f0: 7651 323e bc89 bc3c 2994 26be c3a2 8dbd
00000300: 50fb 05be f389 f0bd 512f 823d cda1 e73c
00000310: aad6 9fbd 276f d6bc 31b0 3dbd ce72 bfbd
00000320: a837 8b3d 3c9a 6f3e 3a11 c23d a963 03be
00000330: 1efb 45be d975 323e 6723 8a3e 1ed2 93ba
00000340: 0309 0d3c 3dfc 6a3e f8cf 0d3e 3050 73be
00000350: edd6 9abe 8117 cbbd fdcc e0bc 1000 c33d
00000360: 0818 f5bd 8e6b 173e e23c adbd 6fe5 623d
00000370: 8894 f9bd b4a1 803e 05ff 083e a738 a6bd
00000380: 3492 af3d 86a4 8f3b e700 943d 126b 823d
00000390: 839c 243d 2a02 5c3d abf1 893e a844 773b
000003a0: c553 cfbe b394 c2bc b157 7cbe fba2 08be
000003b0: b064 803d 5ed5 1abe 8058 fd3d 8c48 f73d
000003c0: cbff cfbe 2eba f9bc ba1e 98bd 1773 d6be
000003d0: fbb2 efbd b150 2abd d2b7 babe c458 4e3e
000003e0: d2b3 f4bd 9f51 a8be 1a06 4c3e 6e70 3c3a
000003f0: c37e febd 90cd e93c 2ab8 023e e666 493e

fc3.bias f4 [64]
0.046013143 -0.054671813 -0.041178804 -0.07329828 -0.06434859 0.052211568 -0.023766154 0.027024036
-0.02975409 0.055396777 -0.0065726605 -0.02926146 -0.005444889 -0.135796 -0.033399604 0.053965468
0.0040258644 -0.03916468 0.12232363 -0.054694224 0.022029404 -0.04136848 0.07156339 -0.10209314
-0.029160805 -0.11182021 -0.059347235 0.13735487 -0.089902535 -0.017247235 0.01779149 0.07857848
-0.01673574 0.11166748 -0.042890526 -0.051092923 -0.021249643 -0.0839637 -0.10610038 -0.021339845
-0.06568733 -0.02153316 -0.11896862 -0.0897387 -0.03226784 0.04674136 -0.07908098 -0.10522103
-0.089861974 0.032633007 0.054811336 -0.075408205 -0.061627716 -0.0011233941 0.024126738 0.043998126
-0.0739393 -0.07399179 -0.03279749 -0.08643343 -0.047136087 0.07627238 -0.07291894 -0.15552424
00000000: 4778 3c3d 8def 5fbd 1bab 28bd 691d 96bd
00000010: 32c9 83bd ccdb 553d 3db1 c2bc 8361 dd3c
00000020: d9be f3bc bbe7 623d 795f d7bb bbb5 efbc
00000030: 0a6b b2bb 1b0e 0bbe 06ce 08bd e50a 5d3d
00000040: 66eb 833b 256b 20bd d084 fa3d 0d07 60bd
00000050: 0277 b43c ff71 29bd d48f 923d 3516 d1bd
00000060: a4e2 eebc ff01 e5bd 1616 73bd c1a6 0c3e
00000070: d21e b8bd 134a 8dbc 75bf 913c c1ed a03d
00000080: 6419 89bc ebb1 e43d faad 2fbd d046 51bd
00000090: bb13 aebc 29f5 abbd 284b d9bd e6d0 aebc
000000a0: 1487 86bd 4f66 b0bc d2a5 f3bd ecc8 b7bd
000000b0: 482b 04bd de73 3f3d 35f5 a1bd 207e d7bd
000000c0: 8e09 b8bd 30aa 053d da81 603d 9e6f 9abd
000000d0: 586d 7cbd da3e 93ba 70a5 c53c 6137 343d
000000e0: 7d6d 97bd 0289 97bd a956 06bd 0304 b1bd
000000f0: c511 41bd b234 9c3d 8656 95bd bf41 1fbe

fc4.weight f4 [32, 64]
-0.07834926 0.10017806 -0.11445408 -0.60167754 0.32825133 -0.33068535 -0.15083557 -0.025185343
-0.3411378 0.030411158 -0.09149591 0.034278788 -0.08510094 -0.013479707 0.13593246 0.09783457
-0.2255704 0.048177328 0.20394868 -0.46210566 0.15052868 0.3591066 -0.07782869 0.14879797
-0.5330512 -0.107862405 -0.22537926 -0.20649056 -0.17730986 -0.18274008 0.18372576 0.14236328
0.42934373 0.0641535 -0.20652334 -0.4624543 0.36431956 0.3659392 0.006573322 -0.0931734
0.29101586 -0.039713975 0.15745585 0.055860173 0.22811414 0.36186448 -0.47067237 -0.25259262
0.53514963 -0.019083818 -0.11081131 0.10060816 -0.48616073 -0.100973465 -0.12528959 0.382319
-0.3271912 -0.20525332 -0.31957164 -0.0017438468 0.32725686 -0.08078747 0.64487994 -0.07684547
-0.22233179 0.22404055 -0.19137383 0.026260054 -0.19203728 0.04276103 -0.19963744 -0.30837682
-0.16743264 -0.5346683 -0.24808241 -0.43986127 0.05634263 -0.011099322 0.19881566 0.2358069
0.23300579 0.02166721 0.5035913 -0.1767795 0.109829634 0.5230822 -0.21336038 -0.08208135
0.08428003 -0.46369123 -0.33065382 0.20932607 0.056881305 -0.55725294 0.11111162 0.2977655
-0.0705642 0.32950762 -0.42426872 0.17782259 -0.47850835 -0.15074813 -0.119981125 0.26998055
-0.072392076 -0.2260105 0.013583793 -0.03337425 0.010313327 -0.2825625 -0.28788638 0.00840281
-0.34356532 -0.14667404 -0.3464628 -0.03488582 0.16563514 -0.34895352 0.10470059 0.081259705
0.20799541 0.20761913 -0.11054109 -0.363324 -0.19684125 -0.08300981 0.19589254 0.104577996
0.081751496 0.11642923 -0.4327409 0.18344767 -0.067055024 0.20357053 0.039601825 -0.07911656
0.06880224 -0.057505578 -0.10560932 -0.296218 -0.058284298 -0.16775785 -0.10950283 -0.10887696
-0.12905166 -0.013221649 0.3091598 -0.25604206 -0.27153432 0.06662203 -0.16737466 0.045722324
-0.07993099 0.35613385 -0.23190004 -0.016122539 -0.0251817 -0.14434545 0.16712417 -0.23021962
-0.034998193 -0.018436609 -0.16075023 -0.112833284 -0.122883044 -0.1785073 0.17612277 0.19939953
-0.21401662 -0.4532216 0.11859074 0.15578154 0.0801149 -0.16884723 -0.23206033 -0.02841346
0.005435579 -0.17909975 -0.053521413 -0.16672044 0.3406876 -0.7711268 -0.0040486944 0.4258921
-0.08261296 -0.28547892 0.021888195 0.027959846 -0.17828505 0.10426019 0.06696063 0.1078681
-0.21121201 0.25603512 -0.036159553 0.26025036 -0.29269952 -0.31198925 -0.123429246 -0.1621226
-0.06299728 -0.23535855 -0.03155647 -0.08252676 -0.21560977 0.38977796 0.30438453 0.14234564
0.2195229 -0.0956048 -0.60572195 -0.54098254 0.623926 -0.2724851 0.13777652 -0.3428271
0.12178354 -0.11769934 0.061398327 0.30662838 -0.23344089 -0.042447086 -0.05544126 -0.5988929
-0.026105762 -0.07664029 -0.20077342 0.07862857 0.10658171 -0.4291923 0.31876466 -0.2486974
0.028259104 -0.29802558 0.06465865 -0.56782764 0.0040116264 -0.76123095 0.122817576 -0.18676414
-0.4083646 -0.22578833 0.4453292 0.06369304 -0.25358987 0.6180337 0.057014924 0.4004253
0.5339223 0.079783596 0.3315305 0.19810735 0.3052576 0.007965638 -0.0933905 0.107548445
00000000: 9475 a0bd 282a cd3d e766 eabd 8a07 1abf
00000010: 8f10 a83e 974f a9be a474 1abe 7e51 cebc
00000020: 9da9 aebe d220 f93c 3562 bbbd ea67 0c3d
00000030: 6749 aebd fdd9 5cbc e131 0b3e 7e5d c83d
00000040: edfb 66be 9755 453d ecd7 503e 1d99 ecbe
00000050: 3124 1a3e d2dc b73e a664 9fbd 7f5e 183e
00000060: 0b76 08bf f7e6 dcbd d2c9 66be 4372 53be
00000070: b790 35be 3720 3bbe 9b22 3c3e aec7 113e
00000080: f1d2 db3e e962 833d db7a 53be cfc6 ecbe
00000090: 1888 ba3e 625c bb3e 0665 d73b b2d1 bebd
000000a0: 0800 953e 1fab 22bd 1b3c 213e a3cd 643d
000000b0: c196 693e 4d46 b93e f8fb f0be d253 81be
000000c0: 91ff 083f ab55 9cbc 0af1 e2bd a70b ce3d
000000d0: 0fea f8be 2dcb cebd ea4b 00be 51bf c33e
000000e0: 9b85 a7be ed2d 52be e59e a3be ca91 e4ba
000000f0: 368e a73e e773 a5bd da16 253f 2861 9dbd
00000100: f2aa 63be e36a 653e 80f7 43be 531f d73c
00000110: 6ca5 44be 3126 2f3d c26d 4cbe 91e3 9dbe
00000120: 7673 2bbe 06e0 08bf 5109 7ebe 7f35 e1be
00000130: 88c7 663d eed9 35bc 5596 4b3e 5d77 713e
00000140: 1299 6e3e 6f7f b13c 5ceb 003f af05 35be
00000150: 5cee e03d b7e8 053f 257b 5abe 441a a8bd
00000160: 029b ac3d f068 edbe 754b a9be 9359 563e
00000170: 5ffc 683d 21a8 0ebf 7d8e e33d b874 983e
00000180: f783 90bd 39b5 a83e c039 d9be 2017 363e
00000190: 0cff f4be b85d 1abe aab8 f5bd e43a 8a3e
000001a0: 4c42 94bd 4c6f 67be 8f8e 5e3c 70b3 08bd
000001b0: 3bf9 283c 08ac 90be d865 93be f1ab 093c
000001c0: cbe7 afbe b831 16be 9263 b1be 6fe4 0ebd
000001d0: 429c 293e 09aa b2be 436d d63d 7d6b a63d
000001e0: c0fc 543e 1c9a 543e 5e63 e2bd 9a05 babe
000001f0: c190 49be 0c01 aabd 0e98 483e fd2c d63d
00000200: 546d a73d 7372 ee3d 3790 ddbe b5d9 3b3e
00000210: 2554 89bd cb74 503e 8635 223d dd07 a2bd
00000220: 30e8 8c3d f88a 6bbd b349 d8bd e3a9 97be
00000230: 84bb 6ebd b7c8 2bbe 0543 e0bd e2fa debd
00000240: 1e26 04be 9e9f 58bc 314a 9e3e f217 83be
00000250: 8c06 8bbe 2271 883d 4364 2bbe 5547 3b3d
00000260: dcb2 a3bd 2d57 b63e 3477 6dbe 6a13 84bc
00000270: da49 cebc 4bcf 13be 9922 2b3e b1be 6bbe
00000280: 445a 0fbd 5f08 97bc b59b 24be 2315 e7bd
00000290: 1baa fbbd 9eca 36be 8759 343e 642f 4c3e
000002a0: 2c27 5bbe a90c e8be b4df f23d 3285 1f3e
000002b0: 4813 a43d 4ae6 2cbe 39a1 6dbe 58c3 e8bc
000002c0: f11c b23b ed65 37be 4539 5bbd c3b8 2abe
000002d0: 9b6e ae3e 9168 45bf e9aa 84bb 880e da3e
000002e0: fc30 a9bd 4b2a 92be df4e b33c 0c0c e53c
000002f0: 5b90 36be 5e86 d53d a822 893d f3e9 dc3d
00000300: f647 58be 0917 833e 0a1c 14bd 893f 853e
00000310: b6dc 95be 0ebd 9fbe 79c8 fcbd 7803 26be
00000320: b804 81bd d501 71be 5b41 01bd ca03 a9bd
00000330: cfc8 5cbe fa90 c73e 4ad8 9b3e 0ec3 113e
00000340: 9cca 603e 73cc c3bd 9810 1bbf d57d 0abf
00000350: 9db9 1f3f 2b83 8bbe 4a15 0d3e 0987 afbe
00000360: a669 f93d 5a0c f1bd d07c 7b3d 65fe 9c3e
00000370: 210b 6fbe ffdc 2dbd 6016 63bd 0c51 19bf
00000380: c0db d5bc 96f5 9cbd 8c97 4dbe 0408 a13d
00000390: 8347 da3d 18bf dbbe 1f35 a33e 88aa 7ebe
000003a0: a37f e73c cf96 98be c16b 843d 275d 11bf
000003b0: f673 833b 08e0 42bf c887 fb3d 193f 3fbe
000003c0: 2a15 d1be 0e35 67be 3002 e43e 7f71 823d
000003d0: 88d6 81be 7537 1e3f 7b88 693d 8b04 cd3e
000003e0: 22af 083f 9565 a33d 5ebe a93e a7dc 4a3e
000003f0: b94a 9c3e 4f82 023c 8543 bfbd 5c42 dc3d

fc4.bias f4 [32]
-0.13679005 0.089957185 -0.034880247 -0.033026323 0.06641752 -0.067048386 -0.008758562 -0.020043932
-0.06543667 -0.11573825 0.046746276 0.17499317 -0.09000299 -0.14886284 -0.1333637 0.02784779
-0.09831386 -0.073199704 -0.17649451 -0.027779246 0.020436222 -0.015697414 -0.114178106 -0.1720483
0.033134952 -0.06777496 -0.05529249 0.07756698 0.026575651 -0.13755755 0.06457433 0.082563035
00000000: b112 0cbe 793b b83d 97de 0ebd 9c46 07bd
00000010: e905 883d aa50 89bd 1280 0fbc 2c33 a4bc
00000020: a903 86bd 2d08 edbd 0679 3f3d 6931 333e
00000030: 7d53 b8bd 806f 18be 7e90 08be 0c21 e43c
00000040: c758 c9bd bae9 95bd faba 34be 4d91 e3bc
00000050: dd69 a73c dd97 80bc 36d6 e9bd 6e2d 30be
00000060: 84b8 073d 99cd 8abd 617a 62bd 70db 9e3d
00000070: 2eb5 d93c e3db 0cbe 8c3f 843d cf16 a93d

fc5.weight f4 [16, 32]
0.16199128 -0.1432779 0.016357007 -0.7187469 -0.18625897 0.062329523 0.25069824 -0.37168583
0.24694492 0.26111802 -0.054397535 -0.21926852 -0.25859866 0.034738462 0.42748073 -0.51772577
0.051596235 0.17048098 -0.45564735 0.051141705 -0.014346932 -0.11341705 0.012360425 -0.45730084
0.12802011 0.21809363 0.12595566 0.94601446 -0.38285488 -0.5026319 -0.0012993737 -0.42043227
0.26553223 0.70008034 -0.20296474 0.24301063 0.46094748 -0.2667398 -0.33546883 0.035559133
0.6263083 0.028694013 0.17647041 -0.18968691 -0.5318943 -0.58726025 0.22076236 0.3948954
-0.20638393 0.34330672 0.55029213 0.04934756 -0.1435622 -0.19125316 0.18653527 -0.10880046
-0.94802475 0.70763475 0.22595182 -0.63902444 -0.13112374 0.05906102 -0.0028981513 0.24632093
-0.5075323 0.15233615 0.4489344 -0.029512232 -0.31280497 0.2694737 0.42904764 0.6799554
-0.15633358 0.25823453 0.3238521 -0.16237901 0.31391224 -0.08397651 -0.36698604 0.015297882
-0.6322818 -0.27901343 0.043339346 0.07745169 -0.44406432 0.02337238 0.08457819 0.3074139
-0.005421981 -0.19693911 0.06296076 0.96538365 -0.3574041 0.26954198 -0.55166775 -0.25039938
0.23080319 0.14303254 0.14403228 0.16369587 -0.4287603 -0.20088476 -0.046171118 0.33854902
-0.03580111 0.113778755 0.28471872 0.25171337 -0.18408841 0.44404915 -0.50953245 0.15944093
-0.20475425 -0.09226585 -0.02967214 0.80003375 0.03596663 -0.31087577 -0.18050468 -0.47332722
-0.11424066 0.16580287 -0.64328194 0.48625398 0.1695267 0.4500207 0.40213466 -0.76944023
-0.36514264 -0.27683538 -0.23048073 0.21645848 -0.12004664 0.037498064 0.15150611 0.24829659
0.37989685 -0.47388917 -0.13360928 -0.43086618 -0.15601687 0.21515536 0.44038397 0.014892055
-0.10051758 0.34134296 -0.052913513 0.07510346 -0.2521293 0.04544405 0.092555106 0.18037748
-0.43643856 -0.16729662 0.058898557 0.37716457 0.149342 0.31199342 -0.16720606 -0.25593805
0.124838345 -0.05770889 -0.16233087 -0.52993846 -0.4363685 0.3141822 -0.12353316 -0.026081344
0.53949946 0.22237706 0.08377675 0.21909513 1.8635437 -0.044297364 0.6074031 -0.71621567
0.039792895 0.116948776 -0.3047887 -0.15262929 0.68542033 0.33416936 0.051855944 -0.7833738
1.7582232 0.61465824 0.11465526 -0.15941715 -0.07876649 -0.18568063 -0.050322905 -0.179038
-0.29815575 0.23153229 0.17593995 -0.36159068 -0.38188973 0.15644376 -0.051103175 0.010691816
-0.0981917 0.1716735 0.03664852 -0.45962864 0.3251635 -0.0069072465 0.008804246 0.46938598
0.29178122 -0.22402729 0.3533399 0.11189661 0.90248483 -0.2912854 0.23503268 0.65343475
-0.07345007 -0.35098007 0.4143827 -0.035702214 -0.3759125 0.14381932 -0.1178766 -0.48899862
-0.33162108 -0.7185079 -0.42985 0.15271237 -0.5081936 0.034884103 0.65083504 -0.116637364
-0.2644192 -0.21498296 0.023599051 0.19408353 0.0021360926 0.7748836 -0.33112434 -0.3413697
0.033887725 -0.0327796 0.07002816 0.30850336 0.29602236 0.24783131 -0.020411145 0.18605927
0.04383704 -0.37198645 -0.24233726 -0.09650814 -0.3380159 -0.112521306 0.28516096 -0.49931827
00000000: 0be1 253e 71b7 12be 21ff 853c ccff 37bf
00000010: acba 3ebe 3e4d 7f3d 855b 803e 9b4d bebe
00000020: 21df 7c3e 43b1 853e f3cf 5ebd ed87 60be
00000030: 0b67 84be eb49 0e3d c1de da3e ad89 04bf
00000040: 9356 533d 9192 2e3e 9c4a e9be f779 513d
00000050: 650f 6bbc 3347 e8bd 6183 4a3c 5623 eabe
00000060: b417 033e f053 5f3e 85fa 003e 012e 723f
00000070: 8e05 c4be 7cac 00bf bf4f aaba e642 d7be
00000080: d7f3 873e 7738 333f fdd5 4fbe c7d7 783e
00000090: 4f01 ec3e 1e92 88be 92c2 abbe 74a6 113d
000000a0: be55 203f b50f eb3c a9b4 343e 493d 42be
000000b0: 3a2a 08bf b056 16bf 870f 623e bb2f ca3e
000000c0: 4f56 53be e6c5 af3e f2df 0c3f ab20 4a3d
000000d0: f801 13be ded7 43be 1a03 3f3e c7d2 debd
000000e0: c0b1 72bf 8d27 353f ea5f 673e 1b97 23bf
000000f0: 4d45 06be f8e9 713d e9ee 3dbb 8e3b 7c3e
00000100: a3ed 01bf 02fe 1b3e bbda e53e a3c3 f1bc
00000110: f927 a0be 75f8 893e 22ac db3e 8f11 2e3f
00000120: e915 20be 5137 843e f1cf a53e af46 26be
00000130: 1bb9 a03e e0fb abbd 98e5 bbbe f8a3 7a3c
00000140: 38dd 21bf d9da 8ebe 9984 313d fe9e 9e3d
00000150: 665c e3be 6f77 bf3c 5537 ad3d 5b65 9d3e
00000160: e0aa b1bb 68aa 49be 92f1 803d 6223 773f
00000170: acfd b6be 6801 8a3e 193a 0dbf 5934 80be
00000180: ac57 6c3e 1f77 123e 337d 133e e49f 273e
00000190: 7886 dbbe bcb4 4dbe ed1d 3dbd 4c56 ad3e
000001a0: 2fa4 12bd d604 e93d a7c6 913e 93e0 803e
000001b0: ac81 3cbe 695a e33e b870 02bf 7c44 233e
000001c0: 19ab 51be e1f5 bcbd fd12 f3bc 03cf 4c3f
000001d0: bf51 133d 1c2b 9fbe 38d6 38be f257 f2be
000001e0: 02f7 e9bd 3ac8 293e 20ae 24bf 48f6 f83e
000001f0: 6898 2d3e 1d69 e63e 98e4 cd3e 09fa 44bf
00000200: faf3 babe 5ebd 8dbe 2403 6cbe 4ba7 5d3e
00000210: 03db f5bd 9297 193d 6b24 1b3e 7641 7e3e
00000220: d781 c23e 9aa1 f2be dfd0 08be 7e9a dcbe
00000230: e3c2 1fbe b051 5c3e 027a e13e cefd 733c
00000240: 29dc cdbd 81c4 ae3e d7bb 58bd d8cf 993d
00000250: 1717 81be 8a23 3a3d 888d bd3d e0b4 383e
00000260: e074 dfbe ce4f 2bbe 9d3f 713d b71b c13e
00000270: 1ced 183e 9abd 9f3e 1138 2bbe 500a 83be
00000280: 3fab ff3d 2860 6cbd 103a 26be 0caa 07bf
00000290: b16b dfbe 7ddc a03e f4fe fcbd 8ba8 d5bc
000002a0: a31c 0a3f d0b6 633e 2593 ab3d 795a 603e
000002b0: 9a88 ee3f 2771 35bd c57e 1b3f e959 37bf
000002c0: e0fd 223d d782 ef3d 440d 9cbe da4a 1cbe
000002d0: b577 2f3f 3f18 ab3e e666 543d 2f8b 48bf
000002e0: 750d e13f 3e5a 1d3f 61d0 ea3d 403e 23be
000002f0: 5350 a1bd 1023 3ebe 641f 4ebd bd55 37be
00000300: dfa7 98be cd16 6d3e 9a29 343e 6a22 b9be
00000310: 0d87 c3be cb32 203e 9051 51bd ba2c 2f3c
00000320: bb18 c9bd 2ecb 2f3e c21c 163d 7254 ebbe
00000330: d57b a63e 2f56 e2bb af3f 103c 5c53 f03e
00000340: 5964 953e 6967 65be f8e8 b43e 0d2a e53d
00000350: 3f09 673f 5c23 95be 68ac 703e 8047 273f
00000360: fe6c 96bd a9b3 b3be f829 d43e 7c3c 12bd
00000370: 9a77 c0be 5f45 133e 4969 f1bd 075e fabe
00000380: 3dca a9be 22f0 37bf 4d15 dcbe a260 1c3e
00000390: fa18 02bf a2e2 0e3d 209d 263f 92df eebd
000003a0: f461 87be 7e24 5cbe cc52 c13c d5bd 463e
000003b0: b0fd 0b3b c65e 463f 2189 a9be 02c8 aebe
000003c0: dbcd 0a3d e743 06bd ed6a 8f3d 27f4 9d3e
000003d0: 3e90 973e 7ec7 7d3e 4635 a7bc 5286 3e3e
000003e0: 788e 333d 0275 bebe 4227 78be 0fa6 c5bd
000003f0: 6c10 adbe 9271 e6bd 9e00 923e a5a6 ffbe

fc5.bias f4 [16]
0.14598687 -0.18022475 -0.15157174 -0.16445562 -0.051048372 0.036774434 -0.033593547 -0.22154349
-0.030718908 -0.08113134 0.23602208 0.09517331 -0.23252153 -0.14350592 -0.059186064 0.052505672
00000000: 957d 153e d68c 38be 9f35 1bbe 0e67 28be
00000010: 1918 51bd caa0 163d 6399 09bd 4cdc 62be
00000020: 38a6 fbbc 3028 a6bd c6af 713e 39ea c23d
00000030: 201a 6ebe 37f3 12be 166d 72bd 3010 573d

fc6.weight f4 [8, 16]
-0.4600061 -0.8589093 -0.78373927 -0.9610161 -0.127841 0.31165707 0.3276304 0.06635912
0.9057944 -0.48203778 -0.6601758 0.12764235 -0.37211218 -0.16369063 0.09141288 -0.27432433
0.4723401 0.9333485 0.23858568 0.6195136 0.2869024 -0.3044692 0.4723258 0.12895538
-0.7224985 0.15656193 0.21521284 -0.19479471 0.06778921 -0.008357396 0.14515994 -0.5089011
0.49769366 0.020508472 -0.9448755 0.27158326 -0.365195 -0.12435302 0.09025372 -0.35260385
0.46914077 0.5272238 0.48751742 0.30492267 -0.3290555 0.722691 0.7573231 0.017044893
0.21777163 -0.10355637 0.29526997 -0.10549414 -0.46064836 -0.48228177 -0.27229053 -0.28157303
0.2275481 -0.512001 0.041793328 -0.037816204 -0.36762446 -0.3447541 -0.32473627 0.4484069
0.33747447 -0.45731768 0.7098489 0.2720668 0.44283178 -0.38489375 0.096924685 -0.6178919
0.71175677 -0.02045476 -0.2099718 -0.7859622 -0.42424795 -0.61848503 0.40496802 0.46097156
0.30852905 0.024510892 0.2303541 0.036474455 -1.0122528 -0.0026286917 0.063908935 -0.72743165
0.13118261 -0.46338508 -0.22263336 0.14135073 -0.13582048 -0.036287364 0.26618582 0.09566277
0.3791586 0.022508245 -0.04703768 0.056863632 0.30266812 -0.30761945 0.025323464 -0.017852658
-0.02472248 1.0402521 0.64048904 0.54681385 -0.15798044 -0.37594035 0.37680912 0.07768486
0.06218899 -0.22082107 -0.9088627 -0.80189747 0.156548 -0.20021167 0.5528708 -0.24096331
-0.39905578 0.62709403 -0.41465333 -0.43383864 -0.27361643 0.31180277 1.1232997 0.68773234
00000000: eb85 ebbe 7be1 5bbf 23a3 48bf 2705 76bf
00000010: c0e8 02be 8491 9f3e 2cbf a73e 4ae7 873d
00000020: 24e2 673f a8cd f6be 4801 29bf adb4 023e
00000030: 7d85 bebe 849e 27be ad36 bb3d 3d74 8cbe
00000040: 90d6 f13e edef 6e3f ce4f 743e 7198 1e3f
00000050: dfe4 923e 63e3 9bbe b0d4 f13e e10c 043e
00000060: a9f5 38bf c551 203e c160 5c3e 4478 47be
00000070: 12d5 8a3d 76ed 08bc cfa4 143e 5847 02bf
00000080: b4d1 fe3e 6201 a83c 5ce3 71bf f60c 8b3e
00000090: d7fa babe ccac febd f1d6 b83d 7e88 b4be
000000a0: 3833 f03e 24f8 063f e29b f93e d31e 9c3e
000000b0: f679 a8be 4702 393f eddf 413f bba1 8b3c
000000c0: 87ff 5e3e 5d15 d4bd a02d 973e 500d d8bd
000000d0: 1ada ebbe a3ed f6be aa69 8bbe 572a 90be
000000e0: 5e02 693e 7f12 03bf 7b2f 2b3d 2ae5 1abd
000000f0: 4639 bcbe 9c83 b0be d543 a6be 9795 e53e
00000100: 74c9 ac3e 8b25 eabe a8b8 353f 574c 8b3e
00000110: d9ba e23e cb10 c5be 7380 c63d 2a2e 1ebf
00000120: b135 363f be90 a7bc d902 57be d234 49bf
00000130: 0737 d9be 0955 1ebf f857 cf3e 7704 ec3e
00000140: 85f7 9d3e 11cb c83c f2e1 6b3e 3d66 153d
00000150: 8091 81bf 2146 2cbb b0e2 823d f638 3abf
00000160: bc54 063e cf40 edbe 00fa 63be 3fbe 103e
00000170: 8614 0bbe 0fa2 14bd 8249 883e d8ea c33d
00000180: 1321 c23e 3663 b83c 95aa 40bd d7e9 683d
00000190: 51f7 9a3e 4c80 9dbe 2773 cf3c bd3f 92bc
000001a0: cc86 cabc fb26 853f 17f7 233f fefb 0b3f
000001b0: a0c5 21be 417b c0be 20ed c03e 3d19 9f3d
000001c0: e2b9 7e3d eb1e 62be 3aab 68bf 2749 4dbf
000001d0: 1e4e 203e 4a04 4dbe f188 0d3f 16bf 76be
000001e0: 0a51 ccbe 3c89 203f 714d d4be 1920 debe
000001f0: 7417 8cbe 9da4 9f3e 49c8 8f3f 3a0f 303f

fc6.bias f4 [8]
-0.17913151 -0.033175964 -0.066063 -0.2673085 0.14540422 0.31362978 -0.19637772 -0.20314077
00000000: 406e 37be 85e3 07bd 0a4c 87bd a9dc 88be
00000010: d8e4 143e 1594 a03e 3e17 49be 2204 50be

fc7.weight f4 [3, 8]
-0.00081455114 -0.035138432 -0.37555346 -0.33059576 -0.05384204 0.15694515 0.37240928 -0.35214534
0.666227 0.19122471 -0.15178253 0.5619598 -0.45499697 -0.36431706 0.014309532 0.5323483
0.13955061 -0.06891122 0.34885648 0.13612865 0.14253706 -0.41368544 0.06141833 0.3690547
00000000: 9a87 55ba 51ed 0fbd 8b48 c0be d943 a9be
00000010: 7989 5cbd 3bb6 203e 6eac be3e 654c b4be
00000020: da8d 2a3f 69d0 433e e16c 1bbe 99dc 0f3f
00000030: 5df5 e8be c487 babe 8772 6a3c fa47 083f
00000040: 5be6 0e3e 5321 8dbd 519d b23e 4f65 0b3e
00000050: 3cf5 113e 94ce d3be c991 7b3d bdf4 bc3e

fc7.bias f4 [3]
-0.16103831 0.27924696 -0.1287273
00000000: 3ae7 24be 75f9 8e3e 17d1 03be
