3设备模型/model_weight/cool_pump_model_weights.pth (torch, 182005 bytes, 16 tensors)

fc1.weight f4 [256, 1]
000000 7e 6b 66 3e 7d 6f 3d be 35 1f bd 3c 9b c4 e3 bd
       0.22501943 -0.1849956 0.02308617 -0.11121484
000010 6f 80 0e bf e1 0c 92 be 1f 62 62 3d b3 4b c0 bd
       -0.55664724 -0.2852545 0.055269357 -0.093894385
000020 59 24 70 3e e1 42 a7 be 09 ea 96 be a0 01 0c bf
       0.23451366 -0.32668212 -0.2947543 -0.5468998
000030 33 04 98 3e 56 f0 1d b9 8a 5c 1e 3f 96 73 16 3f
       0.29690704 -0.00015062219 0.61859953 0.5877012
000040 98 38 0d bf 14 30 1b bf eb dd 14 bf 85 e3 a8 bd
       -0.5516448 -0.60620236 -0.5815112 -0.08246521
000050 c2 ce 25 bf 84 f0 05 bf 67 ee 1a be 76 b1 37 bd
       -0.6476861 -0.5232012 -0.15130006 -0.044846974
000060 e9 d1 0f bf 9b b1 30 3e 15 29 d2 3c e8 75 69 be
       -0.5617967 0.17255251 0.025654355 -0.22798884
000070 29 ab 44 bc cb 0f 16 3e 68 e6 ef 3c bd 8d 19 bd
       -0.012003698 0.14654462 0.029284671 -0.037488688
000080 38 41 28 3d e8 8e 72 3d ba 24 cc 3c 5a 3b c1 be
       0.041077822 0.059218317 0.024919856 -0.37740594
000090 ea 8e ef be 0d 1f 08 3f 1c 16 9b bc e8 d7 cf 3e
       -0.46788722 0.5317238 -0.018931441 0.4059441
0000a0 48 38 ee be 70 e0 2f 3f 54 6b e2 bb ed 11 f4 3e
       -0.46527314 0.6870184 -0.006909767 0.47669926
0000b0 51 95 ad 3c a9 24 ef 3e 43 0d b2 bc eb 97 4e 3d
       0.021189364 0.46707657 -0.02173484 0.05043785
0000c0 d2 2b f6 be d2 59 cc bb a0 b6 b6 be c9 c0 96 3e
       -0.48080307 -0.0062362934 -0.35686207 0.29443958
0000d0 6b e3 91 3d 0b 6e c7 bd 41 31 f8 be 6f f6 53 bc
       0.07123455 -0.09737786 -0.48475078 -0.012937172
0000e0 5b b0 17 bf 3c 59 c3 3e 23 1b 9e bd f3 14 b0 be
       -0.5925347 0.38154018 -0.0772002 -0.34390983
0000f0 96 25 e1 be f7 e0 bb bb 08 3b 8f bc d5 45 d0 3c
       -0.43973988 -0.005733605 -0.017484203 0.025423924
000100 6a f2 37 3f 60 a4 2a be 48 65 94 3d 5e 9a 93 bd
       0.7185427 -0.16664267 0.0724588 -0.072071776
000110 57 91 25 bd 89 6e 08 bd 45 36 8a 3d 5b 4e 50 3e
       -0.04042181 -0.03330854 0.06748632 0.2034239
000120 c9 b5 ad be 97 ce 34 bf 4d 1c 26 bf 63 e0 44 bf
       -0.33927754 -0.7062773 -0.64886934 -0.76904887
000130 ea 62 78 bc 91 bf 11 bf 9c ee b4 bd b1 19 1e 3c
       -0.015160302 -0.5693293 -0.088345736 0.00964968
000140 f0 04 b5 3d a3 3d d4 3e 89 06 46 bf 8f e7 1f bf
       0.088388324 0.41453275 -0.7735372 -0.62462705
000150 f9 58 86 3d d9 07 b7 be 2e 14 23 3f f4 1f 76 3d
       0.06559939 -0.35748175 0.63702667 0.060089067
000160 fb d5 96 3d 0a f6 32 3d eb 86 1e 3f 3e 1b f6 bd
       0.07365032 0.043691672 0.6192462 -0.12016915
000170 88 41 77 3e a7 f3 5c bf bc 65 3f be e1 72 1b bf
       0.24146092 -0.86309284 -0.18691152 -0.60722166
000180 58 6b 10 bd a2 d9 1f bf 7f 23 0f bf f0 10 08 bf
       -0.03525862 -0.62441456 -0.5591354 -0.53150845
000190 5e 24 b0 39 47 64 18 bf c8 4c b5 3d b7 29 b7 be
       0.00033596432 -0.5952801 0.088525355 -0.35774013
0001a0 e8 bf 8d 3d 60 81 7d bd 0c c0 0a bf 16 bd 04 3e
       0.06921369 -0.06189096 -0.5419929 0.12962756
0001b0 68 fc 0c bf 5e 97 7f bf a0 13 7a bd 1a 44 07 bf
       -0.5507264 -0.99840343 -0.061053872 -0.5283829
0001c0 21 0a 0a bf 8a c0 bd bc 03 d4 38 be 2c 11 be be
       -0.53921705 -0.023163099 -0.18049626 -0.37122476
0001d0 84 fa d0 3c 21 b5 fe 3e 8b db 4f bf de 66 3a 3f
       0.02551008 0.49747565 -0.8119437 0.7281321
0001e0 01 7d 02 3e d1 ee 06 bf 95 cf 1f bf ab 0c 18 bf
       0.12742998 -0.52708155 -0.6242612 -0.5939433
0001f0 67 8d 3d bd 88 75 bd be 4a a8 b8 be 96 f9 18 bf
       -0.04627743 -0.37003732 -0.36065894 -0.5975584
000200 13 95 1b bf f8 b7 78 3d 99 1c c5 be 25 23 14 bf
       -0.60774344 0.06072232 -0.3849838 -0.57866126
000210 a0 4d 4f bb a8 1f e5 bd ae ff 38 3e 34 2d c3 bd
       -0.0031631961 -0.111876786 0.18066284 -0.09530106
000220 9b f1 f9 3b cb 4d 12 bf 57 ac 12 bf 22 11 de be
       0.0076276786 -0.5714995 -0.5729422 -0.43372446
000230 6c bb 2d bd fd 22 8a bd 5f e0 3f be 81 ca bb be
       -0.042415068 -0.06744955 -0.18737935 -0.36677936
000240 73 08 d1 bd fd bc 1d be 0f df b2 be b9 db ad be
       -0.1020669 -0.15404125 -0.34935805 -0.33956698
000250 0f 60 ee be 44 b5 8f bd a7 6c 06 bf 59 b2 bf bd
       -0.46557662 -0.070169955 -0.5250954 -0.09360189
000260 f0 de 14 be 50 6b 83 3b ae 23 5a 3e bd 07 af 3c
       -0.14538169 0.0040105954 0.21302673 0.021365995
000270 47 bb d7 bd f3 bd a6 3b ae d8 51 bf 24 42 a0 bd
       -0.10533767 0.0050885617 -0.8197125 -0.07825115
000280 20 03 cd 3c 87 f3 e2 3d 77 30 51 bd 79 8a 61 bc
       0.025025904 0.110816054 -0.05107161 -0.013765925
000290 79 05 dc bc 7e 62 2e bf 7d 3d 9f be 35 0c 55 bf
       -0.026858078 -0.6811904 -0.311016 -0.8322175
0002a0 4c 6c 5d bc 57 35 11 bf cb a7 07 3f 99 39 f8 3d
       -0.0135145895 -0.56722015 0.52990407 0.12120361
0002b0 85 ee 0a bf e3 00 8e 3e 0e ab 25 3c c3 27 c2 3c
       -0.542702 0.27735052 0.010111583 0.0237006
0002c0 99 a1 0e bd 79 56 60 bd e1 89 ea 3e 6e e0 02 bf
       -0.03482208 -0.054769967 0.45808318 -0.511237
0002d0 66 b3 32 bf b6 f4 27 3f 4e 21 ca be ff c6 3f 3d
       -0.6980499 0.65607774 -0.39478534 0.046820637
0002e0 5a 31 96 bd b0 37 e5 be a1 1f 3b bd d6 25 b7 bc
       -0.07333632 -0.4476905 -0.04568446 -0.022356909
0002f0 4e 08 3d bd 5c ba 35 3d b1 f2 b8 bd a9 8f 14 bd
       -0.046150498 0.04436718 -0.09030665 -0.036269818
000300 3e a8 29 3d ad 28 03 bf 4d 34 7d 3b 35 31 8a 3d
       0.041420214 -0.5123394 0.003863591 0.06747667
000310 f1 bc 48 3d 91 a8 75 3d c1 09 02 3d ac ef de be
       0.049008314 0.05997521 0.031747583 -0.4354223
000320 1d 26 54 bd 4e 5b 8f be a5 b2 f8 bd 02 25 5f bf
       -0.05179416 -0.27999347 -0.12143449 -0.87165844
000330 66 7f 0a 3e 04 c9 0a bd 45 ad be 3c 28 c8 03 bd
       0.13525161 -0.03388311 0.02327598 -0.032173306
000340 c5 16 a9 3e c7 f4 0c 3d 73 60 a6 3d 15 23 29 bf
       0.33025184 0.034413125 0.08123865 -0.66069156
000350 2e ec 13 bf c0 84 1f bf 27 08 02 bf fa cd e8 be
       -0.57782257 -0.62311935 -0.5079369 -0.45469648
000360 ee e8 e0 bd 70 db 81 bd 86 1e 84 3b 50 f5 25 bf
       -0.10981928 -0.063406825 0.004031959 -0.6482744
000370 b0 a4 7c 3d f3 ce 02 bf 30 7d 9f 3a 26 8b 96 bd
       0.061680496 -0.5109703 0.0012168046 -0.07350759
000380 16 60 8b bc de 53 db bc c9 87 99 3c f0 f5 9f 3e
       -0.01701359 -0.02677339 0.018741505 0.31242323
000390 1c 0e a5 3c 76 41 f6 bc 98 a1 1d 3f fb 66 94 3e
       0.02014833 -0.030060511 0.615747 0.28984818
0003a0 f3 59 6f 3d 70 5c 4d bd 6f c7 08 3f d2 cf ef bb
       0.05843539 -0.050136983 0.5342931 -0.0073184753
0003b0 7b a7 cf bd e4 da 82 3d c7 77 64 bd 7c 3e eb 3e
       -0.10139366 0.06389406 -0.05577829 0.4594611
0003c0 80 58 81 3d 03 75 9b bc 7b f4 e0 bd 7c 2b ae bc
       0.06315708 -0.018976694 -0.10984131 -0.02126097
0003d0 c1 0f b9 be 8c 74 e4 be c7 9d 15 be 8c 6d 00 be
       -0.36144832 -0.44620168 -0.14610969 -0.12541789
0003e0 4c 82 2d bf 92 21 84 bf 96 d4 86 3c 5a 6d 71 3d
       -0.6777694 -1.0322745 0.01645879 0.058942176
0003f0 22 70 8b bd a3 e0 79 3d 1b cd 18 bf 52 83 d1 be
       -0.06808497 0.061005246 -0.59687966 -0.40920502

fc1.bias f4 [256]
000000 ef 4f 03 3b b0 8f e2 be dc ce 06 bd b0 e1 d2 bd
       0.0020036658 -0.4425025 -0.03291212 -0.10296953
000010 5e 11 9e 3e 6e 7a 94 3e e8 02 2d bf c1 39 bd bc
       0.30872625 0.28999656 -0.6758256 -0.023098828
000020 5f 6a 00 bd ae 3a 3a 3e a8 11 0a ba 29 41 9c 3e
       -0.031351443 0.18186447 -0.0005266913 0.30518463
000030 3c 84 28 be 68 79 81 be ae 37 de 3e 4c c1 8e be
       -0.16456693 -0.25287938 0.43401855 -0.2788185
000040 41 a4 0d 3f 46 15 87 3e 56 ff b7 3d 22 ab 4b bf
       0.55328757 0.26383418 0.08984248 -0.79558
000050 d8 31 0b 3f c2 78 95 3e 14 3f b6 3c 90 fd 7d be
       0.5437293 0.29193693 0.022246875 -0.24803758
000060 f5 0b a0 3e b0 3d 4e be 2a c6 1d bf 42 ab 9e 3c
       0.31259122 -0.2014072 -0.616305 0.019368771
000070 98 e4 26 bf dc c4 16 3f 39 dd f1 bc 00 c8 04 bb
       -0.65192556 0.58894134 -0.029524432 -0.002026081
000080 50 a4 24 be ac 20 2e bf 6c a3 0c bf 49 9a 3f 3e
       -0.16078305 -0.68018603 -0.5493686 0.18711199
000090 06 6d 85 3e 29 a7 7d 3c e1 b0 e3 ba 52 e0 56 bd
       0.2605974 0.015481749 -0.001737144 -0.052460022
0000a0 1d e6 84 3e e6 d6 81 3d b2 63 5c bf 4d 3c 3a 3e
       0.25956813 0.06339817 -0.8608962 0.18187065
0000b0 ca d8 32 3e 8a 24 1f 3d 76 e2 7e bf 28 2c 3a be
       0.17465511 0.038853206 -0.995643 -0.18180907
0000c0 f9 b2 f8 3e 94 fc 9b be 63 d7 f5 3e 04 e3 16 3e
       0.48574045 -0.3046614 0.4801589 0.14735037
0000d0 6c b4 27 bf a9 c8 03 3f ff 4e 8a 3e 60 87 eb bd
       -0.65509677 0.5147806 0.27013394 -0.1150043
0000e0 7b 98 83 3e 9c 17 d4 3e 44 70 0b bf 9e f4 16 3e
       0.2570227 0.41424263 -0.5446818 0.14741752
0000f0 15 bb 42 3e 06 cd 60 bf 6c 4a f2 be 50 36 d4 bd
       0.19016679 -0.8781284 -0.47322404 -0.10361922
000100 db 8b 38 3e 20 d8 bb be c6 69 34 bf 84 ab b0 be
       0.180221 -0.36688328 -0.704739 -0.34505856
000110 fa d9 58 bf da c2 58 bf ee 81 59 bf aa ae 9f 3e
       -0.84707606 -0.8467232 -0.8496388 0.31187946
000120 28 76 f9 b9 37 05 e0 3d 4c b6 cc 3d 0e 06 28 3f
       -0.00047581014 0.10938495 0.09995708 0.6563424
000130 80 35 d1 be 3a fc b2 3d dc e2 d2 be 24 ae 6e bf
       -0.4086113 0.08739515 -0.41188705 -0.9323447
000140 f6 81 63 bf 8a 2d a6 3e c8 ab dc 3e 05 47 b2 3e
       -0.8887018 0.3245662 0.4309981 0.3481981
000150 1a 71 54 bf 36 e5 23 3e 18 7f 00 3f 18 94 7e bf
       -0.8298508 0.16005406 0.5019393 -0.99444723
000160 a8 2c 04 be e0 bb b1 bd 71 0c 5e bc c0 a0 3a bf
       -0.1290766 -0.086784124 -0.013552771 -0.72901535
000170 ee aa 77 3e 40 bb 08 3e da da 02 3f 5e f6 ac 3e
       0.24186298 0.1335268 0.5111519 0.33781713
000180 76 74 1d bf a9 f7 e2 3e 84 6d ac 3e 4e e2 97 3e
       -0.6150583 0.44329575 0.33677304 0.29664844
000190 c4 23 bc be 01 c2 a9 3e 10 13 7f bf 4f a1 1e 3e
       -0.36746037 0.33155826 -0.9963846 0.15491222
0001a0 4c 88 c0 be 00 2b 7a bf 8f 98 9a 3e 9c 76 b5 be
       -0.37603986 -0.9772186 0.30194518 -0.35442054
0001b0 89 2f 9d 3e df be 0e 3f 28 68 2a be 6e 61 e9 3d
       0.3070033 0.55759996 -0.16641295 0.11395536
0001c0 c5 e6 99 3e ca 1b 51 bf 90 1a aa bd 0f c0 53 3e
       0.30058876 -0.8168303 -0.08305848 0.20678733
0001d0 00 c1 c4 be d3 1e ed bc e3 55 fc 3e 37 b5 61 bc
       -0.38428497 -0.028945362 0.49284276 -0.013776115
0001e0 50 87 5b be 60 35 b2 3e 89 0e b2 3e 84 cb 1e 3f
       -0.21438336 0.34806347 0.34776714 0.6202929
0001f0 fc 2a a4 be 34 6f 45 3d f8 ac 36 3e bf f1 84 3e
       -0.32064044 0.048201755 0.1783942 0.25965688
000200 ca ad 86 3e 88 2c 42 be a7 6a 5b 3e 6b dc c9 3e
       0.26304466 -0.189623 0.21427403 0.39425978
000210 da 08 23 bd b0 73 30 bf 78 87 d4 bd 07 30 12 3f
       -0.039803363 -0.68926525 -0.10377401 0.57104534
000220 3a 28 1b bf 18 bc 12 3f 54 5a a3 3e a1 32 d5 3e
       -0.60608256 0.5731826 0.31904852 0.4164019
000230 d3 53 0f 3f 74 1a b0 be 78 e0 4e bf d6 73 39 3e
       0.5598728 -0.34395182 -0.8081126 0.18110594
000240 72 c4 36 bf e4 ce a2 be 0e 4c 04 3f 03 af 41 3e
       -0.713935 -0.3179847 0.5167855 0.18914418
000250 bf ac 84 3e 6a 15 6d bf 4c d6 95 3e 8c aa c8 be
       0.25913045 -0.926108 0.29265058 -0.39192617
000260 72 65 00 bf c0 cb 26 bf b9 dc f4 bd b0 e4 b5 be
       -0.50154793 -0.6515465 -0.11956162 -0.35526037
000270 30 a2 91 bd 40 49 4c be e6 af 0e 3f ac aa 13 bf
       -0.07111013 -0.19949818 0.5573715 -0.576823
000280 8d 75 e9 bc 3c 33 27 bf 94 8f fd be ca af 77 bf
       -0.028498435 -0.6531255 -0.49523604 -0.9675261
000290 ac e9 f6 be a1 6e c2 3e 89 8c 1d 3e 97 4d 2c 3f
       -0.48225152 0.37975028 0.15385641 0.6730589
0002a0 1c 2f f9 be f3 4a b3 3d 04 b2 9a bc 2e 65 6e bf
       -0.48668754 0.0875453 -0.018883713 -0.9312314
0002b0 10 c6 bf 3e ea 1f d8 3d 6c b7 ed be 84 86 40 bf
       0.37455797 0.10552962 -0.46429002 -0.75205255
0002c0 ea 8c 0c bf 9c 46 f8 be 06 d5 14 bb 7a 69 91 3e
       -0.5490252 -0.4849137 -0.002270998 0.28400785
0002d0 50 04 33 3f 94 fe 5d 3e 56 de 60 3e b8 ca 1a bf
       0.69928455 0.21679145 0.21959814 -0.60465574
0002e0 8c a5 0f bf 7d 96 7f 3e 2c 26 fc be e0 21 47 bf
       -0.5611198 0.2495975 -0.49247873 -0.77786064
0002f0 a0 92 e2 bd 90 6a f6 bd 48 b3 eb be 0c 6e cd be
       -0.11063123 -0.12032044 -0.46035218 -0.40123022
000300 18 d8 25 bf 3f 3c 92 3e 48 95 5a be 38 be 9e be
       -0.6478286 0.2856159 -0.21346009 -0.310045
000310 25 e2 5d bd a0 a3 75 bf 60 74 5a be 25 e5 78 3e
       -0.054170746 -0.95952797 -0.21333456 0.24306162
000320 26 fd 07 bf 58 bd cf be 38 d4 2a be 51 fc f8 3e
       -0.5312065 -0.40574145 -0.16682518 0.48630002
000330 42 70 10 bf 18 3f fe be d6 d0 28 bf c0 bc 41 bf
       -0.5642129 -0.49657512 -0.6594366 -0.75678635
000340 5a 2f 19 3f 90 ff 99 bd 1e 82 7d bf 5d aa 29 3f
       0.5983788 -0.07519448 -0.9902667 0.6627558
000350 39 22 a5 3e b1 cf b1 3e 06 04 91 3e a8 a6 81 3e
       0.32252672 0.34728768 0.28323382 0.2532246
000360 b4 14 45 bf 90 00 ca be 28 4d 21 bf a5 1a b9 3e
       -0.76984715 -0.39453554 -0.63008356 0.3615314
000370 a0 cb 35 be 10 f8 91 3e ae 23 0e bf 92 98 6f bf
       -0.17753458 0.2850957 -0.5552319 -0.9359218
000380 34 45 4f bf 00 0b cd bd f4 d3 44 bf be 7d 38 3f
       -0.8096497 -0.10011864 -0.76885915 0.7206687
000390 9e 70 ad bc 04 2d 07 3c 65 50 0e 3c ed 89 c6 3e
       -0.021171864 0.008250479 0.00868616 0.38777104
0003a0 5a 67 60 bf d6 49 76 bf 9f f4 93 bc 1c 1a 6f bf
       -0.876577 -0.96206415 -0.01806098 -0.93399215
0003b0 0c 84 61 bf d4 57 0e bf 30 de c9 be d2 2d 4a 3f
       -0.8809211 -0.55602765 -0.39427328 0.78976166
0003c0 60 66 2c bf 60 9d cb bd a2 68 46 bf 4c b3 7c ba
       -0.6734371 -0.09942126 -0.77503407 -0.00096397544
0003d0 fd f6 1e 3e cc 47 7e 3e 58 da e7 be ba b5 bc b9
       0.15523906 0.24832076 -0.4528377 -0.0003599355
0003e0 f6 51 c1 3e c2 f9 23 3e 40 47 ed be c8 09 d2 be
       0.37757844 0.16013244 -0.46343422 -0.41023088
0003f0 db e8 e9 3e a0 81 60 bf 4a 5f aa 3e be 32 d3 3e
       0.45685467 -0.8769779 0.33275825 0.4124965

fc2.weight f4 [128, 256]
000000 5b 00 04 3e 90 ea 1e be 98 21 43 bb 4d f1 9d 3d
       0.1289076 -0.15519166 -0.0029774662 0.0771204
000010 46 73 d4 bc ad 39 44 3d 3d ac 22 bd 6f ea 4d bd
       -0.025933873 0.047906566 -0.03971504 -0.0502724
000020 4f 83 98 3d b5 74 d7 bd 40 52 01 3d cd 65 57 bd
       0.0744692 -0.10520307 0.03157258 -0.05258732
000030 9f 18 92 3d 28 59 d5 3d 56 1e 90 3b 4f f5 82 3e
       0.07133602 0.10417396 0.0043981476 0.2557778
000040 d5 35 bd bd b8 79 17 bf 74 da fe 3d 71 42 08 bc
       -0.09238783 -0.59170103 0.124440104 -0.008316622
000050 1a 54 5e 3d d8 a0 31 be 4b 15 d0 bd 1a d5 b2 bc
       0.054279424 -0.17346513 -0.10160311 -0.02183013
000060 a6 9b c7 3d 11 2c d0 bc bd 04 ed bd f4 55 fc bd
       0.097464845 -0.025411637 -0.115731694 -0.12321082
000070 2c 0a b4 3c c6 d1 45 3d 63 0f a0 3d be ab 54 3e
       0.021977507 0.04829576 0.07815435 0.2076864
000080 2f 1a d8 3d 74 bf 10 3e d4 e5 da 3d 50 06 01 be
       0.10551869 0.14135534 0.106883675 -0.12600064
000090 12 70 0e 3d 34 24 98 3d 52 88 b4 3d 24 0a f5 bd
       0.034774847 0.0742878 0.088150635 -0.11964825
0000a0 12 98 6b bb d2 b0 cd bd c2 7e 3c be 03 8a e2 bd
       -0.0035948795 -0.100434914 -0.1840773 -0.1106148
0000b0 bf 74 d5 bc a1 f6 40 3d 5a 59 10 be bd ab 37 3e
       -0.026056645 0.047110204 -0.14096585 0.17936607
0000c0 72 8e a9 bc b4 cc 8c bd 6e 6e 9d bc 41 23 8f 3b
       -0.020697806 -0.068749815 -0.019217696 0.0043682163
0000d0 cd c4 e5 3b 8c 4e ac 3c 71 83 f4 ba 07 df 43 be
       0.007011986 0.021033548 -0.0018654895 -0.19128047
0000e0 4a ea 33 be ea cb 73 be 88 8a eb 3d 93 83 ba bc
       -0.17569843 -0.23808256 0.11501032 -0.022767818
0000f0 d4 61 02 bd 93 2f 13 3e d5 0c f0 bd af 65 e1 3d
       -0.031831577 0.14373617 -0.117211975 0.11005723
000100 48 61 9c 3d 32 64 1a be e9 27 c9 3d 03 ec 9f bd
       0.076357424 -0.15077284 0.098220654 -0.078086875
000110 4e 24 3b 3e 08 ec b1 3d 02 56 0a 3c b7 85 39 bd
       0.18275568 0.086875975 0.008443357 -0.045293536
000120 51 d2 82 3e 62 ea 2f 3d 3c 6b 01 3e 0b 94 04 3c
       0.25551084 0.042948134 0.12638563 0.008091937
000130 bc ca 2b 3d 11 e4 65 3c ea 75 09 3d 24 d4 e3 bc
       0.04194139 0.014031426 0.033559717 -0.027811117
000140 15 b4 8b bd f1 c3 e6 3b 07 76 6f bd 6a 56 21 be
       -0.06821457 0.007042401 -0.05846217 -0.1575562
000150 37 5d 0b be c0 59 23 3e 33 14 0d bb d0 5a 71 bd
       -0.13609777 0.15952206 -0.0021526932 -0.058924496
000160 4e bb 83 bd 09 3a ba 3a b9 48 4e 3e c2 fd 06 be
       -0.0643221 0.001420797 0.20144929 -0.13182738
000170 5c e4 44 3d e7 83 47 3c 5e 96 34 bd d3 49 3b 3e
       0.048069343 0.012177444 -0.044088714 0.1828988
000180 25 9e 08 3d f9 3d b9 bd ba bc c0 3d 99 03 43 bd
       0.033353943 -0.090450235 0.09410997 -0.047610853
000190 e0 44 59 3d b8 63 21 be c3 4f 2c 3e 1b 85 bd bd
       0.0530442 -0.15760696 0.16827302 -0.092539035
0001a0 53 06 e8 bd 46 a1 3e 3e f4 92 09 bd 9a 53 62 be
       -0.11329331 0.18616208 -0.03358741 -0.22102204
0001b0 78 6b 23 bd 73 66 3d be d4 97 46 3d 7c f4 81 3c
       -0.039897412 -0.18496113 0.04848464 0.01586365
0001c0 2d 37 4d 3d 18 7a 48 bc ea f7 5d 3e 06 19 c2 3d
       0.050101448 -0.012236141 0.21676603 0.09477429
0001d0 a5 32 ba bc 12 e3 04 be 1b 8e 98 be c4 04 72 3c
       -0.022729227 -0.12977245 -0.29795918 0.014771644
0001e0 d2 5c 01 bb 52 f7 d0 bc e1 70 50 be 52 3c 8f be
       -0.0019739163 -0.025508557 -0.2035556 -0.27975708
0001f0 60 f0 3a be ed 07 18 be cb 31 80 3d a3 cf 65 3d
       -0.18255758 -0.14846773 0.06259497 0.05610622
000200 07 71 3c bd 27 99 8d bd 87 bd f7 bb 6e 58 d5 bd
       -0.04600623 -0.06913977 -0.007560435 -0.10417257
000210 ad 6c c3 3d 47 dd 18 3e 29 ca 76 bd 39 e5 94 3e
       0.09542213 0.1492816 -0.06025139 0.29081133
000220 be 62 01 be ff ea 28 be 56 26 a8 bc 21 8c 17 be
       -0.12635323 -0.16495894 -0.020526092 -0.14799549
000230 1c 58 19 be 69 ee 4b be 73 c4 2e bd 59 42 24 bd
       -0.14975017 -0.19915165 -0.042667817 -0.040102337
000240 2e fe 9c bc bc fd 05 be bf a4 16 3d f0 ea 06 be
       -0.019164171 -0.13085073 0.036778208 -0.13175559
000250 16 1f 15 bd e1 13 14 be 30 bd ed 3d 4b 27 b2 bb
       -0.0364066 -0.14460708 0.1160835 -0.005436813
000260 18 a2 76 3d 1d 39 3f 3e b9 13 7c be 13 1c ec 3c
       0.06021318 0.1867413 -0.24616899 0.02882198
000270 41 10 ad 3d 64 e5 18 be d2 81 c2 3c cf 04 d2 bd
       0.08450366 -0.14931256 0.023743544 -0.102548234
000280 97 b9 b1 bd bb ee df bd a4 64 85 3d 9a 76 1c 3e
       -0.086779766 -0.10934206 0.06513336 0.15279618
000290 f4 23 6e be aa 75 2f be 85 b1 c4 3d ec 4d dc be
       -0.23255903 -0.17134729 0.09604172 -0.430282
0002a0 98 b2 56 bd e0 73 6a 3e cf 6e 25 bd e7 89 04 be
       -0.052416414 0.22895765 -0.04038888 -0.1294323
0002b0 0d e8 48 be 32 4d 7b 3e a1 32 91 bd 8f ac 93 bc
       -0.1961977 0.24541166 -0.07089735 -0.018026618
0002c0 f3 12 25 bd e5 55 1a 3d 6c bc 53 be 8d 57 77 3c
       -0.040301275 0.03767957 -0.20677346 0.015096557
0002d0 2d d2 fb 3b 5a b4 13 3e 4d 30 8e be 34 5a f3 3d
       0.007684967 0.14424267 -0.27771226 0.11882439
0002e0 65 75 38 3d 41 49 41 bd cb 2f 68 bd 67 3a 80 bd
       0.04503383 -0.047189 -0.056686204 -0.06261139
0002f0 f6 8d 5b 3d 31 a2 58 3d f0 1e c3 3d 5e 5e fc bc
       0.05360218 0.052889053 0.09527385 -0.030806717
000300 59 01 93 3d b2 ea bd bd f3 02 a1 bd 73 5a 5b 3d
       0.071779914 -0.0927328 -0.07861891 0.053553056
000310 a1 ec 04 3e c5 5b 07 3e dc cf a2 bd ea 34 31 3d
       0.12980892 0.13218601 -0.07949802 0.043263353
000320 b1 89 b3 bd 09 7a b1 3d 79 48 f9 bd e9 05 8f bd
       -0.08766497 0.086658545 -0.12172026 -0.06983549
000330 5c 39 95 bd 97 72 a7 bc e3 5d 14 3e 40 4e 83 be
       -0.07286331 -0.020440383 0.1448894 -0.25645638
000340 28 9b fc 3d 0f 7f cf 3d 90 c5 6c 3a 0e 99 97 be
       0.12334281 0.101316564 0.00090321247 -0.2960896
000350 87 94 f2 3d ec 3f aa bd ac 71 19 3c 81 77 e9 bd
       0.118447356 -0.083129734 0.00936548 -0.11399747
000360 71 3a 78 3d d9 5b 44 3e f6 c8 2f be dc d0 04 be
       0.06060261 0.19175662 -0.17166504 -0.12970299
000370 cf 75 cc bd 80 3d a1 bd 4e 10 a2 3d 21 71 a1 bd
       -0.09983408 -0.07873058 0.07913266 -0.07882906
000380 c6 fe 6a bd 62 a9 15 3e 24 35 9d bd a8 6d f2 bd
       -0.057371877 0.14615396 -0.076761514 -0.118373215
000390 4a 65 96 3d 7f d5 23 be e7 03 da bd 9b 6e 97 bd
       0.07343538 -0.15999411 -0.106452756 -0.07394143
0003a0 47 3f f9 3c 65 ef 2c 3d 36 c5 ff 3d c3 1b 64 3d
       0.03042568 0.042220492 0.12488787 0.05569054
0003b0 81 2d 91 3d b2 45 04 be f9 29 0e 3d e3 41 ed bd
       0.07088757 -0.12917212 0.034707997 -0.115848325
0003c0 ec 80 bf bd 17 d5 16 be c2 73 83 bd 4f 8d e2 3b
       -0.09350762 -0.14729725 -0.064185634 0.006913818
0003d0 bf 93 c3 be 0d 8f fd bd da 23 b0 bc ad 94 c0 bc
       -0.3819866 -0.123808004 -0.02150147 -0.023508394
0003e0 4c 6f a9 bd 79 ad 9b bd d1 63 95 3d 36 9c 6d 3d
       -0.08273181 -0.07601447 0.07294429 0.058010302
0003f0 97 c8 ad bd 05 b0 1d 3b 97 82 5e bd a9 06 ac be
       -0.08485525 0.0024061215 -0.05432376 -0.3359883

fc2.bias f4 [128]
000000 a8 c0 d1 bd 6e be 57 bb 00 6f 76 3c 83 db 10 be
       -0.102418244 -0.0032919901 0.015041113 -0.14146237
000010 78 fd fe bb 08 53 d7 39 b1 02 f2 3d 78 c8 02 bc
       -0.0077816807 0.0004106986 0.118169196 -0.007982366
000020 1b 0d 13 be a4 ee d7 3c 9c f2 28 3d d3 16 be bd
       -0.14360468 0.02635891 0.041246995 -0.09281697
000030 84 92 87 bd 20 25 ab bc 54 b0 c0 3c 59 92 0b bd
       -0.066197425 -0.020891726 0.02352158 -0.034075115
000040 4a 6f 17 3d b9 50 4a bd 9b 33 26 bd 22 a8 10 3d
       0.036971368 -0.04939339 -0.04057656 0.035316594
000050 f4 a8 21 bd 9d d1 34 3d 7b 24 e3 bd 7c 07 82 3c
       -0.039467767 0.044145215 -0.110909425 0.01587271
000060 7d 27 52 bd c4 ed 69 3c 82 bf bf bc 0c 32 38 bd
       -0.05130719 0.014277879 -0.023406748 -0.044969603
000070 4d 70 a0 3c 21 e3 9c bd e5 31 3d bd c5 71 6d bd
       0.0195848 -0.07660509 -0.04619016 -0.057969827
000080 16 46 04 3d 6a b1 6f bd b8 a0 8e bb 04 53 2c bd
       0.0322934 -0.058518805 -0.0043526553 -0.042071357
000090 b0 5e a7 bc 42 63 17 3d 4f 9b 91 ba 55 54 55 3d
       -0.020430893 0.036959894 -0.0011108908 0.05208238
0000a0 27 e4 90 3d 41 25 3d 3d 9a 1f 04 bc 5c e4 12 bd
       0.070747666 0.046178106 -0.008064175 -0.03586231
0000b0 e1 55 a2 bd 60 36 1a 3c 94 a0 e9 bc de e3 48 3d
       -0.07926536 0.009412378 -0.028518952 0.049045436
0000c0 aa 0f 53 bc 72 b7 11 be 13 5b b9 bd 1c 9e 17 3d
       -0.012882153 -0.14230135 -0.09050574 0.03701602
0000d0 22 7a 87 bd 8b 11 90 bd 68 95 a0 3c 00 07 82 bd
       -0.06615092 -0.07034596 0.019602492 -0.063489914
0000e0 8e e5 85 3d d1 3a 53 bc 86 02 22 bb 75 1a 96 3c
       0.06537925 -0.012892441 -0.0024720742 0.018323163
0000f0 c8 fb a2 bd b0 ad 4b bc 77 59 36 3d 7d f1 14 bd
       -0.0795818 -0.012431547 0.044518914 -0.036363114
000100 28 3b d5 3c 74 dc da 3c e9 34 1d 3d b9 65 1d 3d
       0.026029184 0.026716448 0.038380537 0.03842709
000110 46 12 7e bd c0 de e6 ba 02 46 c3 bd 7c cb 73 ba
       -0.062029146 -0.0017613992 -0.09534837 -0.0009300036
000120 bd 85 1f be 14 9a 8a bd ed 3a e8 3d af 20 29 bd
       -0.15578361 -0.06767669 0.11339364 -0.041290935
000130 fc f7 f8 bc ac b6 69 3d ba a9 72 be 08 0c cf bc
       -0.030391686 0.057058975 -0.23697558 -0.025274292
000140 d3 09 1c bd 71 79 8c bd 0e a7 15 bd a0 b5 06 bb
       -0.038095307 -0.068591006 -0.03653627 -0.0020555034
000150 24 c1 3f 3d 45 53 ea bd de 53 e4 bc b2 85 a8 bc
       0.046815053 -0.11441664 -0.027872022 -0.020571563
000160 f7 3c 74 bc 94 f3 b3 3d 1f d6 80 3b 69 e3 97 3b
       -0.014907113 0.08786693 0.003931775 0.0046352637
000170 98 fd be bb e2 90 98 bd d7 78 b2 bd 82 8a ba bd
       -0.0058285706 -0.07449509 -0.087144546 -0.091084495
000180 44 22 41 bd e4 40 09 bd 34 61 68 bd 5f eb f9 3b
       -0.04715182 -0.03350915 -0.056733325 0.0076269354
000190 46 e5 4d bd 45 e6 75 bc d0 13 9c bb 5a 63 42 3d
       -0.05026748 -0.015008514 -0.004763104 0.04745803
0001a0 2e 65 83 bd e5 81 a8 bd b8 e3 9d bd f6 89 75 3d
       -0.06415783 -0.082279004 -0.077094495 0.059946023
0001b0 ec 6f 0f bd 8f 80 ba bd 83 23 0c bd 3a c0 14 bd
       -0.035018846 -0.09106552 -0.034213554 -0.036316134
0001c0 d5 2e 04 bd 64 d0 b2 3c d6 d3 0d bd 90 c4 ee bb
       -0.032271225 0.021827884 -0.03462585 -0.0072866157
0001d0 a6 54 23 3d 84 77 ef 3c 10 21 9b bc 80 8a cb bc
       0.03987565 0.029231794 -0.018936664 -0.024846315
0001e0 0e 3e 05 bd 1f c2 57 3d 01 cb 8b bc 3b 68 8c bc
       -0.032529883 0.052675363 -0.017064573 -0.017139545
0001f0 b8 a9 11 3d f8 7d 07 b9 6e f0 14 bd d6 fc 7d 3d
       0.035562247 -0.0001292153 -0.036362104 0.0620087

fc3.weight f4 [64, 128]
000000 ba 20 16 3e b5 2b d1 3d 25 dd a8 bc 75 0c 87 be
       0.14660922 0.102134146 -0.020613262 -0.2637669
000010 88 01 25 3e 5e 02 c0 3c f5 28 8a bd 0f bb f7 3d
       0.16113865 0.023438629 -0.06746093 0.120962255
000020 34 60 cc 3d 19 68 cc 3d d6 c3 e0 3d 0a 0c 98 be
       0.09979287 0.099807926 0.10974853 -0.29696685
000030 7f ab 95 3c 15 f4 c9 3d ce 04 ec 3d 15 dc 5e bd
       0.018270252 0.09861008 0.11524354 -0.054409105
000040 92 8c 0c 3e 06 8d 26 be b9 5e 09 3d 49 5a 5e bd
       0.13725498 -0.16264734 0.0335376 -0.05428532
000050 7b 9f 60 be 62 11 e4 bd 57 40 d1 3c ec 5d 69 3e
       -0.21935837 -0.11136128 0.025543375 0.22789735
000060 b6 0d f4 3d b5 de 1c 3e 8a 84 e2 bd dc d4 09 3e
       0.11916678 0.15319331 -0.11060436 0.13460106
000070 b9 1f 9b be a0 7d 53 bd cc 14 3f be 1a ba 43 3d
       -0.3029764 -0.051633477 -0.18660277 0.047784902
000080 6e cd 2b be a2 1b 90 3e 42 8f 55 be 3c 66 9a 3d
       -0.16777584 0.28146082 -0.2085543 0.07539031
000090 5c b9 8b 3d fe 3c ad bd da 19 57 bd 75 7a ef 3d
       0.06822464 -0.08458899 -0.05251489 0.11693279
0000a0 90 ef 1b be d3 45 cc bd 82 c2 1e be 05 d8 28 3e
       -0.15228105 -0.099742554 -0.15503886 0.16488655
0000b0 c6 f8 df 3e d1 e4 a0 3e c7 6f f3 3d 5b a1 9f bd
       0.43744487 0.31424573 0.11886554 -0.07794448
0000c0 07 0b b1 3e 22 04 aa bb 47 82 c6 bd e1 7f 97 3e
       0.34578726 -0.005188481 -0.09692817 0.2958975
0000d0 6c ea 60 3e d4 a4 9b 3d a1 f8 82 3d 9e f8 14 3d
       0.21964425 0.07599798 0.063950785 0.036369912
0000e0 03 0c cc 3d 64 14 2e 3d 45 66 96 be ac 6b 0b 3e
       0.099632286 0.042499915 -0.293749 0.13615292
0000f0 58 3d a9 3e ca 40 28 be f7 b9 fa 3d 62 db 41 bd
       0.33054614 -0.16430965 0.12242501 -0.04732836
000100 fe 00 9d be b0 5b fd bd ec 5d 97 be 9a d7 c7 3d
       -0.3066482 -0.12371004 -0.29563844 0.097579196
000110 43 50 b8 3d ed 89 07 be 16 0f 58 3e 9a 76 d0 3c
       0.08999684 -0.13236208 0.21099505 0.025447179
000120 27 4b cd bd 1e 96 1e be 4b 53 21 3d 2c 38 80 3e
       -0.100241 -0.15486953 0.039386075 0.25042856
000130 ab 53 d9 3d e5 74 84 3d 87 3c 77 3d b8 a1 2b be
       0.106116615 0.06467608 0.060360458 -0.1676091
000140 06 fd 33 3d 13 4a 2b be 00 44 b3 bd 2d 9a 5b 3d
       0.043942474 -0.16727476 -0.08753204 0.05361383
000150 64 5d 6b bd 03 ed ff 3c a6 e6 4c be d1 3a 49 be
       -0.05746211 0.031240946 -0.2000986 -0.19651343
000160 95 4a b1 bc 98 91 7f be 17 b1 43 3e 3a f5 6b bd
       -0.021642009 -0.24957883 0.19110523 -0.057606913
000170 57 27 ab bc ee 04 43 3e c3 05 f3 bd a7 2e 59 3e
       -0.020892782 0.1904485 -0.11866333 0.21209203
000180 5d c3 2f 3e 16 ee 39 3d 11 e3 fb ba cb 3b 1d be
       0.17164369 0.045393072 -0.0019217451 -0.1535484
000190 44 b7 ea bd f0 09 76 bd 6f 96 56 3e 95 00 3f be
       -0.114607364 -0.06006807 0.20955823 -0.18652566
0001a0 74 50 d3 3c 59 36 6f be ac 10 5a bc 99 e3 bf bd
       0.025795199 -0.23360576 -0.013309639 -0.09369583
0001b0 9e 6d 06 bf b9 17 68 3e 6f de 29 3e ba 95 11 3e
       -0.5251101 0.226653 0.16588758 0.14217272
0001c0 c3 db 6e 3d 79 38 07 3d 44 45 51 be 2a fa 94 bc
       0.05831505 0.03301284 -0.20436579 -0.018185694
0001d0 29 3f f6 3e c7 7e b6 be 10 ba 2c be 66 eb 23 3d
       0.48095062 -0.35643598 -0.16867852 0.040019415
0001e0 84 12 fd 3d 8e 2f ef bc d0 17 5d bd 77 18 23 bd
       0.12357047 -0.02919748 -0.053977787 -0.039818253
0001f0 ae 4a b4 bc a3 42 9e bc d4 de c2 3c d7 3d 4d 3e
       -0.022008266 -0.019318884 0.023787893 0.20043121
000200 71 5b 33 3c d6 30 05 3c 42 58 66 3e b2 1e 41 3e
       0.010947094 0.008129319 0.22494605 0.18859366
000210 a6 7d 4c be 0c c5 de 3d 25 66 1a 3e 6b 57 8a bd
       -0.19969806 0.108774275 0.15078028 -0.06754955
000220 4a d7 8c 3e 8f c2 12 be cb b2 81 3e 4d 5e 21 be
       0.27508003 -0.1433203 0.2533172 -0.15758629
000230 8d 90 96 be 68 64 24 3e bf 2e ae bd b7 93 45 3e
       -0.29407158 0.16053927 -0.0850501 0.1929463
000240 00 c4 b1 bd 64 c5 6a be 29 7e f6 3d 45 5d a8 3e
       -0.08679962 -0.22926861 0.12035782 0.3288366
000250 d5 04 60 3d 04 62 d3 3d 61 55 03 be d6 fc f8 bd
       0.05469211 0.10321429 -0.12825538 -0.121576
000260 2d 51 17 be 6c 69 94 bd c6 c1 38 3e 55 7c 5c 3d
       -0.1477706 -0.0724667 0.18042669 0.05382951
000270 1e 54 25 3e 99 73 dc 3d 9d a4 be 3e 36 fe c8 3e
       0.1614537 0.10764236 0.37234965 0.39256448
000280 4c 7c c2 bd 0a 2a 5d be f1 16 80 3e f5 72 da be
       -0.09496364 -0.21598068 0.25017503 -0.4266583
000290 93 89 a0 3c 4c 8a 18 3e 21 5d 8f 3e 6a c7 c3 bd
       0.01959685 0.14896506 0.2800074 -0.095595196
0002a0 da b2 5c bf 2a 1d f1 bd dc 01 23 3d 14 55 8f 3e
       -0.86210406 -0.11773141 0.039796695 0.27994597
0002b0 65 23 31 be 75 21 67 3e 1a 44 33 be 34 12 0e 3e
       -0.17298658 0.22571357 -0.17506447 0.13874131
0002c0 da a4 38 bc 17 2e a1 3e 84 0b 92 3e c0 8d bb 3d
       -0.011269772 0.31480476 0.2852441 0.09157896
0002d0 44 c7 c2 bd 34 f9 9c 3e 01 c4 69 bd 9f 18 36 3e
       -0.09510663 0.30658877 -0.05707169 0.1778283
0002e0 40 4f a2 3e 4d f7 18 be b0 94 82 bd fd ec 50 be
       0.31701088 -0.14938088 -0.06376016 -0.20402904
0002f0 f6 e1 0b 3d 4a 61 e1 3d f8 09 9d bd bb 7a 98 be
       0.03415104 0.110048845 -0.07667917 -0.29781136
000300 76 51 2a 3e f0 6c 57 be 08 c3 f8 bd 4d d6 ad 3e
       0.16632637 -0.2103765 -0.12146574 0.3395256
000310 42 68 23 be 54 62 81 be 0d 6e 9a 3e 2f 3d 6a bd
       -0.1595774 -0.2527033 0.30162087 -0.057187255
000320 2d 85 57 bd a0 38 60 3e 6d f2 7f bf b1 89 fd bd
       -0.05261724 0.218966 -0.9997929 -0.12379778
000330 66 45 8e 3c d1 d0 8e be 61 80 27 3e 68 5d 29 be
       0.017367076 -0.2789369 0.16357566 -0.16539538
000340 27 32 7b 3d be 2c 07 3e 8e b8 da bc f2 8e 9b 3e
       0.061327126 0.13200662 -0.02669933 0.30382496
000350 6d d5 63 be 05 92 55 be 9c 6f 3e be 59 8e 7a bf
       -0.22249384 -0.20856483 -0.18597263 -0.97873455
000360 c3 e0 1d be 3c 7d 21 3d 61 8e 65 3e cd 4c 62 3e
       -0.15417771 0.039426073 0.22417594 0.2209961
000370 1b 37 52 be 9e 2d 15 3e 6d 82 6a bc d5 51 84 be
       -0.20528834 0.14568183 -0.0143133225 -0.25843683
000380 f7 db f8 3c 5b 26 82 3e f3 14 02 be 26 99 25 be
       0.030378325 0.25419888 -0.12703304 -0.16171703
000390 36 bd a5 3d 4e e5 fa bc c3 d8 c6 be 38 53 89 bd
       0.0809273 -0.03062692 -0.3883725 -0.06705326
0003a0 03 50 ec 3e 83 55 65 3d 72 fe 26 3e b4 43 f1 3c
       0.46154794 0.055989753 0.16308 0.029451229
0003b0 f4 e0 37 be 03 32 2b bd c1 79 62 3e 65 00 a4 bd
       -0.17956907 -0.04179574 0.22116758 -0.08007888
0003c0 9c 63 1b be 9c 47 97 3e f0 39 b3 bb 3e 3d 52 3d
       -0.15174717 0.2954682 -0.005469553 0.051327936
0003d0 14 62 4d be 57 95 4f 3e cf ee 09 3e b0 49 8e 3e
       -0.20056945 0.20271812 0.13470004 0.27790594
0003e0 94 89 22 bd bd cc 38 be 0e ad 3f 3d 7b b3 09 3e
       -0.039681986 -0.18046851 0.046795897 0.13447373
0003f0 f0 2a 19 be f0 61 46 bf 94 fc 27 bd 43 be ba bc
       -0.14957786 -0.7749319 -0.04101236 -0.022795802

fc3.bias f4 [64]
000000 20 47 ad bd 82 20 34 3b 57 aa 7b bd 11 14 03 be
       -0.08460832 0.0027485196 -0.061441746 -0.12800623
000010 a0 8d e5 3c 95 68 08 be 90 0e 38 bd ff 1b 0d 3d
       0.028021634 -0.13321145 -0.044935763 0.034450527
000020 92 0b b9 3d 0f 77 ec bb 28 14 3b bb d8 27 f9 bd
       0.0903541 -0.0072163413 -0.002854595 -0.12165803
000030 e3 c2 09 bd d8 99 92 be cb b0 01 3e 46 84 0e be
       -0.033633124 -0.28632998 0.12665097 -0.13917646
000040 e8 47 42 be 70 66 ba bd e2 92 d8 bd 3b 8e 53 be
       -0.18972743 -0.0910157 -0.10574891 -0.20659725
000050 75 81 06 3e 6d 69 d4 3d 6e 41 59 3e 20 a6 fb bc
       0.13135321 0.10371671 0.21216366 -0.030718863
000060 37 c0 e8 3d 00 34 ea 3c 2c 74 25 be 3f 8d d2 be
       0.11364787 0.028589249 -0.16157597 -0.41123387
000070 da 30 98 bc 63 ce b3 be 63 d1 42 be e1 c8 fa bd
       -0.018577982 -0.35118398 -0.19025187 -0.12245346
000080 9d e6 b7 bd 66 98 b1 bd ba 5e 1b be 6f 80 2e bd
       -0.08979533 -0.08671646 -0.15172854 -0.042602953
000090 2e 03 1a be 84 c5 44 be ae c6 8d bd 51 7c 92 bd
       -0.15040275 -0.19215971 -0.06922661 -0.07152618
0000a0 1e 94 82 3b 87 f5 b5 bd f0 da 0b 3b 40 36 5e be
       0.003984942 -0.08884721 0.0021340214 -0.21700382
0000b0 6b c5 2b bd 31 88 28 be ab 7e 47 be b0 4e 94 be
       -0.04193632 -0.16458203 -0.19481914 -0.28966284
0000c0 c9 da 6e 3e 77 1f 0a be 6d 84 24 be 3e e7 b0 bd
       0.23325647 -0.13488565 -0.16066141 -0.08637856
0000d0 78 ab 39 bd 89 cc dc 3c ee 7f 56 be 0c e5 8e 3c
       -0.04532954 0.026952999 -0.20947239 0.017443202
0000e0 df 7d 8a bc d5 92 ca bc c9 4f 33 be 8b ff a9 bd
       -0.016905723 -0.024728218 -0.17510904 -0.08300694
0000f0 c4 fe 13 bc cd 50 fe bd 02 d0 ce 3b 9c cc c7 bd
       -0.009032909 -0.12417755 0.0063114176 -0.09755823

fc4.weight f4 [32, 64]
000000 64 c1 ed 3d 7f a8 eb bb 20 c6 46 3e 99 15 8a bd
       0.11609152 -0.007191717 0.19411516 -0.06742401
000010 f3 45 97 bd 97 22 c0 3e 0a 14 78 3e 6a 01 ee be
       -0.07386389 0.3752639 0.24226394 -0.46485454
000020 76 e8 0b be a0 bc b0 bd 80 85 83 3e 25 20 df 3c
       -0.13662896 -0.08629727 0.2568779 0.027237007
000030 e7 b0 3d bd 53 7e 85 3d 4d 54 9a 3e ee 7b 22 bd
       -0.046311285 0.06518235 0.3014244 -0.03966897
000040 22 ea 74 bd 77 b3 ca bd ba 05 e0 bc e7 ca 22 3f
       -0.0597936 -0.098975115 -0.02734648 0.63590854
000050 e8 4f 9e 3e a9 bd 35 bf 50 0e 9b be 28 cb 6a 3e
       0.3092034 -0.70992523 -0.30284357 0.2292906
000060 21 31 ac 3a 01 b4 96 3e 2c 44 7d be a0 17 ed be
       0.00131372 0.29434207 -0.24733037 -0.46307087
000070 6d b9 12 3f 9a ab b2 be 9c fc 3c bf 27 9d 90 bb
       0.5731419 -0.34896547 -0.7382295 -0.0044132653
000080 df 9c 0a bd 62 5a 75 3e fa d4 a5 bc 9b c0 56 3e
       -0.03384101 0.2396026 -0.020243157 0.2097191
000090 07 ae 7b 3e 90 14 bf be 8c fe 06 3e 8e ca de bd
       0.24578105 -0.37320375 0.1318304 -0.10878478
0000a0 f4 2a 94 bd 31 aa 63 be 8b 80 73 be 24 f7 a8 ba
       -0.07234755 -0.22232892 -0.23779504 -0.0012891036
0000b0 fa 33 cb 3c 4d 86 0c 3e ce 87 a9 be ad 7d ad 3d
       0.024805058 0.13723107 -0.33111423 0.084712364
0000c0 4d c1 4a be 5c 52 60 bd db a8 3b bd 6d ba d6 3e
       -0.19800301 -0.054766044 -0.04581533 0.41939107
0000d0 2a d6 66 be ef 4e 23 3e bb 12 3e 3d 14 d0 18 3e
       -0.22542635 0.1594808 0.04640458 0.14923126
0000e0 e5 42 91 be f8 71 87 be 13 0d 44 3e 3e 1a 89 bd
       -0.2837135 -0.2645414 0.19145612 -0.066944584
0000f0 19 73 18 be 3d 5e 31 bd b6 67 35 be 37 e4 ec bd
       -0.14887656 -0.043302763 -0.17715344 -0.11566966
000100 80 6f 36 3e 96 5a 81 be 87 68 4c 3e f5 3d 9a 3e
       0.17815971 -0.25264424 0.19961749 0.30125394
000110 e2 a1 3f be a3 2a c0 be 81 73 d3 3c 32 15 3e 3e
       -0.18714097 -0.3753253 0.025811912 0.18562773
000120 3c a3 df 3e 5e 26 07 3e 57 d6 48 be 26 35 4a bf
       0.43679225 0.1319823 -0.19613014 -0.7898735
000130 36 02 24 3f 92 3b d6 3e e5 a4 b1 bc c5 e6 5f 3d
       0.64065874 0.41842324 -0.021685073 0.05466344
000140 7b b9 fc be f4 d2 4b be 6e 72 9a 3d b2 c8 10 be
       -0.4936026 -0.19904691 0.07541357 -0.14139059
000150 57 93 6f 3e 89 7f 0e bf b9 90 95 3e 86 02 98 be
       0.2339605 -0.55663353 0.29211977 -0.29689425
000160 e9 7a 4d 3d f4 54 49 bf ec 6c 13 be e9 27 f7 be
       0.050166044 -0.78645253 -0.14397019 -0.48272637
000170 5b 59 81 3c d9 85 7a 3d 4b b6 02 bf 47 c9 87 3e
       0.015789678 0.061162803 -0.51059407 0.2652075
000180 1e eb ff 3d 33 cf bf be ec 31 04 3c 44 3b 4c bd
       0.12496017 -0.37462768 0.008068543 -0.049861208
000190 4d 63 23 be 12 ab a1 3e 2d b7 1a 3d 67 91 81 3e
       -0.15955849 0.3157583 0.037772346 0.25306246
0001a0 4b 35 e1 bd db 96 a0 3e 6e 14 84 3e 32 ef fc be
       -0.10996493 0.31365094 0.25796837 -0.49401242
0001b0 d0 bb 6b 3e 43 1a b5 be 16 3b 1a 3e 51 2b 58 be
       0.23020864 -0.353716 0.15061602 -0.21110274
0001c0 7f 73 3f 3e cc 86 86 3e 69 e6 ec 3d b8 72 96 3d
       0.18696402 0.26274717 0.11567385 0.073460996
0001d0 1b fa 0e 3e f0 f1 9e 3e 14 97 a4 bf 74 b5 41 be
       0.13962595 0.3104396 -1.2858605 -0.18916875
0001e0 0d 3a ed 3e aa 47 20 bc 73 f6 4f be 2b 93 56 3e
       0.46333352 -0.009782711 -0.20308857 0.20954578
0001f0 62 b4 33 bd dc f0 6c be d0 1d ce 3e b1 1e 1b be
       -0.0438732 -0.23138756 0.4025712 -0.15148427
000200 cd dc 59 be 0a 32 19 be d1 ee db bd 29 50 2c 3e
       -0.21275635 -0.14960495 -0.1073891 0.16827454
000210 66 49 10 bb a6 f1 09 bf 00 82 ab be 67 e6 e9 bd
       -0.0022016405 -0.5388435 -0.3349762 -0.11420899
000220 09 b0 3b be c6 7c f5 3d 99 66 37 3e 46 ba 65 be
       -0.18328871 0.11986689 0.17910232 -0.22434339
000230 fb 38 b3 3e a1 8b e0 be dc a9 28 be 00 e6 f8 bd
       0.3500441 -0.43856528 -0.16471046 -0.12153244
000240 38 69 25 be 36 6b 02 be 75 62 ea 3a 21 54 d0 be
       -0.16153419 -0.1273621 0.0017882126 -0.40689185
000250 35 89 c7 be 95 37 7e be 07 13 09 be 8e 22 b2 bd
       -0.38971868 -0.2482589 -0.13386165 -0.08697997
000260 6f 07 0f 3e af d7 8e be 82 bb b8 bd c3 71 33 bf
       0.1396768 -0.2789893 -0.09020139 -0.7009546
000270 c8 b7 c3 bd 8d 8f 31 be 58 ab 36 3e 90 64 9b 3d
       -0.09556538 -0.17339917 0.178388 0.0758754
000280 d5 1e 0e 3f ec 89 03 3e ee bb f1 bd a8 f9 be 3e
       0.55515796 0.12845582 -0.11803423 0.37299848
000290 12 0c 31 be 6f f5 32 3e 0d 85 e7 3d 44 02 14 3e
       -0.1728976 0.17476438 0.11304674 0.1445399
0002a0 86 cd 8a be 0e be ec 3e a2 eb cc be 85 09 02 be
       -0.27109927 0.4623875 -0.40023524 -0.12698944
0002b0 ca 6a 7b be d9 8c b9 bd 26 66 1c 3e 30 e9 7d bd
       -0.24552456 -0.09060068 0.15273342 -0.061989963
0002c0 50 08 53 3d 92 d0 18 3a 98 da 52 3b a9 0c f9 3d
       0.0515216 0.0005829419 0.003217375 0.12160618
0002d0 83 27 7b be 3f 63 8d bd 05 77 98 3e fb d7 af 3d
       -0.24526791 -0.06903695 0.29778305 0.08586117
0002e0 97 a8 62 3e 53 3e 87 3e 8f a4 55 bb fa c7 d1 bc
       0.22134624 0.26414737 -0.0032599305 -0.025608052
0002f0 a1 7e fe bc c5 7c 53 be a8 ca 31 bd 6e 4a 93 3d
       -0.03106624 -0.20653065 -0.04340616 0.07191931
000300 69 97 9f 3e 8f 2d 5c be 56 66 1a 3c c7 3e 12 3e
       0.31170204 -0.21501754 0.009423813 0.1428176
000310 36 a0 6c be f3 9e 04 be 2d 23 9f 3d 6e 76 1d 3c
       -0.2310799 -0.1295126 0.07770381 0.009610755
000320 8f c9 36 3f 2f 9a 9e bd 51 4b 41 be dc 83 7c be
       0.71401304 -0.07744252 -0.18876387 -0.24659675
000330 6e 2f 38 3e 92 ec 1f 3d 6d ef 2c 3f 6f 61 12 be
       0.17986843 0.03904397 0.67552835 -0.1429498
000340 50 c3 a1 be 68 49 50 3d 08 12 a6 bc b3 83 cb 3e
       -0.31594324 0.050851256 -0.02027227 0.39748916
000350 f8 00 23 be d3 52 33 3f a6 97 45 be 86 c4 f7 3d
       -0.15918338 0.70048255 -0.1929613 0.12098031
000360 6e da 52 c0 24 f1 41 3c 51 3b b3 3d da 41 d1 be
       -3.294582 0.011837278 0.08751548 -0.40870553
000370 ab ed 2a be f7 d5 9c be 77 7e 42 3e 0b 11 ac bd
       -0.16692226 -0.30631992 0.18993555 -0.08401688
000380 5f aa 6e be 43 18 a7 3e 56 21 2f 3e 7f 3a db bd
       -0.23307179 0.32635698 0.1710256 -0.107045166
000390 07 d4 3a bd 08 ff 0b 3e fb 3c c9 3d 61 bb f7 be
       -0.04561236 0.13671505 0.09826084 -0.48385146
0003a0 a8 46 d9 bd e9 6c ca 3d 25 9f 53 be 2a 2c 2c 3e
       -0.1060918 0.09884054 -0.20666178 0.16813722
0003b0 d0 a1 35 be 2c 51 84 3c 65 47 12 3d 2a 73 b5 be
       -0.17737508 0.016151987 0.03571262 -0.35439426
0003c0 0a 95 5b be d6 18 61 be 78 3c 56 be ca d8 50 be
       -0.21443573 -0.2198213 -0.20921504 -0.20395198
0003d0 90 e7 ae 3e 4f 3a 0e 3e a1 12 66 3d a8 b1 eb be
       0.34161043 0.1388943 0.05617011 -0.46033978
0003e0 25 0d c4 3e 82 4f 65 3e b7 8f 10 be 42 96 92 3e
       0.38291278 0.22393611 -0.14117323 0.28630263
0003f0 ff da 09 3e f1 0e 8b 3e 53 42 6c be c0 d2 31 bc
       0.13462447 0.27159837 -0.23072176 -0.010853469

fc4.bias f4 [32]
000000 b1 96 33 be 9a 85 84 3e 2a 2b 3c be fe cb f0 bd
       -0.17537953 0.2588318 -0.18375841 -0.117576584
000010 d2 46 0f 3e 1c 7c 0f bd cf 5b 0d be bc bb c7 bd
       0.1399186 -0.03503047 -0.13804553 -0.09752604
000020 01 91 4b bd fc 5b 28 be 1c a5 4c be 62 b3 b2 bd
       -0.049698833 -0.16441339 -0.19984859 -0.08725621
000030 4f 8d e9 be 70 d5 53 be 04 66 c3 bd a8 7a 1c be
       -0.45615622 -0.20686889 -0.09540942 -0.15281165
000040 a6 f8 04 3e 4d 22 16 be 84 6f 2d 3d 30 f2 1e be
       0.12985477 -0.14661522 0.042342678 -0.15522075
000050 f0 48 1b be 5a 75 b9 3d 16 4f e0 bc e0 d9 80 bd
       -0.15164542 0.09055586 -0.027381461 -0.06291556
000060 24 7d 6d be 30 4c f1 3d cb d2 ae bc 20 d5 a0 be
       -0.23192269 0.1178211 -0.021340748 -0.314126
000070 4f 2c 33 bc 9a 1d dd 3d 5d 53 4e bd 3a ca 53 be
       -0.010935857 0.10796662 -0.05037247 -0.20682612

fc5.weight f4 [16, 32]
000000 87 2d 0d 3f 48 7b 9a be 1b 01 04 be 7a 37 1f be
       0.55147594 -0.3017218 -0.12891047 -0.15548506
000010 3c c1 3a bf c9 6a 9c 3d ae 1d 13 3f c4 f7 08 3f
       -0.729511 0.07637555 0.5746716 0.5350306
000020 2e 65 6b 3e e1 ea 84 3e ce e5 c6 bd 35 71 d7 3d
       0.22987816 0.25960448 -0.097118005 0.105196394
000030 48 7c ad bd c6 59 25 be f7 60 ed be 3b 60 34 3d
       -0.084709704 -0.16147527 -0.4636304 0.044037085
000040 73 f4 ef be c1 5a ba be f3 a8 d7 bd e2 6b 43 be
       -0.46866187 -0.36397365 -0.105302714 -0.19084123
000050 0e ee 02 bf 27 bb 64 3e 32 26 fc be cf 04 d3 3e
       -0.5114449 0.22337018 -0.4924789 0.41214606
000060 b1 d9 37 3d d9 2d d4 3d 85 8b 9c 3e e6 5e 3f 3e
       0.04488534 0.10360307 0.30575195 0.18688545
000070 7a 76 46 be 68 cf d4 bd 3d 3e b7 be 35 f4 a2 3e
       -0.19381133 -0.10391122 -0.35789672 0.3182694
000080 25 49 2a 3e b4 b1 4e 3e 35 50 fb 3e cb 3c 27 3d
       0.16629465 0.20184976 0.4908463 0.04082946
000090 b4 18 ec bd f9 bc 82 be ea 7b 05 be 84 da 35 be
       -0.11528149 -0.255348 -0.1303555 -0.17759138
0000a0 8e f1 48 be ef 37 c7 3e 79 a0 c5 bd 05 dc 15 3f
       -0.19623396 0.3890986 -0.09649748 0.5853885
0000b0 07 4e 93 3d 24 67 b9 3c 60 b6 84 bc cc 90 0b 3f
       0.07192617 0.02263219 -0.016200244 0.5451782
0000c0 38 f2 36 bd 6a 6c ac be e2 c3 03 3f ab 1a 63 bf
       -0.04466459 -0.33676463 0.5147077 -0.8871257
0000d0 00 54 e3 bc dd a7 a8 bf 5d 7e 3e 3f 8c f2 1b 3f
       -0.027750015 -1.3176228 0.74411565 0.6091697
0000e0 71 20 52 bd 0f a6 a6 be d8 33 22 3f c0 8f 89 3e
       -0.05130047 -0.32548568 0.6336036 0.26867485
0000f0 00 32 38 3f 39 83 58 3d ba 02 6c 3e 84 37 cf be
       0.71951294 0.05285952 0.23047915 -0.40472043
000100 a2 23 e0 bd 7d 76 e8 be f3 d3 5c be 4b 2d 9b 3d
       -0.109442964 -0.454029 -0.21565227 0.07576998
000110 b8 2f 2c be 86 56 c9 bd 94 1a 27 3f 92 4b eb 3e
       -0.16815078 -0.09830956 0.6527493 0.45956093
000120 22 d3 0e 3d c4 81 5f be ea c3 e5 be cb 2b 1d 3f
       0.03486932 -0.21826845 -0.44876033 0.6139495
000130 0e 13 9e bf e1 1b d5 be 8d 6c de bc f3 da 09 be
       -1.2349565 -0.41622832 -0.02715137 -0.13462429
000140 46 85 0b 3e 09 2b 8c be 29 12 cc be 52 d8 a6 bd
       0.13625059 -0.27376583 -0.39857605 -0.081467286
000150 03 72 76 3e ba 68 7a bf d0 60 8e be a2 9d 3e be
       0.2406693 -0.9781605 -0.27808237 -0.1861482
000160 5e 8f 59 bd 72 67 f2 3e 1b 02 b6 3e 25 9b 07 3a
       -0.05311524 0.47344548 0.3554848 0.00051729596
000170 2e 5c a0 3d 24 5b 84 3e 5c 93 26 bb f2 73 da be
       0.07830082 0.25850785 -0.0025417423 -0.42666584
000180 ae 36 1c 3e 99 80 94 bd e5 55 2e 3e 39 91 b8 3e
       0.15255234 -0.072510906 0.17024954 0.36048296
000190 4d 69 41 3c e4 f3 3f bf e1 84 33 be f7 a2 ce 3e
       0.011804891 -0.7498152 -0.17531158 0.40358707
0001a0 82 29 0a bf a3 5d 40 3e 1c e1 19 3f 6b e7 98 3e
       -0.53969586 0.1878572 0.60109115 0.29864058
0001b0 55 13 1c bc eb f7 db bc e5 44 32 be 4e d0 cf 3e
       -0.0095260935 -0.026851615 -0.17409094 0.4058861
0001c0 85 43 93 bf 53 17 bb 3d fd 9a 6e 3e fc 76 b8 3d
       -1.150498 0.09135308 0.23301311 0.090070695
0001d0 d1 05 e3 3d b7 bb a3 be 77 2d bd be e2 42 02 bf
       0.11085094 -0.31979153 -0.3694875 -0.50883305
0001e0 dd 0c 88 be 5a 5d da 3e af 84 0a bd d9 be 4d bf
       -0.26572314 0.42649347 -0.033817943 -0.80369335
0001f0 6e 6e 02 bf 92 f1 24 3e 8b d3 cb be d3 ec 03 3f
       -0.5094975 0.16107777 -0.39809832 0.5153324
000200 05 ff 03 be 8f db 70 3b 3b 45 2e bf 46 69 64 bf
       -0.12890251 0.003675196 -0.6807439 -0.89223135
000210 50 da 60 3e fa ad 80 ba fb af 85 3e 77 74 7c be
       0.2195828 -0.0009817474 0.26110825 -0.24653803
000220 ff 66 19 bc 55 6c 1b bd f6 8e ae 3e 0d 81 17 bd
       -0.009362935 -0.03794511 0.34093446 -0.036988307
000230 36 94 b5 bd c6 3c 12 c0 fa 76 19 be 45 0e 9b 3d
       -0.088661596 -2.2849593 -0.14986792 0.07571081
000240 3c 0c af 3e b8 f6 d5 bb 1e c0 28 3e 81 20 41 bd
       0.34189022 -0.0065296553 0.16479537 -0.04715014
000250 0d cc 96 3f da 66 1d bd 9c 76 ca 3d 10 2b be 3e
       1.1781021 -0.038428165 0.09885904 0.3714223
000260 21 9b 95 3d a6 bd 83 be bc df 1b 3f 18 f5 5a 3d
       0.07304979 -0.25730628 0.60888267 0.053456396
000270 92 82 ae 3e e5 59 c4 3d 98 b2 d3 3e fb 41 96 3d
       0.34083992 0.095874585 0.41347194 0.073368035
000280 c0 ba 3f 3e 42 0e a9 3d 45 80 10 3f 07 d8 3e be
       0.18723583 0.082546726 0.56445724 -0.18637095
000290 fb 77 9e bd f1 7a 56 bf 04 18 50 3e 0c 1a df be
       -0.07737728 -0.83781344 0.20321661 -0.4357456
0002a0 7a 74 65 be 5b cc ac 3d 30 c2 f8 be 31 c0 7c 3e
       -0.22407714 0.08437415 -0.48585653 0.2468269
0002b0 12 8a f0 be 0e 60 15 bf 5b f8 bf 3e ae 2e a1 3e
       -0.4698034 -0.5834969 0.37494168 0.31480926
0002c0 17 c6 0d 3e e1 f6 a6 3e 55 47 9b 3e 98 13 a6 be
       0.13845097 0.3261023 0.3032786 -0.32436824
0002d0 7a bc 9d 3d 00 75 17 be 50 23 9d 3e ac 6c 01 bf
       0.07701965 -0.14790726 0.30691004 -0.50556445
0002e0 1b 12 32 bf 6e 5d 16 be 6c 0a e6 bd 5b c8 ae 3d
       -0.69558877 -0.14684078 -0.112324566 0.085343085
0002f0 85 78 fc be a6 7b 86 3c b2 11 e1 3d 3f 3e d0 3d
       -0.493107 0.016416382 0.10989703 0.101681225
000300 f1 31 17 3e 67 2d fa be 93 93 c0 3d f0 ca 08 3f
       0.14765145 -0.48862764 0.094031475 0.5343466
000310 2e f5 bc bc ed 63 71 3d 23 ee 25 3e c8 38 cf 3e
       -0.02306613 0.058933187 0.16204123 0.40473008
000320 44 1b 09 be 3a 41 8b be 7e e1 3a 3d 9a 1c ac 3e
       -0.13389307 -0.271982 0.045625202 0.3361557
000330 e4 7d fc bd 30 0b a2 be 87 ca 25 3e a2 cc 7f 3d
       -0.12328699 -0.3164916 0.1619054 0.062451012
000340 86 56 f3 be 5a ae 14 be 70 a6 0d bf 37 87 f8 be
       -0.4752695 -0.14519635 -0.5533209 -0.4854066
000350 6d 54 93 3c f0 2d 77 be 41 fc ef 3e c5 49 db 3e
       0.017984593 -0.24138618 0.46872142 0.4282972
000360 da 6d ef be 44 8d 2f 3e 10 92 30 be de ba fc be
       -0.46763498 0.17143732 -0.17243218 -0.49361318
000370 01 fd 99 be 6a 19 f9 3e f4 31 fe 3e c9 21 c5 bd
       -0.3007584 0.48652202 0.49647486 -0.09625585
000380 e2 56 e0 bd 54 2e 85 be 8b 66 be 3c d0 86 73 be
       -0.109540716 -0.26011908 0.023242256 -0.23781896
000390 12 f6 1e bf d6 24 9c be 39 78 43 3e 58 ce 12 bf
       -0.62094223 -0.30496854 0.1908883 -0.57346106
0003a0 80 3e 25 be 34 a4 71 3e c4 b2 18 be 4d 28 0e 3f
       -0.16137123 0.23597795 -0.14911944 0.55530244
0003b0 59 b2 71 bf e1 c9 8d 3e f5 4a 04 3e 75 b7 cf 3e
       -0.9441276 0.27693084 0.12919219 0.40569654
0003c0 a4 36 1f be e9 5b 86 3e 5f 5b db bd bc 2e 85 3d
       -0.15548187 0.26241997 -0.10710787 0.065030545
0003d0 36 57 d9 be 66 df 25 3c 8c 35 14 3d 37 d8 34 3e
       -0.4244935 0.010124063 0.03618388 0.17660604
0003e0 93 9e 88 be d5 06 f5 bd bd bf 16 3e e8 aa a9 bd
       -0.26683483 -0.11964194 0.1472158 -0.08284551
0003f0 09 3d 7d 3e 87 1e 5b 3d 29 f0 81 3e 86 cc c6 3e
       0.24730314 0.05349591 0.2537854 0.38827914

fc5.bias f4 [16]
000000 6e 56 d0 3c 29 ff b0 be ea e5 13 3e fe f5 f1 be
       0.025431838 -0.34569672 0.14443174 -0.4725799
000010 72 f4 8a 3e 3f 30 c3 be fa 17 d8 3c 44 4d 1b be
       0.27139622 -0.38122746 0.02637862 -0.15166193
000020 20 b5 5d be be ae 87 bd b1 85 ea bd e6 95 d1 bd
       -0.21651125 -0.06625126 -0.11451281 -0.10233669
000030 c6 a7 c8 bd 39 07 35 be 01 2b 88 3e aa bc 2f 3e
       -0.09797625 -0.17678536 0.2659531 0.17161813
