3设备模型/model_weight/plate_model_weights.pth (torch, 185531 bytes, 14 tensors)

fc1.weight f4 [256, 5]
0	0xbb38f474	-0.0028221877
1	0x3cbf20e2	0.02333111
2	0x3ecb2e2f	0.39683673
3	0xbdf6e968	-0.120562375
4	0x3ea24a37	0.31697246
5	0xbe924e3b	-0.2857531
6	0xbc602a94	-0.013682026
7	0xbdeb61d5	-0.11493269
8	0x3e0bc27c	0.13648409
9	0xbe14af18	-0.14519918
10	0x3d82ab07	0.06380277
11	0xbcce397f	-0.0251739
12	0xbede7070	-0.43445158
13	0xbe1ea91f	-0.15494202
14	0x3d71f4f4	0.059071496
15	0x3de41b16	0.11137979
16	0x3c84a5a4	0.016192265
17	0xbe076dca	-0.13225475
18	0xbc999800	-0.018749237
19	0x3c504400	0.012711525
20	0x3ea8db94	0.32980025
21	0xbea4bcdd	-0.3217534
22	0x3dc39889	0.09550578
23	0xbdf28b8a	-0.11843021
24	0xbdd7b912	-0.10533346
25	0xbcae185f	-0.021251855
26	0x3bca2d6c	0.0061699655
27	0xbd843515	-0.06455437
28	0xbd8d2d0e	-0.06893359
29	0xbd892d71	-0.066981204
30	0x3d38ef20	0.045149922
31	0x3e80ee57	0.2518184
32	0x3ddd5a43	0.10808232
33	0xbe850e50	-0.25987482
34	0xbe6fcac7	-0.23417197
35	0x3e3699de	0.17832133
36	0x3bed24f7	0.0072370726
37	0x3d564e8d	0.052321006
38	0x3de49d95	0.11162869
39	0x3e0be42c	0.1366126
40	0xbeb7ad3a	-0.3587435
41	0x3d3bd897	0.045860853
42	0x3e9cdef6	0.30638856
43	0x3e640977	0.22269236
44	0xbea18eaf	-0.3155417
45	0xbe82a915	-0.25519624
46	0xbbf8a2b8	-0.007587757
47	0xbdb02b37	-0.086019926
48	0xbdb3c1bc	-0.08777186
49	0xbdba1b48	-0.09087235
50	0xbe524d97	-0.2053741
51	0xbe4ea60a	-0.20180526
52	0x3defb3a6	0.11704187
53	0xbd176902	-0.036965378
54	0x3c2301b6	0.009949138
55	0xbe099bfc	-0.1343841
56	0x3d1e2874	0.038612798
57	0xbd12317e	-0.03569173
58	0xbe2032f1	-0.15644433
59	0xbd5594e9	-0.052143965
60	0xbdedadec	-0.116054386
61	0xbdeaf079	-0.11471648
62	0x3e0e33a7	0.13886891
63	0xbdb9a319	-0.090643115
64	0xbdb4093d	-0.087908246
65	0xbdcf2509	-0.10114486
66	0xbdd8df2c	-0.10589442
67	0xbe3434f9	-0.17598332
68	0x3dc8a1c7	0.097964816
69	0x3e411cc2	0.18858626
70	0xbd5b8a95	-0.05359896
71	0xbc286352	-0.010277586
72	0xbde7f2bf	-0.11325597
73	0xbe3273eb	-0.17427032
74	0x3ca4ce6e	0.020117965
75	0xbc6f6f1c	-0.014613893
76	0xbe1717e5	-0.14755209
77	0xbcb2d3ec	-0.021829568
78	0xbbb90344	-0.0056461412
79	0x3cd3dfb4	0.025863506
80	0x3dd1e3bd	0.10248516
81	0xbdbc6b4c	-0.09200153
82	0x3e4e0f73	0.20123081
83	0xbe8d00e5	-0.27539745
84	0x3e1b7b97	0.15183865
85	0x3dbb7d53	0.09154763
86	0xbde50b4e	-0.11183797
87	0xbd440d06	-0.047863983
88	0xbe8d548a	-0.2760356
89	0xbe05950c	-0.13045138
90	0xbe024db8	-0.1272496
91	0x3d430fe3	0.047622573
92	0x3aeb4ccd	0.0017951966
93	0xbe2fad24	-0.17155892
94	0xbe105d67	-0.1409813
95	0x3b363fec	0.0027809097
96	0xbcf8a820	-0.030353606
97	0xbd85b379	-0.06528372
98	0x3d61ed51	0.055157963
99	0xbd4ec632	-0.050481983
100	0xbe776528	-0.24159682
101	0xbdee43b2	-0.116340056
102	0x3cf40c14	0.029790916
103	0xbd8e498a	-0.0694762
104	0xbd7278b7	-0.059197154
105	0xbd7cfe18	-0.06176576
106	0xbd94034f	-0.072271936
107	0xbd7fa1d1	-0.06241018
108	0x3e03789b	0.12838976
109	0xbd4574a6	-0.048206948
110	0xbbc875c7	-0.006117556
111	0xbdd4714b	-0.103731714
112	0xbd344081	-0.04400683
113	0x3d70b4ce	0.05876618
114	0x3d783aee	0.060603075
115	0x3d75ab3a	0.059977747
116	0x3d815591	0.063151486
117	0x3dc59043	0.09646656
118	0x3d1c3776	0.03813883
119	0xbda7f58d	-0.08201132
120	0x3e0aab83	0.13541989
121	0x3ce44b53	0.027867949
122	0xbe12e1c9	-0.14343943
123	0x3c212216	0.009834787
124	0x3d2e58c2	0.042565115
125	0x3e1cf0c6	0.15326223
126	0xbe309cd4	-0.17247325
127	0x3cbb2354	0.022843994
128	0x3ebfceef	0.37462565
129	0x3d458d70	0.04823059
130	0x3de5cdb6	0.11220877
131	0xbd4174fb	-0.047230702
132	0xbe6f86f9	-0.23391332
133	0xbe6801e4	-0.22656971
134	0xbce11392	-0.027475152
135	0xbd89788a	-0.06712444
136	0x3d941a91	0.0723163
137	0x3b028959	0.0019918291
138	0xbce58d99	-0.02802162
139	0xbde669c2	-0.112506405
140	0xbde2be51	-0.11071456
141	0x3df55705	0.11979488
142	0xbda4fa85	-0.08055595
143	0x3d948253	0.0725142
144	0x3cd8f9cd	0.026486302
145	0xbccca5ac	-0.024981342
146	0x3d22771d	0.039664377
147	0xbda7a4e5	-0.08185748
148	0xbd2d5283	-0.042315017
149	0x3e5d4d76	0.2161158
150	0x3e0de2ea	0.13856092
151	0xbe14b144	-0.14520746
152	0x3da7a52b	0.081858
153	0x3ac58c4c	0.0015071719
154	0xbdf5c8c0	-0.12001181
155	0xbde77701	-0.11301995
156	0x3e1382a1	0.144053
157	0x3d2aceee	0.04170125
158	0xbe1e7fcc	-0.15478438
159	0x3d45e08c	0.048309848
160	0x3d1aabca	0.037761487
161	0xbec18e89	-0.37804058
162	0x3e2d96d9	0.16952075
163	0xbdfaae34	-0.12240258
164	0xbd2f29a5	-0.042764325
165	0xbe384734	-0.17995912
166	0xbd9f2529	-0.077707596
167	0x39d5ab3c	0.00040754105
168	0xbd6af6f2	-0.05736441
169	0xbd747c43	-0.059688818
170	0x3c62ad5a	0.013835276
171	0x3dd64110	0.104616284
172	0x3c1269e5	0.00893638
173	0x3d41b9d0	0.047296345
174	0xbe81a8e2	-0.2532416
175	0xbd2dd157	-0.04243597
176	0x3e205207	0.15656291
177	0xbca11ebd	-0.019667977
178	0x3d69f3ce	0.057117276
179	0xbd7b3cea	-0.06133739
180	0xba08a81a	-0.00052130374
181	0x3cfb0711	0.030643018
182	0x3ea55477	0.32291004
183	0x3df12d0e	0.117761716
184	0xbca81ce0	-0.020521581
185	0x3c432c5d	0.0119124325
186	0xbc2be2aa	-0.010491053
187	0xbd031cb0	-0.03200978
188	0xbb63fadc	-0.0034786975
189	0x3d79d057	0.060989704
190	0x3def7b82	0.11693479
191	0x3db26444	0.087105304
192	0xbea7c9f7	-0.32771274
193	0x3d06be19	0.032896135
194	0xbdf0234e	-0.11725484
195	0x3d9b484b	0.07582148
196	0x3e123124	0.14276558
197	0x3ee2814e	0.44239277
198	0xbe928153	-0.28614292
199	0xbda55d73	-0.08074465
200	0xbdd566ff	-0.104200356
201	0xbd23801d	-0.0399171
202	0xbe63319b	-0.22186892
203	0xbdf99881	-0.12187291
204	0x3d798124	0.060914174
205	0xbd886e89	-0.06661708
206	0xbd6c96de	-0.057761066
207	0xbe717ec9	-0.23583521
208	0x3d0421c6	0.03225877
209	0xbeb40356	-0.35158795
210	0x3bc92295	0.0061381557
211	0xbe10b96d	-0.14133234
212	0xbd899227	-0.067173295
213	0xbe409137	-0.18805395
214	0x3b721c70	0.003694322
215	0xbde7d47a	-0.113198236
216	0x3d2f11bc	0.042741522
217	0xbdf70f66	-0.12063484
218	0x3c7afa2b	0.015318434
219	0x3d5055ed	0.050863195
220	0x3d43e77d	0.047828186
221	0x3e1f7f64	0.1557594
222	0xbcae1ff6	-0.021255475
223	0x3b9ec988	0.0048458017
224	0xbde03c75	-0.10949031
225	0x3c2df83c	0.010618266
226	0xbe36067d	-0.17775913
227	0xbd3e00b8	-0.046387404
228	0x3e354fbf	0.17706202
229	0x3e21e22a	0.15808931
230	0xbe497c24	-0.19676262
231	0xbe18f1b4	-0.14935952
232	0x3a6b3927	0.0008973055
233	0xbddc5b11	-0.10759557
234	0x3cd7e521	0.026354374
235	0x3ca96bb2	0.020681236
236	0xbe4ec658	-0.2019285
237	0xbd0d6d02	-0.034527786
238	0xbd96d18c	-0.07364187
239	0x3b1249f4	0.0022321912
240	0xbd008c30	-0.031383693
241	0xbe2e2ec4	-0.17010027
242	0xbe9eb1fa	-0.3099516
243	0xbd2723c9	-0.04080561
244	0xbe2f8be4	-0.17143208
245	0x3c373326	0.011181628
246	0x3e8a1b7d	0.26974097
247	0x3ddcd4dd	0.10782788
248	0xbe4364b8	-0.1908139
249	0xbe93b4e2	-0.2884894
250	0xbeb59b58	-0.3547008
251	0xbdef8b10	-0.11696446
252	0xbd989a6b	-0.07451328
253	0x3df5e4b8	0.12006515
254	0xbe436643	-0.19081978
255	0x3e011ad9	0.12607898

fc1.bias f4 [256]
0	0xbe97fc81	-0.29684833
1	0x3e548c62	0.20756677
2	0x3e196ad8	0.14982164
3	0xbe6f165d	-0.23348375
4	0xbda11221	-0.07864786
5	0x3cd6f45d	0.026239568
6	0xbba6bff9	-0.005088803
7	0xbecd1861	-0.40057662
8	0xbe890d39	-0.267679
9	0x3e294633	0.16530685
10	0x3e1af973	0.1513422
11	0x3e549da6	0.20763263
12	0x3e10becb	0.14135282
13	0xbe9f58d4	-0.31122458
14	0x3da9a20f	0.08282863
15	0xbed721c8	-0.4201796
16	0x3d146180	0.036225796
17	0x3db957d7	0.09049957
18	0x3e8350fc	0.25647724
19	0xbd60f210	-0.05491835
20	0x3d8c2235	0.06842462
21	0xbcde2c41	-0.027120711
22	0xbeca81ca	-0.39552146
23	0x3e8067e3	0.2507926
24	0xbec18fe2	-0.37805086
25	0xbe8b0c99	-0.2715805
26	0x3e5f3dd1	0.21800925
27	0xbe46bed8	-0.19408739
28	0xbe3b3584	-0.18282133
29	0xbebf523f	-0.37367436
30	0x3d080a36	0.033212863
31	0x3dab04ce	0.08350526
32	0x3e055a61	0.13022758
33	0x3e4627fb	0.19351189
34	0xbe71fd54	-0.23631793
35	0xbe8534a5	-0.26016727
36	0xbeae20be	-0.34009355
37	0xbee305d1	-0.44340375
38	0x3e38d228	0.18048918
39	0xbdd606f3	-0.10450544
40	0x3e5cf310	0.21577096
41	0x3e382e90	0.17986512
42	0x3e910a83	0.28328332
43	0xbeabfc2a	-0.33590823
44	0xbecf8d1b	-0.40537342
45	0xbcc6e3a4	-0.02427847
46	0x3e84777c	0.2587241
47	0xbe6cca35	-0.23124011
48	0x3dbe738b	0.09299382
49	0xbc5e5648	-0.013570376
50	0x3e4974af	0.19673418
51	0xbe0cc13c	-0.13745588
52	0x3ec997f9	0.39373758
53	0xbe805da4	-0.25071442
54	0x3e86fb91	0.26363805
55	0xbbbff270	-0.005857758
56	0xbede1e84	-0.43382657
57	0x3d6dd6dd	0.058066238
58	0xbead368a	-0.33830673
59	0x3db6a95a	0.0891902
60	0x3e767920	0.24069643
61	0xbed4c456	-0.41556042
62	0xbeccfbaa	-0.40035754
63	0xbea512b7	-0.3224084
64	0xbe1c2bd1	-0.1525109
65	0x3e393e23	0.1809011
66	0xbe71f120	-0.23627138
67	0x3d7162e7	0.05893221
68	0xbdf979d8	-0.12181443
69	0x3e426bb1	0.18986394
70	0x3e91dd71	0.2848926
71	0x3eb48ade	0.35262197
72	0x3c8ddf3e	0.017318364
73	0xbdc2bbb0	-0.09508455
74	0x3e2bcadd	0.16776605
75	0x3e15e029	0.14636292
76	0x3eb1c9ef	0.34724376
77	0xbaf18e26	-0.0018429204
78	0x3d6e997b	0.05825184
79	0x3e2fc830	0.17166209
80	0xbe208c14	-0.15678436
81	0xbebe0be8	-0.3711846
82	0xbe9a6386	-0.30154055
83	0x3e0370ab	0.12835948
84	0x3ccd62d9	0.025071548
85	0xbdf32175	-0.11871616
86	0xbe80e833	-0.25177154
87	0x3ea23c53	0.3168665
88	0xbe9d294c	-0.3069557
89	0xbea258a1	-0.31708243
90	0xbe2d1f54	-0.16906482
91	0x3e5a7d01	0.21336748
92	0xbe3abc7e	-0.18235967
93	0x3e3e8b5f	0.18607853
94	0xbe4689f2	-0.1938856
95	0xbd571878	-0.05251357
96	0xbe92a718	-0.28643107
97	0x3e003e79	0.12523831
98	0x3d8f6d54	0.070032746
99	0xbd83f550	-0.06443274
100	0xbecfaa74	-0.40559733
101	0xbeb0c670	-0.34526396
102	0xbed92c64	-0.4241668
103	0xbd272966	-0.040810965
104	0x3d0eb028	0.034835964
105	0x3dde475e	0.10853456
106	0x3de333d6	0.11093871
107	0x3de2d7a6	0.11076288
108	0xbe02a2b4	-0.12757379
109	0xbec09b67	-0.37618563
110	0xbed6045e	-0.41800207
111	0xbd445890	-0.047936022
112	0x3e2f4664	0.17116696
113	0xbebd864f	-0.37016532
114	0xbeb7c1f2	-0.35890156
115	0x3e69dda2	0.22838452
116	0xbdc062bd	-0.09393833
117	0x3d832cbc	0.06405017
118	0xbe8686b6	-0.2627465
119	0xbd958c48	-0.07302147
120	0xbdda1191	-0.10647882
121	0x3e5b0616	0.2138904
122	0x3d02e8b3	0.0319602
123	0xbced1bc7	-0.02894391
124	0x3daef62c	0.08543047
125	0x3e4dcf5f	0.20098637
126	0xbe93d661	-0.28874496
127	0xbdb21110	-0.08694661
128	0xbe5e1de9	-0.21691097
129	0x3d348500	0.04407215
130	0xbe81a4f5	-0.25321165
131	0x3e4f9d69	0.20274891
132	0x3e242186	0.16028413
133	0xbe44f0e9	-0.19232525
134	0xbc724a40	-0.01478821
135	0x3e571505	0.21004112
136	0x3e245899	0.16049422
137	0x3d9b22ef	0.075750224
138	0x3e0746b1	0.1321056
139	0x3e5ad3ac	0.21369809
140	0xbe8bcae6	-0.27303237
141	0x3e86e4ae	0.26346344
142	0xbde339b9	-0.11094994
143	0xbe9d9f40	-0.3078556
144	0xbe3c81ec	-0.18408936
145	0xbc089b53	-0.008337813
146	0x3e873077	0.26404163
147	0x3c8a243e	0.016862985
148	0x3e262308	0.16224301
149	0x3d166062	0.03671301
150	0x3e68b18c	0.22723979
151	0xbd97692e	-0.07393108
152	0x3bfb451f	0.007668152
153	0x3df85bb0	0.12126863
154	0x3cb96eea	0.022635896
155	0x3e26bbac	0.16282529
156	0x3e0b33fc	0.13594049
157	0x3cc4350a	0.023951072
158	0xbdab14eb	-0.08353599
159	0x3e80bed0	0.25145578
160	0xbe739d23	-0.23790412
161	0x3ea369d4	0.31916678
162	0xbdee3270	-0.11630714
163	0xbe436034	-0.19079667
164	0xbedd2430	-0.4319167
165	0xbed41fe5	-0.41430584
166	0xbe97bdd2	-0.2963701
167	0x3e6c9f92	0.23107746
168	0x3e835520	0.25650883
169	0x3e8474db	0.25870404
170	0x3e39d821	0.18148853
171	0xbe84cd5c	-0.25937927
172	0xbdb66756	-0.089064285
173	0x3e2e1faf	0.17004274
174	0xbe465c18	-0.19371068
175	0xbe4e46d7	-0.20144211
176	0xbe689c0a	-0.22715774
177	0xbdfe3ef0	-0.12414348
178	0xbec737dc	-0.38909805
179	0x3e3da150	0.18518567
180	0x3e2b13f1	0.16706826
181	0xbe9bc382	-0.30422598
182	0xbdaa3d9a	-0.08312531
183	0x3e1a4148	0.15063965
184	0x3e8a4504	0.2700578
185	0xbdc95285	-0.098301925
186	0xbdcb2d04	-0.099206954
187	0xbe07c6d5	-0.13259442
188	0x3e2a49fd	0.16629787
189	0xbdaa6718	-0.08320445
190	0xbe8f5420	-0.2799387
191	0x3e404e9d	0.18779989
192	0x3e26cfb9	0.16290177
193	0xbbe8f768	-0.0071095712
194	0xbea5d94e	-0.32392353
195	0xbeda1254	-0.42592108
196	0x3e9c0073	0.30469093
197	0xbea2456f	-0.316936
198	0x3ec217a1	0.37908652
199	0x3e698928	0.22806227
200	0x3d215349	0.039386068
201	0xbe53a247	-0.20667373
202	0xbe6d0394	-0.23145896
203	0xbe1afa2a	-0.15134493
204	0xbdcf51d5	-0.1012303
205	0xbeab3823	-0.33441266
206	0xbd0f3928	-0.034966618
207	0x3e1f0e19	0.15532722
208	0xbebde60e	-0.3708958
209	0x3df21772	0.11820878
210	0xbd329649	-0.043600354
211	0x3e90dbf1	0.28292802
212	0x3da7c366	0.08191566
213	0x3e99bf54	0.30028784
214	0x3da7178f	0.0815879
215	0xbedd9ed3	-0.43285236
216	0xbe5ab308	-0.21357358
217	0xbd1a2300	-0.037631035
218	0xbea62ffb	-0.3245848
219	0x3dfb4aca	0.12270124
220	0xbed12ae0	-0.40853024
221	0x3dee6475	0.116402544
222	0xbe1950ef	-0.1497228
223	0xbe83b47a	-0.2572363
224	0x3e4bb314	0.19892532
225	0x3c67236f	0.014107569
226	0x3da6bc5d	0.08141396
227	0xbe9c52f7	-0.30532047
228	0x3e10f09f	0.1415429
229	0xbe765a01	-0.24057771
230	0xbe03fef6	-0.12890229
231	0xbdf7c828	-0.12098724
232	0x3e9fdc88	0.3122294
233	0xbe31ed76	-0.1737574
234	0xbd823b4c	-0.06358966
235	0xbd46fbdc	-0.048580036
236	0xbe5e0b84	-0.2168408
237	0x3e414e6a	0.18877569
238	0x3e9d57c3	0.3073102
239	0xbd53d170	-0.051713407
240	0xbe6874be	-0.22700784
241	0xbbf47060	-0.007459685
242	0x3d436f53	0.04771359
243	0xbed1ef79	-0.41003016
244	0xbeb61e7c	-0.35570133
245	0x3e852526	0.26004905
246	0xbec3fb27	-0.38277552
247	0xbeb376d7	-0.35051605
248	0x3e97650a	0.29569274
249	0x3e162a1b	0.146645
250	0x3e49ec5a	0.19719067
251	0xbe644aec	-0.22294205
252	0xbeceb205	-0.40370193
253	0xbed86c70	-0.4227023
254	0xbebdd26b	-0.370746
255	0x3e11f8eb	0.14255111

fc2.weight f4 [128, 256]
0	0xbcaf23f6	-0.021379452
1	0xbd08398b	-0.033258002
2	0x3e0672d4	0.13129741
3	0xbe44158a	-0.19148842
4	0xbea33963	-0.3187972
5	0xbe24909d	-0.1607079
6	0x3c4e264e	0.012582375
7	0xba3b7de4	-0.0007152243
8	0x3e1d3472	0.15352038
9	0xbe9539e3	-0.29145727
10	0x3d20ed19	0.039288614
11	0x3e18ff4f	0.14941142
12	0xbd47957a	-0.048726536
13	0x3dee2eae	0.11629997
14	0xbe17f419	-0.1483921
15	0x3e13ca36	0.14432606
16	0x3dbdb2ec	0.09262642
17	0xbe49d56c	-0.1971032
18	0xbd3eb4ca	-0.046559133
19	0xbccf5d7c	-0.025313132
20	0x3e2c0966	0.1680046
21	0x3e3229df	0.17398785
22	0x3dbad092	0.09121813
23	0x3dec8467	0.11548691
24	0x3e3d82a2	0.18506864
25	0xbcc0513f	-0.023476241
26	0x3e360f94	0.1777938
27	0x3ea67c31	0.32516626
28	0x3d8aa14e	0.06769048
29	0x3dab0c86	0.08351998
30	0x3c2fec99	0.010737562
31	0x3b299c9e	0.0025880705
32	0x3dff2772	0.124586955
33	0xbe35c336	-0.17750248
34	0x3c8e1ab4	0.017346717
35	0x3e47c400	0.19508362
36	0xbd65f91b	-0.05614577
37	0x3e235ea8	0.15954077
38	0xbe076b6d	-0.13224573
39	0x3df2a312	0.118475094
40	0xbddfc074	-0.109253794
41	0x3dc4dbba	0.09612222
42	0xbe0887c0	-0.13333035
43	0x3e929443	0.2862874
44	0xbe15d47d	-0.14631839
45	0xbcffbe4b	-0.031218668
46	0xbe4121a2	-0.18860486
47	0xbe313476	-0.17305169
48	0x3d9d8404	0.076911956
49	0x3d54d382	0.051959522
50	0x3da423f6	0.080146715
51	0x3e3c5c73	0.18394642
52	0x3d4bb940	0.049737215
53	0x3dd6b2ea	0.10483344
54	0xbdc47426	-0.09592466
55	0xbd140b21	-0.036143426
56	0x3e3b31bb	0.1828069
57	0xbe6b4eda	-0.22979298
58	0xbe21dc38	-0.15806663
59	0xbdbc3216	-0.09189241
60	0x3e2f2a94	0.17106086
61	0xbdebb8ab	-0.11509832
62	0xbda3eef9	-0.08004565
63	0xbe0ad52e	-0.13557884
64	0x3d119f68	0.035552412
65	0xbde93974	-0.113879114
66	0x3e31742b	0.17329471
67	0xbba1d00b	-0.0049381307
68	0xbdbf4b37	-0.09340518
69	0xbe9c73c5	-0.30557075
70	0x3e36c71c	0.17849392
71	0xbd5ac59a	-0.053411104
72	0xbdad5c4c	-0.0846487
73	0x3d75c0d6	0.059998356
74	0xbdce62c9	-0.100774355
75	0xbdb631eb	-0.0889624
76	0xbd4664c4	-0.04843594
77	0xbdfa601f	-0.12225365
78	0xbd90698c	-0.070513815
79	0xbd8d24e4	-0.06891802
80	0xbd951e46	-0.07281165
81	0xbe941775	-0.28924146
82	0x3db60bfe	0.08889006
83	0x3d7cc7d6	0.061714016
84	0x3d34ece6	0.044171236
85	0xbe017b08	-0.12644589
86	0x3e5b69b4	0.21427041
87	0xbead8c44	-0.33896077
88	0xba5d6d63	-0.0008446781
89	0x3d1138af	0.03545445
90	0x3cb18aea	0.021672685
91	0xbdf50d1b	-0.1196539
92	0x3cb7ded3	0.022445118
93	0xbe08e596	-0.1336883
94	0xbd882c35	-0.06649057
95	0x3d9aa7fa	0.0755157
96	0xbe0b692e	-0.13614342
97	0x3e2b35ae	0.16719696
98	0xbdd73438	-0.10508007
99	0xbe0cc233	-0.13745956
100	0xbe24195c	-0.16025299
101	0xbdb9dfdd	-0.09075902
102	0xbd805f97	-0.06268232
103	0x3e3e3215	0.18573792
104	0x3d42cab9	0.047556613
105	0xbd6a3d7c	-0.057187542
106	0x3d12e974	0.03586717
107	0x3dc3f458	0.09568089
108	0x3e8edeb3	0.2790428
109	0xbcd5ff58	-0.026122734
110	0x3d78fc6c	0.060787603
111	0xbca9196f	-0.02064201
112	0x3db584c1	0.088632114
113	0xbb1eb61f	-0.002421744
114	0xbc50ec2c	-0.01275162
115	0xbe025505	-0.12727745
116	0x3be57e3a	0.007003573
117	0xbd84832b	-0.06470331
118	0xbe4be716	-0.19912371
119	0x3da3a29e	0.07990001
120	0x3a858120	0.0010185577
121	0xbc85b563	-0.016321843
122	0xbd39b66d	-0.04533999
123	0x3d9b62d3	0.075872086
124	0xbdf0ec8f	-0.1176387
125	0x3da266f9	0.07929797
126	0xbe4bf7e1	-0.19918777
127	0xbdbaa239	-0.09112973
128	0x3d7c8c1a	0.06165705
129	0xbdec62c4	-0.115422755
130	0x3d3564cd	0.044285584
131	0x3a8b7b19	0.0010641544
132	0xbcfdaf76	-0.030967455
133	0xbe1f5a17	-0.1556171
134	0xbedfd96d	-0.4372057
135	0xbe916041	-0.28393748
136	0xbd4ea163	-0.05044688
137	0x3ce04376	0.027375918
138	0xbded2f7c	-0.115813226
139	0x3c0269c5	0.007959788
140	0xbd9bf53a	-0.07615133
141	0xbdf37398	-0.11887282
142	0xbe84d421	-0.25943092
143	0x3d12fd41	0.035886053
144	0xbc243fc5	-0.0100249695
145	0xbc605fa0	-0.013694674
146	0xbc9bac36	-0.019003015
147	0x3d54e528	0.051976353
148	0xbcf15cad	-0.029463137
149	0xbd8c19a8	-0.06840831
150	0x3dda923f	0.106724255
151	0xbdbab02d	-0.09115634
152	0x3e316b4a	0.17326084
153	0x3dc5cb37	0.09657901
154	0xbe28316e	-0.16425106
155	0xbc3111dd	-0.010807482
156	0xbe211033	-0.15728836
157	0x3d34641c	0.044040784
158	0xbc60f87d	-0.013731119
159	0xbc6b27ab	-0.014352719
160	0xbd9b7da1	-0.07592321
161	0xbd515d57	-0.051114406
162	0x3d25c0fd	0.04046725
163	0x3e5b5d7a	0.21422377
164	0x3d6df7b1	0.058097545
165	0xbd083d26	-0.03326144
166	0x3dad65f1	0.084667094
167	0x3d3cadc3	0.04606415
168	0xbe1fd7e8	-0.15609705
169	0xbdad7447	-0.08469444
170	0x3e267103	0.16254048
171	0x3b6d17e9	0.0036177582
172	0xbe1602f7	-0.14649568
173	0xbdb5ef70	-0.0888356
174	0xbe0e2a6a	-0.13883367
175	0xbdf957ee	-0.121749744
176	0xbd9580ef	-0.07299983
177	0xbd77a5d8	-0.060460895
178	0xbe1e0939	-0.15433206
179	0x3e2991c5	0.16559513
180	0xbea85a35	-0.32881323
181	0xbcfbe79b	-0.030750087
182	0xbd4782af	-0.048708614
183	0x3dda567e	0.10661028
184	0x3db0541f	0.08609795
185	0x3ce988b5	0.02850757
186	0x3e215f28	0.15758955
187	0xbe4db922	-0.20090154
188	0x3d0fe0a1	0.035126332
189	0xbdac70eb	-0.08419975
190	0xbc83ef0b	-0.016105196
191	0x3d24e48d	0.040257026
192	0x3c0e5e57	0.008689485
193	0xbd466921	-0.048440102
194	0xbe590630	-0.21193767
195	0xbddc3d3f	-0.10753869
196	0xbdafff87	-0.0859366
197	0x3e2faf87	0.17156802
198	0xbdd22211	-0.10260404
199	0x3dac4569	0.084116764
200	0x3d8815f6	0.06644814
201	0x3e26a828	0.16275084
202	0x3d7d4f9a	0.061843492
203	0x3d1ed8b5	0.038780887
204	0x3daee3e9	0.08539564
205	0xbe631256	-0.22174963
206	0xbbc71bb4	-0.0060763005
207	0x3dfed81f	0.124435656
208	0xbd47f3f2	-0.04881663
209	0xbe8aac45	-0.27084556
210	0xbdf7eb28	-0.12105399
211	0x3cdb3201	0.026757242
212	0xbd146787	-0.036231544
213	0xbe66b8f7	-0.22531496
214	0xbe548ac2	-0.20756057
215	0x3eaaa9d3	0.3333269
216	0x3d91e10c	0.071230024
217	0x3dd26074	0.10272303
218	0xbe12f200	-0.14350128
219	0xbe0e1bed	-0.1387784
220	0xbc844630	-0.01614675
221	0xbc97d2ee	-0.018533196
222	0xbd2b34f0	-0.041798532
223	0x3d6240b2	0.05523748
224	0x3df55632	0.11979331
225	0x3df8a79a	0.121413425
226	0xbd82b737	-0.06382602
227	0x3d42fb44	0.047602907
228	0x3cfae4e9	0.030626731
229	0x3e612230	0.21985698
230	0xbe18cdbc	-0.14922231
231	0x3c5f092a	0.013613025
232	0x3e02ad2a	0.1276137
233	0xbd8a5359	-0.067541786
234	0x3ca1d19f	0.019753275
235	0x3d4f806d	0.050659586
236	0xbe577c29	-0.21043457
237	0x3e1ac831	0.1511543
238	0x3d70012f	0.05859488
239	0xbe073c31	-0.13206555
240	0xbd4ba49a	-0.049717523
241	0xbd940445	-0.07227377
242	0xbd58ebbb	-0.052959185
243	0x3ca3e8c5	0.020008454
244	0xbe0f3f7f	-0.13989066
245	0xbde392d4	-0.111119896
246	0xbd1240e5	-0.03570642
247	0x3cbca41e	0.023027476
248	0xbda6479e	-0.08119129
249	0xbecac314	-0.39601958
250	0xbde0ef12	-0.10983099
251	0x3d110c68	0.035412222
252	0x3e484a9a	0.19559708
253	0xbdb57999	-0.088610835
254	0xbc21cd50	-0.0098756105
255	0xbcf21a02	-0.029553417

fc2.bias f4 [128]
0	0x3c96d977	0.018414242
1	0x3d1b1d27	0.0378696
2	0xbd2c6290	-0.042086184
3	0xbd95f0fc	-0.07321355
4	0xbd0f67bc	-0.03501104
5	0xbcce5bb2	-0.025190208
6	0x3bf08924	0.007340567
7	0xbbd63ccf	-0.0065380107
8	0x3c85c024	0.016326971
9	0xbc44ac98	-0.01200404
10	0x3ce84c51	0.028356703
11	0xbc0cd8f7	-0.00859665
12	0x3c249da1	0.010047347
13	0xbd3541cd	-0.044252206
14	0x3ba4cc52	0.0050292397
15	0xbd19051d	-0.037358392
16	0xbd0f1b00	-0.03493786
17	0xbd83b41d	-0.06430838
18	0xbd1e1f15	-0.03860386
19	0xbc780b7a	-0.015139455
20	0xbbd05752	-0.0063580656
21	0xbc187e10	-0.009307399
22	0xbd1ec586	-0.03876259
23	0x3cdcf30b	0.02697136
24	0xbc89b8e1	-0.01681179
25	0xbcd721f8	-0.026261315
26	0xbd26c194	-0.040711954
27	0xbc977517	-0.01848845
28	0xbe07e63e	-0.13271424
29	0xbc6988f8	-0.014253847
30	0xbd61f9d7	-0.055169906
31	0x3d0e4f0e	0.03474336
32	0xbd414e4f	-0.04719382
33	0x3d8bd708	0.06828123
34	0x3da4cb6c	0.08046612
35	0xbd1c0532	-0.038090892
36	0xbd802447	-0.06256919
37	0xbd9ccffc	-0.07656857
38	0x3bd9df1a	0.00664891
39	0x3d14a537	0.036290374
40	0x3c78f98d	0.015196216
41	0x3d1da2f7	0.038485494
42	0x3bf374b3	0.007429683
43	0xbd9aef14	-0.07565132
44	0xbd493ad1	-0.049128357
45	0xbda05b5e	-0.07829927
46	0xbc3d0d38	-0.011538796
47	0x3c959340	0.01825869
48	0xbd63ce3e	-0.05561661
49	0x3dac66f1	0.08418072
50	0xbc5faace	-0.013651563
51	0xbd35ce83	-0.044386398
52	0x3ccfa142	0.025345448
53	0x3d7432bc	0.059618697
54	0x3c31a825	0.010843311
55	0xbd20e79f	-0.03928339
56	0xbcec82ef	-0.028871028
57	0x3ceff65a	0.029292274
58	0xbd865145	-0.0655847
59	0xbbc0d3a6	-0.0058846055
60	0x3bd82fd9	0.0065975008
61	0xbd0f03ea	-0.034915842
62	0xbd679e73	-0.056547593
63	0xbc6b2ad7	-0.0143534755
64	0xbd99b614	-0.07505432
65	0xbcbc1c6c	-0.022962771
66	0xbd8ffdb7	-0.07030814
67	0xbd10d2e7	-0.035357382
68	0x3daeb473	0.08530512
69	0xbd67f8bd	-0.0566337
70	0xbd90553f	-0.070475094
71	0xb8674800	-5.5141747e-05
72	0xbd6872b5	-0.05675002
73	0xbc165cf8	-0.009177439
74	0xbce3c02d	-0.027801597
75	0xbabd74e1	-0.0014454388
76	0x3c22f81e	0.009946851
77	0x3b8c5654	0.004282752
78	0x3c519d88	0.012793906
79	0xbd0330fc	-0.032029137
80	0xbc3b0499	-0.01141467
81	0xbc04c790	-0.00810422
82	0x3d220923	0.039559495
83	0x3b818f3b	0.003953842
84	0xbd0df6ef	-0.034659322
85	0xbc67948a	-0.014134536
86	0xbb736c64	-0.0037143463
87	0xbd3fc385	-0.04681732
88	0xbd3ee648	-0.046606332
89	0xbae2e848	-0.0017311657
90	0xbd581d7d	-0.052762497
91	0xbb90b5ad	-0.0044161887
92	0xbcd0bdc6	-0.025481116
93	0x3b9f53c2	0.0048622796
94	0xbd014104	-0.031556144
95	0x3cd2b48b	0.025720855
96	0xbd06b3ce	-0.03288632
97	0xbcef0e1c	-0.029181533
98	0x3cc8c094	0.02450589
99	0x3de1cbe1	0.11025215
100	0xbcff3fa4	-0.031158276
101	0x386f1ab8	5.7006924e-05
102	0xbd9af4a9	-0.075661965
103	0xbd9fceae	-0.07803093
104	0xbc120459	-0.008912169
105	0xbd27578e	-0.040854983
106	0x3d093d1c	0.033505544
107	0xbd913135	-0.070894636
108	0xbcf04388	-0.029329076
109	0x3d72f33d	0.059314
110	0xbcf65bff	-0.030073164
111	0xbbba778f	-0.005690522
112	0xbdcaad7f	-0.09896373
113	0x3d1040d6	0.035218082
114	0x3d05bc34	0.032650188
115	0xbdb2200f	-0.08697521
116	0xbbda2270	-0.0066569373
117	0x3b5c7a39	0.0033642186
118	0xbd52eafb	-0.051493626
119	0x3d4a99f9	0.049463246
120	0x3c85388b	0.016262313
121	0xbcb06909	-0.02153446
122	0x3d3b60f8	0.045746773
123	0xbd763686	-0.06011059
124	0x3d1b3a61	0.03789747
125	0x3d8a1a76	0.06743328
126	0x3ba08220	0.0048983246
127	0x3c16b6c9	0.009198853

fc3.weight f4 [64, 128]
0	0xbd63129f	-0.05543768
1	0xbe9ea568	-0.3098557
2	0xbd374324	-0.044741765
3	0x3eb9e833	0.36309966
4	0x3d9649fb	0.073383294
5	0x3e2f1db4	0.17101175
6	0x3e8ca4ae	0.2746939
7	0x3e9a3e8a	0.3012584
8	0xbcf0dce4	-0.029402204
9	0x3e435f6c	0.1907937
10	0xbef6ac36	-0.48178262
11	0x3e656571	0.22401978
12	0x3bc4fb87	0.0060114297
13	0xbe577a3a	-0.2104272
14	0x3c00f6df	0.007871359
15	0xbd51a461	-0.051182155
16	0x3d8a5e90	0.067563176
17	0xbdd8177f	-0.105513565
18	0x3d8481af	0.06470048
19	0xbe7ae431	-0.2450111
20	0xbd434b6f	-0.04767936
21	0x3da7ba80	0.08189869
22	0xbcda1436	-0.026620965
23	0x3e62614a	0.22107425
24	0xbda1b073	-0.07894983
25	0x3e100cc1	0.14067365
26	0x3e657816	0.2240909
27	0xbead5b1b	-0.3385857
28	0x3ee732ba	0.4515589
29	0x3ce9288c	0.028461717
30	0xbf041318	-0.51591635
31	0xbcdf6c1c	-0.02727323
32	0xbe1114a1	-0.14168026
33	0xbd8efe07	-0.069820456
34	0xbbcdfba1	-0.0062861
35	0xbe14d7d6	-0.1453546
36	0xbe26120e	-0.16217825
37	0x3ee41ba1	0.4455233
38	0xbe3bcc77	-0.18339716
39	0x3e2ced48	0.1688739
40	0x3e108daa	0.1411654
41	0x3c9ac04f	0.018890528
42	0x3dcd5560	0.100260496
43	0x3ead0fea	0.33801204
44	0xbc169653	-0.0091911135
45	0xbe8c8e5f	-0.2745237
46	0xbc03d14e	-0.008045508
47	0x3e9c5999	0.30537108
48	0xbd8e8a19	-0.06959934
49	0x3dbe2a9a	0.09285469
50	0xbd004f40	-0.03132558
51	0xbde66ba9	-0.11251003
52	0x3e2650bd	0.16241737
53	0xbe7682aa	-0.24073282
54	0x3e6d4a88	0.23172963
55	0x3e537769	0.2065102
56	0x3c8f3578	0.01748155
57	0x3e655b32	0.2239807
58	0x3df36c26	0.11885862
59	0x3ded17d1	0.11576808
60	0xbe713220	-0.23554277
61	0xbd87fd50	-0.066401124
62	0xbec4ba36	-0.38423318
63	0xbea067b7	-0.31329128
64	0xbcdf6c01	-0.02727318
65	0xbd0e246a	-0.034702696
66	0xbe168128	-0.14697707
67	0xbe85e5cf	-0.26151893
68	0x3e0ffe1b	0.14061777
69	0xbe8152e8	-0.25258565
70	0x3dda27e0	0.10652137
71	0xbe3cce62	-0.18438104
72	0x3df24c8a	0.11831005
73	0x3ec49b03	0.38399515
74	0xbeb3c083	-0.35107812
75	0x3dd47037	0.10372966
76	0x3e0afd01	0.13573076
77	0x3e45f72d	0.19332571
78	0xbf06e97c	-0.5270002
79	0xbe6fa7f3	-0.23403911
80	0x3e30a5a6	0.1725069
81	0x3e16152b	0.14656512
82	0xbc24585d	-0.010030833
83	0x3eb07040	0.3446064
84	0xbe372040	-0.17883396
85	0x3d89e0c9	0.067323275
86	0x3d2a5dbc	0.0415933
87	0x3d91bd19	0.07116146
88	0xbd3daa93	-0.04630525
89	0xbdcc5b40	-0.09978342
90	0xbd131c9a	-0.03591595
91	0x3ea2ba51	0.31782773
92	0xbe3854dd	-0.18001123
93	0x3e18884d	0.14895745
94	0x3e725604	0.23665625
95	0x3e9c31c0	0.30506706
96	0xbd3aef72	-0.04563851
97	0x3f0e827a	0.5566784
98	0x3d0e0d42	0.034680612
99	0x3e81fc52	0.25387818
100	0xbb7b6581	-0.0038360062
101	0xbe8a71a1	-0.27039817
102	0xbe2daedb	-0.16961233
103	0x3ea5fb97	0.3241851
104	0xbe4f4f77	-0.20245157
105	0xbeec26cf	-0.4612336
106	0xbe439cae	-0.19102737
107	0xbee227db	-0.44171032
108	0xbd2b6dd8	-0.041852802
109	0xbdd9a92d	-0.10627971
110	0x3c52946f	0.012852772
111	0xbed31c70	-0.41232634
112	0x3e3c857d	0.18410297
113	0xbe5b0f0c	-0.21392459
114	0xbe511ab5	-0.20420344
115	0xbead32cb	-0.33827814
116	0x3dec7c61	0.11547161
117	0x3d0d0134	0.034424976
118	0xbede1323	-0.43373975
119	0xbe082275	-0.13294394
120	0xbd387887	-0.04503682
121	0xbce907f1	-0.02844617
122	0x3e3ea870	0.18618941
123	0x3e695549	0.2278644
124	0x3d0b176f	0.033957895
125	0xbe5273cc	-0.20551986
126	0xbdcc2212	-0.09967436
127	0x3d71431d	0.058901895
128	0x3e8dd9d1	0.27705243
129	0x3d6e151d	0.058125604
130	0xbe5c18b8	-0.21493804
131	0xbe1b1cbf	-0.15147685
132	0xbdf4698c	-0.11934194
133	0x3e8458de	0.2584905
134	0x3dfc6158	0.12323254
135	0xbdce3640	-0.10068941
136	0x3ddd0c4d	0.10793362
137	0x3da5034f	0.08057272
138	0x3e751013	0.23931913
139	0x3dda512e	0.10660015
140	0xbe3a63fa	-0.182022
141	0x3cdc7d90	0.026915342
142	0xbd9b1739	-0.07572789
143	0xbdf5b9f0	-0.119983554
144	0xbe6c48e0	-0.23074675
145	0xbda82dbd	-0.08211849
146	0x3ea0b162	0.31385332
147	0x3e343637	0.17598806
148	0x3bdb284c	0.0066881534
149	0x3d9efadd	0.07762692
150	0xbe5470a7	-0.20746098
151	0x3e01e7db	0.12686102
152	0xbdb654c3	-0.08902886
153	0x3e2baf22	0.16766027
154	0x3e05809a	0.13037339
155	0x3d1e7c73	0.038692903
156	0xbc8b4f56	-0.017005604
157	0xbedfc23d	-0.4370288
158	0xbc9bf511	-0.019037755
159	0xbe2b3d0b	-0.16722505
160	0x3d2477dc	0.04015337
161	0xbdbb4f5e	-0.091459975
162	0x3cc2b141	0.023766162
163	0x3e298ec0	0.16558361
164	0xbe618e01	-0.22026826
165	0x3e71efe7	0.23626672
166	0xbe4cb760	-0.19991827
167	0x3de72c5c	0.11287758
168	0xbe1f7dcc	-0.15575331
169	0x3d1f5a7c	0.038904652
170	0x3e15f591	0.14644457
171	0xbdcc33af	-0.09970795
172	0x3cf8299e	0.030293282
173	0xbcafd6be	-0.021464702
174	0xbcadb85c	-0.021206073
175	0x3d231792	0.0398174
176	0x3e9eedbc	0.31040752
177	0xbd39aae0	-0.045328975
178	0xbdef2122	-0.116762415
179	0xbe0de184	-0.13855559
180	0xbe70bd34	-0.23509675
181	0x3d7941ee	0.06085389
182	0x3e46d4ea	0.19417158
183	0x3da0bb12	0.07848181
184	0x3e1febfa	0.15617362
185	0xbe6ac81c	-0.22927898
186	0x3b5bec3c	0.0033557555
187	0x3d6cc2f4	0.05780311
188	0xbd6522dd	-0.05594145
189	0xbe68be50	-0.22728848
190	0x3dc617fe	0.09672545
191	0xbea1fb77	-0.31637165
192	0xbd1d0da7	-0.038343098
193	0xbe1ab4a6	-0.15107974
194	0xbdce9bbc	-0.10088298
195	0x3e285b93	0.16441183
196	0xbec210d5	-0.37903467
197	0xbd14c80a	-0.036323585
198	0xbda3eeb9	-0.08004517
199	0xbd896a89	-0.06709773
200	0x3df9a51f	0.121896975
201	0xbe0f5398	-0.13996732
202	0xbdf43c57	-0.119255714
203	0x3d754525	0.059880394
204	0x3d50c8b7	0.050972667
205	0x3dff0d38	0.12453693
206	0xbefea1f7	-0.49732944
207	0xbe841176	-0.25794572
208	0x3d6ae8c9	0.057350907
209	0x3d7d18f5	0.06179138
210	0x3e1e3857	0.1545118
211	0xbd925b86	-0.07146363
212	0xbd3361d2	-0.04379446
213	0x3cfca874	0.030842043
214	0xbc5cb546	-0.013470953
215	0xbde180dc	-0.11010906
216	0x3e667925	0.2250715
217	0xbd7ce136	-0.061738215
218	0x3e269b52	0.16270187
219	0xbe4cd71f	-0.20003937
220	0x3ea10eea	0.3145669
221	0xbdb05638	-0.08610195
222	0x3e9a8988	0.30183053
223	0x3e220db2	0.15825537
224	0xbc207890	-0.009794369
225	0x3c693177	0.014232985
226	0x3e8a51cd	0.27015534
227	0xbcc83f96	-0.024444383
228	0x3dc4ef6c	0.096159786
229	0x3c8abd61	0.016936006
230	0xbd84930b	-0.06473359
231	0xbd358e36	-0.044325076
232	0xbe937299	-0.2879837
233	0xbe16ae16	-0.14714846
234	0x3d012662	0.031530745
235	0xbce2391f	-0.027615128
236	0xbe8b180b	-0.2716678
237	0xbddc643e	-0.10761307
238	0x3dda2f7e	0.1065359
239	0x3e631e1a	0.22179452
240	0xbe1c2f81	-0.15252496
241	0xbda854f4	-0.082193285
242	0xbda36901	-0.07979012
243	0xbef2f30f	-0.47451064
244	0xbe8f7a1b	-0.28022847
245	0xbdeabe93	-0.114621304
246	0x3e4467a7	0.19180165
247	0xbdfcae45	-0.12337927
248	0x3de43c88	0.11144358
249	0xbe52bdcc	-0.20580214
250	0x3e129ed9	0.14318408
251	0xbe2774f2	-0.16353205
252	0xbe5247e9	-0.20535244
253	0xbe9c2db7	-0.30503628
254	0x3d772090	0.06033379
255	0xbf0d7aef	-0.55265707

fc3.bias f4 [64]
0	0xbda0e11d	-0.07855437
1	0xbc8d6e05	-0.017264375
2	0xbe28d226	-0.16486415
3	0xbd96eec0	-0.07369757
4	0xbdb6b456	-0.08921115
5	0xbbc98166	-0.0061494587
6	0x3dcd4417	0.10022753
7	0x3c97187b	0.01844429
8	0x3ca4f078	0.020134196
9	0x3cc16281	0.02360654
10	0x3c9b905f	0.01898974
11	0xbdbed1d6	-0.09317367
12	0x3dcdc02f	0.10046422
13	0x3c3015d0	0.010747388
14	0xbd99c0b4	-0.07507458
15	0xbd50a9f6	-0.050943337
16	0x3dbcbdc4	0.092158824
17	0x3d6799e7	0.056543257
18	0xbcabfb87	-0.020993961
19	0x3ce99979	0.028515564
20	0xbd19380f	-0.037406977
21	0xbcced551	-0.025248202
22	0xbd063279	-0.03276298
23	0xbd324a8d	-0.04352813
24	0xbe136ffe	-0.1439819
25	0xbd47edcb	-0.04881076
26	0x3d08f354	0.03343518
27	0x3d8ffa84	0.07030204
28	0xbd94342c	-0.072365135
29	0xbdad2b06	-0.08455472
30	0xbce2e18c	-0.02769544
31	0xbd1f29d0	-0.038858235
32	0xbd3a8e6c	-0.04554598
33	0xbd747874	-0.059685186
34	0xbd98dfe0	-0.07464576
35	0xbda9d029	-0.082916565
36	0xbd30b882	-0.04314471
37	0xbcc1ce4a	-0.023657937
38	0xbd5077fd	-0.05089568
39	0x3d887ddb	0.0666463
40	0xbd8a0c2b	-0.06740602
41	0xbdf5d3d5	-0.120032944
42	0x3dffb882	0.12486364
43	0xbd08c8de	-0.033394687
44	0xbe160240	-0.14649296
45	0xbde8e685	-0.11372093
46	0xbd0c88d7	-0.03431019
47	0xbdb526c0	-0.088452816
48	0x3d6b3ff4	0.057434037
49	0x3de06073	0.10955896
50	0xbdb52078	-0.088440835
51	0xbe238414	-0.15968353
52	0x3d252252	0.040315934
53	0xbd42ec4f	-0.047588643
54	0x3dd24fa9	0.102691
55	0xbcdcff32	-0.026977155
56	0xbd556f3e	-0.052108042
57	0x3d53b185	0.051682968
58	0xbdfa5d7b	-0.12224861
59	0xbd3114f0	-0.04323286
60	0x3e0cf6c0	0.13766003
61	0x3d28c3e8	0.041202456
62	0xbd204e75	-0.039137322
63	0xbccb760b	-0.02483656

fc4.weight f4 [32, 64]
0	0x3e1dcf95	0.15411218
1	0xbe8a6d65	-0.27036586
2	0xbc862277	-0.016373856
3	0x3e221491	0.15828158
4	0x3eb51131	0.35364679
5	0xbe26a5fb	-0.16274254
6	0x3dc1d6c6	0.09464793
7	0x3e93cf0f	0.2886891
8	0xbb23d5c1	-0.0024999233
9	0xbe95fe8b	-0.29295763
10	0x3e022ace	0.12711641
11	0xbd10a690	-0.035315096
12	0x3e62cccb	0.22148435
13	0x3eab86be	0.33501238
14	0x3ebd60bc	0.36987865
15	0x3eddadc1	0.43296626
16	0xbbce9ef7	-0.006305571
17	0xbdc39461	-0.095497854
18	0x3e01287a	0.12613097
19	0xbd21894a	-0.03943757
20	0xbdcb8e35	-0.09939233
21	0xbdd7926e	-0.10525976
22	0xbc2179bd	-0.009855685
23	0x3e88b30b	0.266991
24	0x3e5329cb	0.20621412
25	0xbe734a0c	-0.23758715
26	0x3e257977	0.16159616
27	0xbe98904b	-0.29797587
28	0xbe4073d2	-0.18794182
29	0x3cb0b04a	0.021568436
30	0xbe331b2e	-0.17490837
31	0x3e716d4d	0.23576851
32	0xbec23d4c	-0.3793739
33	0xbe8506bb	-0.25981697
34	0x3f07032e	0.52739227
35	0xbebb633f	-0.36599156
36	0xbf0c2204	-0.54739404
37	0x3eb57f17	0.35448524
38	0xbe250856	-0.16116461
39	0x3e64bb17	0.22336994
40	0xbec5e87d	-0.38653937
41	0xbd80ba94	-0.06285587
42	0x3e9aeee3	0.3026038
43	0xbe95a1d2	-0.29225022
44	0x3c8f0925	0.017460415
45	0x3f2e5d8c	0.6811149
46	0x3e300ea8	0.17193091
47	0xbe0b53eb	-0.13606231
48	0x3d60b60d	0.054861117
49	0xbe2fe151	-0.17175795
50	0xbead109e	-0.3380174
51	0xbeab537c	-0.3346213
52	0xbe8a9309	-0.27065304
53	0x3f0b8147	0.54494137
54	0x3d56ae52	0.05241234
55	0xbf9aa058	-1.2080183
56	0xbdcaa60c	-0.09894952
57	0xbf262a61	-0.64908415
58	0xbcd55ed5	-0.026046196
59	0xbe5e8583	-0.21730618
60	0x3d845dbc	0.06463191
61	0xbd2bf42e	-0.041980915
62	0xbd858d2b	-0.06521066
63	0xbf131dac	-0.5746715
64	0x3da60565	0.08106498
65	0x3ecf66f1	0.40508226
66	0xbe10acf2	-0.14128473
67	0x3e55cfc7	0.20880042
68	0x3e5f20b8	0.21789825
69	0x3d75559c	0.059896097
70	0xbdb80865	-0.08985976
71	0x3d0f9dac	0.035062477
72	0xbe4972dd	-0.19672723
73	0xbe15e0d6	-0.1463655
74	0xbea6ec40	-0.3260212
75	0xbe995237	-0.29945537
76	0xbe3cbe86	-0.18432054
77	0xbeaacaf8	-0.33357978
78	0x3ccbdebb	0.02488648
79	0x3e18ef62	0.14935067
80	0x3df83a14	0.121204525
81	0xbe8dd494	-0.27701247
82	0xbda15ecc	-0.07879409
83	0xbdc1f6b2	-0.094708815
84	0x3e44d189	0.19220556
85	0x3eacf1a7	0.33778116
86	0xbd358f0e	-0.04432588
87	0xbd989734	-0.07450715
88	0xbceac1cb	-0.02865686
89	0x3e3d550f	0.18489479
90	0xbe2cbe24	-0.16869408
91	0xbebecd9e	-0.37266248
92	0x3e9859e6	0.29756087
93	0xbe198178	-0.14990795
94	0xbd2775f0	-0.04088396
95	0xbce2678b	-0.027637264
96	0x3da0c755	0.078505196
97	0xbe80126b	-0.25014052
98	0x3c9d1487	0.019174827
99	0xbe81f360	-0.25380993
100	0xbe440c07	-0.19145213
101	0x3e2777ac	0.16354245
102	0xbe90aea2	-0.28258234
103	0x3dd90540	0.105967045
104	0xbd191d57	-0.037381496
105	0x3cf20e4d	0.029547835
106	0xbe08d765	-0.13363416
107	0x3bda45bb	0.0066611446
108	0x3d499ebf	0.049223658
109	0x3d6bd48f	0.05757576
110	0xbe407209	-0.18793501
111	0xbeff11e8	-0.4981835
112	0x3e02551d	0.1272778
113	0x3e9d0b07	0.30672476
114	0xbe4db84a	-0.20089832
115	0x3e45befa	0.19311133
116	0x3e9da1b4	0.30787432
117	0xbd33ca75	-0.04389425
118	0xbdfbae60	-0.12289119
119	0x3db32eba	0.08749147
120	0x3e93264f	0.28740165
121	0xbe9b7ab1	-0.30367044
122	0x3e6e19e4	0.23252064
123	0xbdf0d23a	-0.117588475
124	0xbdab7b7f	-0.083731644
125	0x3d3df15a	0.04637275
126	0xbc0091a4	-0.007847223
127	0x3eba49d4	0.3638445
128	0x3e8457d0	0.25848246
129	0xbe743ece	-0.23852083
130	0x3eb82837	0.35968181
131	0xbeb4b1dd	-0.3529195
132	0x3ece1ab4	0.40254748
133	0xbd81b77e	-0.063338265
134	0x3e5629a5	0.20914324
135	0xbe81151b	-0.25211415
136	0xbe1ae433	-0.15126114
137	0x3d8e4294	0.069462925
138	0x3e8bf164	0.27332604
139	0xbed9fed4	-0.4257723
140	0xbe31b915	-0.1735576
141	0x3e7667d9	0.24063052
142	0xbdb999f4	-0.09062567
143	0xbdac7703	-0.08421137
144	0x3e8eedba	0.27915746
145	0x3e46fe33	0.19432907
146	0xbe90619f	-0.2819948
147	0xbec42de4	-0.38316262
148	0x3e469642	0.19393256
149	0xbdfa70b5	-0.122285284
150	0x3d8d5083	0.06900122
151	0x3e127f7d	0.14306445
152	0xbe65f65e	-0.22457263
153	0xbd8e7a51	-0.06956924
154	0x3eb28415	0.34866396
155	0x3e9d7e47	0.30760404
156	0x3e37650d	0.17909642
157	0x3e0c0db0	0.13677096
158	0xbdbe3969	-0.09288294
159	0x3e31f6b1	0.17379262
160	0xbd911749	-0.070845194
161	0xbd1e7603	-0.038686763
162	0xbeb14ac4	-0.34627354
163	0x3ec634c2	0.38712126
164	0xbdd6b0d2	-0.104829445
165	0x3dbc01dc	0.09180042
166	0xbeb11201	-0.34584048
167	0x3eeb0ca4	0.45908082
168	0x3d87e478	0.06635374
169	0x3d980e81	0.074246414
170	0x3e1ed209	0.1550981
171	0x3bd2c141	0.006431729
172	0x3f0b40f7	0.54396003
173	0xbe2dfd8c	-0.16991252
174	0x3da70211	0.08154691
175	0x3e279398	0.16364896
176	0x3db36e5c	0.08761284
177	0x3d4203ea	0.047367014
178	0x3ddd622b	0.1080974
179	0xbd69bf9c	-0.0570675
180	0x3e62340a	0.22090164
181	0x3ca66b97	0.020314975
182	0x3e7f8f5c	0.24957031
183	0x3e445f3c	0.19176954
184	0xbf503f22	-0.81346333
185	0x3e2cf923	0.16891913
186	0xbdea44e4	-0.11438921
187	0xbc132978	-0.008982055
188	0x3e4842a8	0.19556677
189	0xbe530e1b	-0.2061085
190	0xbe569046	-0.20953473
191	0xbd80bffb	-0.06286617
192	0xbee9171b	-0.4552544
193	0x3c6e43ba	0.014542514
194	0xbdb0910e	-0.08621417
195	0x3e9cb0eb	0.30603728
196	0x3e915aa0	0.28389454
197	0x3e8df515	0.27726045
198	0x3e7cdc63	0.24693446
199	0x3d1588ab	0.03650729
200	0x3e61f1d1	0.22064902
201	0x3eee4f83	0.46545038
202	0xb99a8b9a	-0.0002947718
203	0xbefc0583	-0.49222955
204	0xbdf12bba	-0.11775918
205	0xbd736963	-0.059426676
206	0x3e32b5b5	0.17452128
207	0x3e7ddf3f	0.24792193
208	0xbe08e67e	-0.13369176
209	0x3dd3e990	0.10347283
210	0xbe363cab	-0.1779658
211	0x3ea529e8	0.32258534
212	0x3d8ed6e8	0.06974584
213	0x3e484664	0.19558102
214	0xbe0310a4	-0.12799317
215	0xbe249002	-0.1607056
216	0x3c488e79	0.012240999
217	0xbe9819e3	-0.2970725
218	0x3b89328a	0.004186933
219	0x3d9d9dad	0.0769609
220	0x3eb53cdc	0.35397995
221	0x3e279d58	0.16368616
222	0x3f0be7d6	0.5465063
223	0x3e39aa13	0.18131284
224	0x3edc55e6	0.43034285
225	0xbd089bc3	-0.03335167
226	0x3e956252	0.29176575
227	0x3e8f8bdf	0.280364
228	0x3e217261	0.15766288
229	0x3da58570	0.08082092
230	0xbe9a4ef2	-0.30138355
231	0x3ea856fe	0.3287887
232	0x3d6ed8c4	0.058312193
233	0x3e31a700	0.17348862
234	0x3eac9321	0.33706
235	0x3dda0f4e	0.106474504
236	0x3e34552e	0.17610618
237	0xbe07a1e7	-0.13245355
238	0xbd83c881	-0.064347275
239	0xbd893f91	-0.067015775
240	0x3dfbf04d	0.12301693
241	0xbe9b3a2c	-0.3031782
242	0x3ead765f	0.33879372
243	0x3dd50e01	0.10403062
244	0xbdb124d2	-0.08649601
245	0xbd754a42	-0.05988527
246	0x3ddb0925	0.106951036
247	0xbebfc0e6	-0.37451857
248	0x3cfd522e	0.030922975
249	0x3ebf8131	0.37403253
250	0x3e159975	0.1460932
251	0xbedae553	-0.42753085
252	0xbe5fb38f	-0.2184584
253	0x3ea230ae	0.31677765
254	0xbd92fa01	-0.07176591
255	0x3e5eeeca	0.21770778

fc4.bias f4 [32]
0	0x3d0646af	0.032782253
1	0xbd978366	-0.07398109
2	0x3c931ed8	0.017959043
3	0x3d39e1c8	0.045381337
4	0xbd3ea902	-0.046547897
5	0x3c9c357c	0.019068472
6	0xbe05274e	-0.13003275
7	0xbda37f91	-0.07983316
8	0x3e477d7f	0.19481467
9	0xba485b33	-0.0007642984
10	0x3cb93e5f	0.022612749
11	0xbc5330c8	-0.012890048
12	0x3e676f97	0.22601162
13	0xbe1650f5	-0.1467932
14	0xbdef75d4	-0.11692396
15	0xbdcf3a8e	-0.1011859
16	0xbcf4c75b	-0.029880216
17	0xbccc1d43	-0.024916297
18	0xbdf22dc8	-0.11825138
19	0xbe45f83b	-0.19332974
20	0xbe048f8e	-0.12945387
21	0xbdca78a7	-0.09886294
22	0xbe103861	-0.14084007
23	0xbd749abc	-0.05971788
24	0xbd906cf3	-0.070520304
25	0xbcd1050f	-0.025515107
26	0x3d0bd218	0.034135908
27	0x3db58cf6	0.08864777
28	0xbd334660	-0.043768287
29	0x3ce6cc64	0.028173633
30	0x3d9d3657	0.0767638
31	0x3e0b9d1f	0.13634156

fc5.weight f4 [16, 32]
0	0xbf5313f6	-0.8245233
1	0x3e8d6de0	0.2762289
2	0x3ea104d0	0.31448984
3	0x3d881d2e	0.066461906
4	0xbdf94c14	-0.12172714
5	0x3dc6e9a4	0.09712532
6	0xbacbbb99	-0.0015543579
7	0xbcc6c999	-0.024266051
8	0x3eb7b49c	0.35879982
9	0x3ebed350	0.37270594
10	0xbe1a8438	-0.150895
11	0xbeaf4066	-0.3422882
12	0x3e97dc31	0.2966018
13	0x3efc26a2	0.49248224
14	0x3e244864	0.1604324
15	0xbf0c82bc	-0.54886985
16	0xbf1cc9ce	-0.6124543
17	0xbdbc35d5	-0.09189955
18	0x3e1efa76	0.15525231
19	0xbf8d6e14	-1.1049218
20	0x3f12ea8c	0.5738914
21	0xbe71d5ca	-0.2361671
22	0xbde03f04	-0.10949519
23	0xbf24f9cb	-0.64443654
24	0xbe2cefb9	-0.16888322
25	0x3efdb263	0.4955016
26	0x3e3e640e	0.18592855
27	0xbebca75f	-0.36846444
28	0x3f0a9831	0.54138476
29	0x3eb3f2c2	0.35146147
30	0xbed8b489	-0.42325237
31	0xbe5c4c4f	-0.21513484
32	0xbe03da0d	-0.12876149
33	0x3f0f4775	0.5596841
34	0x3f05e7c2	0.5230676
35	0xbde04618	-0.10950869
36	0xbe9c1017	-0.30481026
37	0x3eff7349	0.49892643
38	0x3c0ac108	0.008468874
39	0x3e88e578	0.2673757
40	0x3ebbcbfe	0.3667907
41	0x3dc16ce3	0.094445966
42	0xbeebaba8	-0.460294
43	0xbe8169ee	-0.2527613
44	0xbe87b216	-0.26503056
45	0x3e2723ac	0.16322201
46	0x3d88dc2e	0.06682621
47	0xbe560cc3	-0.20903306
48	0xbed2398c	-0.4105953
49	0xbe430cfc	-0.19047922
50	0xbdce9d36	-0.10088579
51	0x3e85cc18	0.26132274
52	0xbe18e9f2	-0.14932993
53	0x3ea5b08b	0.32361254
54	0x3ef49e55	0.47777048
55	0x3e31dd83	0.17369656
56	0x3d86af7e	0.06576441
57	0x3e247f36	0.16064152
58	0xbe9d0a04	-0.30671704
59	0x3d30e6b0	0.04318875
60	0x3ee91970	0.4552722
61	0x3e9a1eb7	0.3010156
62	0xbd79b251	-0.06096107
63	0x3f146206	0.5796207
64	0xbef35d53	-0.47532138
65	0xbe9d60ba	-0.3073786
66	0x3c867cab	0.016416868
67	0x3f4d57fe	0.8021239
68	0xbecf2ff3	-0.4046627
69	0x3e2ff618	0.17183721
70	0xbf13bbdc	-0.57708526
71	0x3d5e037c	0.05420254
72	0x3eba0bea	0.36337215
73	0xbed66535	-0.4187409
74	0xbeb7c898	-0.35895228
75	0xbcc6bff5	-0.024261454
76	0x3e466524	0.1937452
77	0xbefc2889	-0.49249676
78	0x3f1502e9	0.58207566
79	0xbdcbc1b0	-0.09949052
80	0x3e365d01	0.17808916
81	0x3ca7f061	0.020500364
82	0xbec5446f	-0.38528773
83	0xbed0a282	-0.40748984
84	0xbce75bde	-0.028242048
85	0xbe998dce	-0.29991
86	0x3d45a415	0.048252184
87	0xbe063aba	-0.1310834
88	0x3e792c56	0.24333319
89	0x3cf48618	0.029849097
90	0xbf0c13f4	-0.54717946
91	0x3e886c0a	0.26644927
92	0xbe8dc318	-0.27687907
93	0x3c0a50ef	0.008442148
94	0xbe1b13e8	-0.15144312
95	0x3ebbb52c	0.3666166
96	0xbec8372a	-0.39104587
97	0x3d0443ba	0.03229115
98	0xbf052263	-0.52005595
99	0x3ee2deca	0.443106
100	0x3f2c5fdd	0.67333776
101	0x3f596be0	0.8493023
102	0xbe2ace6b	-0.16680305
103	0xbda5361d	-0.08066962
104	0xbdc52c78	-0.09627622
105	0xbe6695ff	-0.22518156
106	0xbe4cf4b0	-0.20015216
107	0x3eeaf5ed	0.4589075
108	0x3d89fa80	0.06737232
109	0xbe1bd8a1	-0.15219356
110	0xbf06e969	-0.52699906
111	0xbcf0d283	-0.029397255
112	0x3efa5666	0.48894042
113	0x3d09eab2	0.03367109
114	0x3dc81a94	0.097706944
115	0xbe4e704f	-0.2016003
116	0x3eabb22a	0.33534366
117	0xbf168407	-0.5879521
118	0xbd3135fe	-0.04326438
119	0x3e6f707a	0.2338275
120	0x3ef189d8	0.4717548
121	0x3da7341a	0.081642345
122	0xbe806534	-0.25077212
123	0x3f2b9a12	0.6703197
124	0x3cf94f08	0.030433193
125	0x3ebec734	0.37261355
126	0xbe49b172	-0.19696596
127	0x3eb99b32	0.36251217
128	0x3eb43fbc	0.35204875
129	0xbf00964e	-0.50229347
130	0x3e5e4d0f	0.21709083
131	0x3e8f0176	0.27930802
132	0xbe1879f7	-0.14890276
133	0x3d1a8dbd	0.03773283
134	0xbbe5fa49	-0.0070183617
135	0x3ea887b9	0.32916048
136	0x3e86f01b	0.2635506
137	0x3e28c1db	0.164802
138	0x3d2d1933	0.04226036
139	0xbef925fb	-0.4866179
140	0xbf176369	-0.5913606
141	0xbebcbe00	-0.36863708
142	0x3e942486	0.28934115
143	0xbd9dd501	-0.07706643
144	0xbecbaa17	-0.39778206
145	0xbee342f9	-0.44387034
146	0xbdcd118d	-0.10013113
147	0xbd141263	-0.036150347
148	0x3eabd3c9	0.33560017
149	0x3ea18c44	0.31552327
150	0xbe0a4282	-0.13501933
151	0x3e91715e	0.28406805
152	0xbe049ef3	-0.1295126
153	0x3d9df59d	0.07712863
154	0x3ec18485	0.37796417
155	0xbeb30632	-0.34965664
156	0xbe2341b5	-0.15943034
157	0xbe8fe4b1	-0.28104165
158	0xbec84a2d	-0.39119092
159	0xbe5ee23e	-0.21765992
160	0xba77ca28	-0.0009452426
161	0x3e2c2e86	0.16814622
162	0x3ef21434	0.4728104
163	0x3ec4d60c	0.38444555
164	0xbe99c1a6	-0.30030555
165	0x3dd40f26	0.10354452
166	0x3eb8a725	0.3606502
167	0xbd3b1c3e	-0.04568123
168	0x3e4840fe	0.19556043
169	0x3e0a7c90	0.1352408
170	0x3e9182cd	0.28420106
171	0x3d974cc3	0.07387688
172	0xbeae6033	-0.3405777
173	0x3ed1326c	0.4085878
174	0xbe0cec8a	-0.13762107
175	0x3e34b6e7	0.17647897
176	0xbe4ead0e	-0.20183203
177	0xbe8865b2	-0.26640087
178	0x3eb711c2	0.35755736
179	0xbe3e8ca0	-0.18608332
180	0xbe25b277	-0.1618136
181	0xbebcc993	-0.3687254
182	0x3e4107da	0.18850651
183	0x3d4286d5	0.047491867
184	0xbeb1e710	-0.347466
185	0xbee4b4d2	-0.44669205
186	0xbe11e12f	-0.14246057
187	0xbf350f80	-0.70726776
188	0x3c63f56a	0.013913492
189	0xbd63c52a	-0.055607952
190	0x3e354e7a	0.17705718
191	0x3e832552	0.2561441
192	0xbe9a6805	-0.30157486
193	0x3f0de8f7	0.554336
194	0xbdafd17c	-0.08584878
195	0xbece7134	-0.40320742
196	0xbe93d28c	-0.28871572
197	0x3e0752d0	0.13215184
198	0xbe78a7d4	-0.24282771
199	0xbf0ba3c2	-0.5454675
200	0x3e3eaf89	0.18621649
201	0xbed931a8	-0.42420697
202	0xbeaec364	-0.34133446
203	0xbe1778ca	-0.14792171
204	0x3e1fe929	0.15616287
205	0xbeaabe2f	-0.33348224
206	0x3f4b8056	0.794927
207	0x3e9cd2e7	0.30629656
208	0xbf1fdb7d	-0.6244429
209	0x3cbc22cc	0.022965811
210	0x3f156879	0.5836254
211	0x3e14047b	0.14454834
212	0xbea48059	-0.32129171
213	0x3e977bf9	0.2958677
214	0xbe3fe13b	-0.18738262
215	0xbd81490c	-0.06312761
216	0xbede7d66	-0.43455046
217	0xbd9add5d	-0.07561753
218	0x3e5dd3a9	0.21662773
219	0xbd7935d0	-0.060842335
220	0xbc38d779	-0.011281841
221	0x3e48da2e	0.19614479
222	0xbe58a247	-0.21155654
223	0xbcf2f9c6	-0.029660117
224	0xbd94d704	-0.072675735
225	0x3e13d2bc	0.14435858
226	0xbe1a0a29	-0.15042938
227	0xbf22c80e	-0.6358651
228	0xbe4ed337	-0.2019776
229	0xbe6cced2	-0.2312577
230	0xbddf39e1	-0.108997114
231	0x3d9cd3c3	0.07657578
232	0x3eb7f6bf	0.3593044
233	0xbec6460c	-0.38725317
234	0xbe83941d	-0.2569894
235	0xbebe8229	-0.3720868
236	0xbeb23231	-0.34803918
237	0x3e8adc76	0.27121323
238	0xbd31ed11	-0.043438975
239	0xbe943e17	-0.2895362
240	0xbd812ed6	-0.06307761
241	0xbdd079ce	-0.101794824
242	0xbd7fcd4a	-0.06245164
243	0x3d27ff62	0.041015036
244	0xbe986117	-0.29761574
245	0xbedc466c	-0.43022478
246	0x3e7604da	0.24025288
247	0xbd6e71a6	-0.058213852
248	0xbeb57bbb	-0.3544596
249	0x3ec5179d	0.38494578
250	0xbe84cea5	-0.25938907
251	0xbe2d1ae9	-0.16904797
252	0x3e6cbb0b	0.23118226
253	0xbf196fc7	-0.59936184
254	0x3c6b52cc	0.014363002
255	0xbea2289f	-0.31671616

fc5.bias f4 [16]
0	0xbca66620	-0.020312369
1	0xbeb1c454	-0.347201
2	0x3e0fbded	0.14037295
3	0x3d995f20	0.07488847
4	0xbd6f5855	-0.05843385
5	0x3d72a65c	0.059240684
6	0xbe2ecdb5	-0.17070659
7	0x3e2320a7	0.15930425
8	0x3e46c325	0.19410379
9	0x3d5e4d22	0.05427278
10	0xbc0e09e8	-0.008669354
11	0xbe45c13e	-0.19311997
12	0x3e0a1ff5	0.13488753
13	0x3d372f23	0.044722687
14	0xbcd622c6	-0.026139628
15	0x3e1617a7	0.1465746

fc6.weight f4 [8, 16]
0	0x3f05bf0a	0.5224463
1	0xbefa2e4f	-0.48863456
2	0xbf65bdb3	-0.89742583
3	0x3f122611	0.57089335
4	0xbf60ae06	-0.8776554
5	0xbe2c80c0	-0.16845989
6	0x3e13a26c	0.14417428
7	0x3eca1e0e	0.39476055
8	0x3e65f6c0	0.22457409
9	0x3f88f4bb	1.0699686
10	0x3e912526	0.28348655
11	0x3e5ee5c7	0.2176734
12	0x3d90ba03	0.07066729
13	0x3f0efa32	0.5585052
14	0x3eb6fa34	0.35737765
15	0x3f6405b9	0.8907123
16	0x3c89c316	0.016816657
17	0xbf1326d1	-0.57481104
18	0xbf7689f0	-0.96304226
19	0x3d88f02e	0.06686436
20	0x3bc985ac	0.006149968
21	0x3eb46f22	0.35241038
22	0x3fb87343	1.4410175
23	0x3f0a5894	0.5404141
24	0xbed150e0	-0.40882015
25	0xbfa5c37b	-1.2950281
26	0xbf3653e7	-0.71221775
27	0x3f11bfd9	0.5693336
28	0x3eb84c67	0.3599579
29	0x3f339439	0.70148045
30	0x3fa6dfbc	1.3037028
31	0xbf3d9383	-0.7405321
32	0x3d91c84b	0.07118281
33	0xbe0d8b83	-0.13822751
34	0x3e71d1c7	0.2361518
35	0xbe816ed0	-0.25279856
36	0xbe9ba987	-0.30402777
37	0x3ee024a7	0.43777964
38	0x3ea6980b	0.32537875
39	0x3e9ac9ea	0.30232173
40	0x3f34d28a	0.7063376
41	0x3ca7787b	0.020443192
42	0xbdea7dce	-0.114497766
43	0x3dc7e0c7	0.0975967
44	0xbe91c5fe	-0.2847137
45	0x3f71b96c	0.94423556
46	0x3d9e8ae8	0.07741338
47	0x3e5d80c7	0.21631156
48	0x3f0c52ff	0.5481414
49	0x3da07547	0.07834869
50	0x3f24ceb4	0.64377904
51	0xbe5cc149	-0.21558107
52	0xbf835767	-1.0261048
53	0x3e0788c3	0.13235764
54	0x3edc1d4d	0.42991105
55	0x3ec857ec	0.3912958
56	0xbf87d9b6	-1.0613315
57	0x3d66d03f	0.056350943
58	0x3f843fb9	1.0331947
59	0x3ebda525	0.37040058
60	0xbf0483b6	-0.51763475
61	0xbcd08c48	-0.025457516
62	0x3ead824f	0.3388848
63	0xbf49597d	-0.78652173
64	0xbd84ba1f	-0.06480812
65	0x3e278e5e	0.16362903
66	0x3e6a54d3	0.2288392
67	0x3e17b06d	0.14813395
68	0xbe7a96be	-0.24471566
69	0xbed38053	-0.4130884
70	0xbf1b1cde	-0.6059092
71	0xbf051fd5	-0.52001697
72	0xbea24f62	-0.3170119
73	0x3f108120	0.5644703
74	0x3e712fd1	0.23553397
75	0xbeb34a1d	-0.3501748
76	0x3d7816cc	0.060568616
77	0x3f31140e	0.69171226
78	0xbed49b16	-0.4152457
79	0x3e61077f	0.21975516
80	0x3e4439d9	0.19162692
81	0x3e15a000	0.14611816
82	0x3eb30f4a	0.34972602
83	0xbf24876a	-0.64269125
84	0xbedf62c5	-0.43630043
85	0x3f102a6f	0.5631475
86	0x3f47ef16	0.7809919
87	0x3bfa2d86	0.0076348213
88	0xbf29755b	-0.66194695
89	0x3e745895	0.23861916
90	0x3db88e36	0.090114996
91	0x3d5ad3e6	0.05342474
92	0xbeabd99f	-0.3356447
93	0xbe34527f	-0.17609595
94	0xbf5741ae	-0.84084594
95	0x3ea2f900	0.31830597
96	0x3d431728	0.047629505
97	0xbf322292	-0.69584
98	0xbf13c2a7	-0.5771889
99	0xbf04b601	-0.51840216
100	0x3ecd2031	0.40063623
101	0x3de0ac7a	0.10970397
102	0xbf3bde05	-0.7338565
103	0xbf0a1861	-0.5394345
104	0xbf932245	-1.1494833
105	0xbe4b650e	-0.19862768
106	0xbee1c4d6	-0.44095486
107	0x3f11859a	0.56844485
108	0xbeafedce	-0.34361118
109	0xbf633034	-0.8874543
110	0xbefe2e17	-0.4964454
111	0xbe9e58fe	-0.3092727
112	0x3f1cfdf9	0.6132503
113	0x3f5e1727	0.8675408
114	0xbe55ffb2	-0.20898321
115	0xbe947b85	-0.29000488
116	0xbf8b0c81	-1.0863191
117	0xbf4e58f8	-0.80604506
118	0x3edef5f8	0.43547034
119	0x3e4cfaea	0.20017591
120	0xbf04f3ae	-0.51934326
121	0x3d9fcd9f	0.07802891
122	0xbf01d5e7	-0.50717014
123	0xbdc71e14	-0.09722534
124	0x3e8edfb5	0.2790505
125	0x3f11a2ba	0.56888926
126	0x3e5eb96c	0.2175042
127	0xbe01117d	-0.12604327

fc6.bias f4 [8]
0	0xbea53835	-0.32269445
1	0xbdb184f1	-0.08667935
2	0x3e6724de	0.22572657
3	0xbdcd3526	-0.10019903
4	0xbeb4c9fd	-0.35310355
5	0x3e7d3a7e	0.24729344
6	0xbe55bdd4	-0.20873195
7	0xbe3153ed	-0.17317171
