3设备模型/model_weight/tower_model_weights.pth (torch, 184507 bytes, 14 tensors)

fc1.weight f4 [256, 4]
-0.18624465 -1.0326109 -0.1793382 0.087368265 0.025295524 -0.99922323 0.16197094 0.37395135
-0.01920729 -0.03765478 0.032139756 0.04088724 0.023394907 0.04850443 -0.00055667816 0.14078163
-0.0035309335 -0.03831865 -0.13333182 -0.12166106 0.0157335 0.04020992 0.034081765 0.018676525
-0.030396182 -0.21813147 0.009687127 -0.11393979 -0.061957374 -0.26310995 0.33584994 0.13668126
-0.082099944 0.05810462 0.14475615 -0.009111582 -0.14594825 -1.6356397 -0.022506984 0.14241551
-0.012142206 -1.2988818 -0.13694295 0.15172341 -0.08843346 0.06011203 -0.008567718 -0.08021971
-0.1715455 1.3796878 0.097129315 -0.071944445 -0.6245765 0.23751721 0.006146207 -0.00607577
-0.11471649 1.308706 0.109516256 -0.10692351 0.028225498 0.76356804 -0.088839635 -0.22229104
-0.038342196 -1.9327776 -0.17298724 0.05034676 -0.16481428 -0.19804035 -0.039258372 -0.1447073
-0.0030637756 -0.03866503 0.04211929 0.020075276 0.14628252 -0.35661566 0.084614836 -0.3340945
-0.12935115 0.012640252 0.10185246 0.08959086 0.11447101 -0.9424273 -0.2096812 -0.07405516
0.06741904 -0.051136345 -0.00052281097 -0.15571375 -0.07015473 -0.110367134 0.0069835153 -0.15581049
0.12918302 -0.034640096 0.1668051 0.08245748 -0.043032605 -1.3893709 -0.18914135 0.03476125
-0.08382483 0.8708326 0.13478187 -0.26720876 0.19305079 0.002983829 0.02778528 -0.11373781
-0.056014 0.8905613 -0.0013402258 -0.13063255 -0.14176157 -0.9811434 -0.19323687 0.12184159
0.20957132 -0.04238625 0.10890623 0.107556455 0.054074015 -0.43146333 -0.1244757 0.39598653
-0.3388717 0.28263718 -0.118257664 0.18507978 -0.35113087 0.7648812 -0.064051464 0.09510563
-0.06683178 0.12340621 -0.0019702169 -0.14036994 0.29066268 -0.36335796 -0.27784356 -0.022722052
0.07308475 0.09654871 0.033320554 0.06476064 0.06259871 -0.31885806 -0.10547789 0.28494206
0.015259209 1.5643942 0.03163195 -0.19141398 0.112582624 -1.4664916 -0.15722159 0.13963668
-0.13581137 -0.45046502 -0.1826984 0.2937456 -0.013073224 -0.008030982 0.06492869 0.01948698
-0.35456872 0.4079844 -0.0061129644 -0.23725468 0.060467727 -2.2164097 0.048535902 -0.42387083
0.022582658 0.08062112 0.14130268 -0.0014977442 -0.13460469 -0.025747016 0.17742626 0.021186268
0.03397775 0.1600362 0.1505527 -0.012816605 0.11195938 0.06470286 0.09992971 -0.1722193
-0.059490867 -0.059882525 0.14569752 0.09854197 -0.06908984 -0.14544941 -0.2723595 0.24552011
0.07360731 0.43112397 -0.027625486 -0.24368326 -0.34244728 -0.54266196 0.036945492 -0.13402253
0.24557051 -0.6462501 -0.08687466 -0.29133305 -0.16338141 -0.0955994 -0.24325854 0.23956488
-0.20410535 1.1464462 -0.020075066 -0.15200631 -0.19936195 0.0036317068 -0.8191065 -0.3794794
0.01825035 0.15772732 -0.077594385 0.18996663 0.050415408 -0.111449204 0.008381546 -0.015042601
-0.0043092426 -2.5307386 0.09813697 -0.26769134 0.11146569 0.05654177 0.27951843 -0.07785599
-0.15655942 0.7747807 -0.17535987 0.006161895 -0.13638987 0.206406 0.050183017 -0.1454313
0.04963839 -0.116097294 -0.026955506 0.10187624 -0.038908884 -1.7741507 -0.17102477 0.035944067
00000000: ebb6 3ebe 982c 84bf 6fa4 37be 22ee b23d
00000010: 8f38 cf3c 18cd 7fbf b6db 253e 8d76 bf3e
00000020: 9b58 9dbc e63b 1abd faa4 033d 6179 273d
00000030: ada6 bf3c 95ac 463d 0aee 11ba 0f29 103e
00000040: 3c67 67bb 04f4 1cbd 2388 08be 6f29 f9bd
00000050: 8ae3 803c 28b3 243d 5299 0b3d 83ff 983c
00000060: 6a01 f9bc db5d 5fbe c1b6 1e3c 4459 e9bd
00000070: 04c7 7dbd 59b6 86be 86f4 ab3e 2cf6 0b3e
00000080: 0424 a8bd 1cff 6d3d f53a 143e bf48 15bc
00000090: 7573 15be a45c d1bf 9160 b8bc 5fd5 113e
000000a0: 1af0 46bc c241 a6bf c63a 0cbe 625d 1b3e
000000b0: 9a1c b5bd 0838 763d 9d5f 0cbc 3b4a a4bd
000000c0: a0a9 2fbe 9c99 b03f bceb c63d 9c57 93bd
000000d0: 3fe4 1fbf b637 733e 1f66 c93b 4117 c7bb
000000e0: 7bf0 eabd ae83 a73f 0f4a e03d b7fa dabd
000000f0: 2939 e73c 3279 433f 8ef1 b5bd 43a0 63be
00000100: b50c 1dbd 4265 f7bf 9123 31be 6738 4e3d
00000110: 13c5 28be 17cb 4abe 63cd 20bd 272e 14be
00000120: a0c9 48bb 395f 1ebd 4785 2c3d e874 a43c
00000130: 16cb 153e 5496 b6be 8b4a ad3d 6f0e abbe
00000140: a174 04be 0f19 4f3c 0698 d03d 6a7b b73d
00000150: c76f ea3d ea42 71bf abb6 56be 3baa 97bd
00000160: fe12 8a3d 5874 51bd 400d 09ba 6d73 1fbe
00000170: 48ad 8fbd 2a08 e2bd f9d5 e43b c98c 1fbe
00000180: 8e48 043e c6e2 0dbd f5ce 2a3e 78df a83d
00000190: f542 30bd e8d6 b1bf 45ae 41be d061 0e3d
000001a0: 5aac abbd e3ee 5e3f 4204 0a3e 96cf 88be
000001b0: 1baf 453e 588c 433b f59d e33c 5eef e8bd
000001c0: f06e 65bd d3fb 633f 84aa afba 8ac4 05be
000001d0: f229 11be 372c 7bbf e3df 45be 1588 f93d
000001e0: dd99 563e 349d 2dbd 3b0a df3d 8f46 dc3d
000001f0: b77c 5d3d c3e8 dcbe 1eed febd bfbe ca3e
00000200: 9780 adbe d2b5 903e 1331 f2bd 8e85 3d3e
00000210: 6dc7 b3be 41cf 433f 6a2d 83bd bec6 c23d
00000220: 1adf 88bd 65bc fc3d c11e 01bb 23bd 0fbe
00000230: bdd1 943e 0e0a babe 8341 8ebe 9923 babc
00000240: 75ad 953d 54bb c53d 227b 083d 3aa1 843d
00000250: c133 803d 5d41 a3be cb04 d8bd ede3 913e
00000260: c301 7a3c 123e c83f 8190 013d 0702 44be
00000270: b891 e63d ffb5 bbbf b2fe 20be ebfc 0e3e
00000280: 2312 0bbe 5aa3 e6be 4a15 3bbe d365 963e
00000290: 1331 56bc 6194 03bc 55f9 843d 29a3 9f3c
000002a0: 088a b5be 55e3 d03e 434f c8bb e4f2 72be
000002b0: 02ad 773d a8d9 0dc0 95cd 463d 9905 d9be
000002c0: 44ff b83c b01c a53d a6b1 103e f54f c4ba
000002d0: d0d5 09be 68eb d2bc 3baf 353e d38e ad3c
000002e0: 412c 0b3d 88e0 233e 7d2a 1a3e bdfc 51bc
000002f0: f64a e53d ef82 843d f3a7 cc3d 425a 30be
00000300: b2ac 73bd 6147 75bd bb31 153e 5fd0 c93d
00000310: f97e 8dbd b1f0 14be b472 8bbe a069 7b3e
00000320: 6ebf 963d 48bc dc3e d84e e2bc 1b88 79be
00000330: 4055 afbe e5eb 0abf 2854 173d 343d 09be
00000340: d676 7b3e a670 25bf 57eb b1bd 9b29 95be
00000350: 754d 27be 9ec9 c3bd c418 79be 7f50 753e
00000360: fe00 51be c0be 923f 7774 a4bc 8ba7 1bbe
00000370: 8a25 4cbe ee01 6e3b f7b0 51bf 204b c2be
00000380: c281 953c 4583 213e cee9 9ebd 9d86 423e
00000390: 6380 4e3d 7b3f e4bd c052 093c 3e75 76bc
000003a0: 8c34 8dbb 9ff7 21c0 09fc c83d d70e 89be
000003b0: 2048 e43d 5898 673d 0a1d 8f3e f672 9fbd
000003c0: 1d51 20be 0758 463f 8a91 33be b9e9 c93b
000003d0: c9a9 0bbe 185c 533e b58c 4d3d f1eb 14be
000003e0: a051 4b3d 6bc4 edbd cbd1 dcbc 7da4 d03d
000003f0: ec5e 1fbd 5f17 e3bf 1e21 2fbe 163a 133d

fc1.bias f4 [256]
0.0667575 -0.16651918 -0.35525846 -0.3199759 -0.28110063 -0.13702703 -0.070931435 -0.2764452
-0.15005684 0.048156813 0.0091585945 -0.045590796 0.04289369 0.16471574 0.032805536 0.1470604
0.21596047 0.013096829 -0.3129683 0.13719502 -0.1266694 0.0072262636 -0.20486706 -0.3943857
-0.38972563 0.19537677 0.14951989 -0.22294861 0.023999471 0.03830723 -0.47395825 -0.13924685
0.124554224 0.23618272 -0.10256834 0.050863113 -0.22424334 -0.10507985 0.09717877 -0.004808661
0.007963041 -0.35760707 0.12552258 0.15998606 -0.26582098 -0.44870853 -0.48807627 -0.4759633
-0.35720372 0.07704756 0.18210073 0.09741527 0.17589086 0.08689911 0.27362648 0.22982812
-0.2525826 -0.2777666 0.120699614 -0.4656549 0.24884737 0.2538465 -0.16719687 0.28698635
0.19002157 -0.4261083 0.1620423 0.33395103 -0.2249006 0.14917654 0.039418057 0.22853479
0.0039018989 -0.05514884 0.15507466 -0.23574746 0.0629462 0.07927174 0.0993692 -0.12798512
0.09915191 -0.30829787 -0.459109 -0.018746853 0.102749735 0.1827367 -0.1511774 0.30213842
0.16898759 0.2974283 -0.44601315 0.1709852 -0.2806471 -0.19257304 -0.108098924 -0.26125133
-0.25588638 -0.37515593 -0.46384752 -0.27183455 0.086772494 0.090039924 0.12534203 -0.18656838
0.05611025 -0.3346148 -0.22130007 0.115039535 0.22692192 -0.20471066 -0.34772623 -0.31780243
0.030932253 0.32207224 0.12900743 -0.01307706 -0.25608104 0.050730046 -0.15203032 -0.34818733
-0.4378276 0.08416687 0.049020115 0.21559799 -0.35411966 -0.0064466596 0.33185413 0.092077196
0.04379946 -0.1895895 -0.45693535 0.03923561 0.16102245 -0.013247027 -0.1515361 -0.27282834
0.077660926 -0.32169718 0.24915333 0.15646124 0.05105644 -0.21997887 0.08118992 -0.47988296
0.033341873 -0.17621064 0.08495472 -0.25797087 0.048260063 -0.14449519 0.12924303 -0.010404014
0.07131424 0.07270573 -0.010621694 -0.18761522 -0.41399133 -0.0070657446 0.2819378 0.29043669
-0.15013891 0.09632237 0.14263429 -0.27337998 0.03947242 0.25872386 -0.058372736 -0.04348833
-0.06472677 0.09269952 -0.35906625 0.08110955 -0.24417043 -0.40746713 0.33182085 0.14617813
0.014308018 0.019344086 0.123459116 -0.44414097 -0.26194137 -0.4467072 -0.08930876 -0.3965072
-0.06046681 0.17898445 -0.26739454 -0.10336903 0.2103914 0.008965184 0.1368266 0.28139645
0.22314121 -0.22498399 0.1129283 -0.2515853 0.10949897 -0.18151689 0.046441644 -0.33650553
0.21886164 -0.30267978 0.24573176 0.0034726127 -0.10674018 0.12827827 0.046656113 -0.31936544
-0.18993002 0.053114705 -0.019301534 0.2057026 0.2811277 0.19389257 -0.3422622 0.10262473
-0.24498206 0.05664978 0.04774886 -0.13230884 -0.42104286 -0.3642456 -0.30992186 0.21527638
-0.31492174 0.16514191 -0.2532676 -0.4668085 0.27406907 0.09694581 -0.49424618 0.07347347
0.12227305 0.02888198 -0.32676196 0.07842401 0.056313448 0.13458289 -0.38369173 0.008506943
0.10191777 0.30035126 -0.45392156 -0.0032623278 -0.08911898 -0.05233985 0.056254514 -0.26014358
0.299094 0.118338324 -0.17002869 -0.20473576 0.25375056 0.21227106 -0.16053331 -0.28125608
00000000: 28b8 883d 0184 2abe 70e4 b5be e2d3 a3be
00000010: 6cec 8fbe d050 0cbe 8044 91bd 3a8a 8dbe
00000020: 80a8 19be 1440 453d ee0d 163c 6abd 3abd
00000030: 4bb1 2f3d 3eab 283e 195f 063d 0097 163e
00000040: be24 5d3e 1594 563c 623d a0be da7c 0c3e
00000050: a0b5 01be 4bca ec3b acc8 51be ecec c9be
00000060: 1e8a c7be d910 483e be1b 193e a44c 64be
00000070: 8a9a c43c 0be8 1c3d a8aa f2be ba96 0ebe
00000080: 4916 ff3d e2d9 713e 5a0f d2bd d755 503d
00000090: 0ca0 65be 1b34 d7bd aa05 c73d f991 9dbb
000000a0: 6a77 023c 4618 b7be fe88 003e 63d3 233e
000000b0: b019 88be 20bd e5be 22e5 f9be 76b1 f3be
000000c0: 68e3 b6be 1ccb 9d3d 9d78 3a3e a881 c73d
000000d0: bc1c 343e 29f8 b13d c518 8c3e 1058 6b3e
000000e0: 8252 81be 6c37 8ebe 5c31 f73d 526a eebe
000000f0: d8d1 7e3e 2bf8 813e a835 2bbe e0ef 923e
00000100: 0495 423e de2a dabe 6bee 253e a1fb aa3e
00000110: 584c 66be bcc1 183e d474 213d 0605 6a3e
00000120: 00b7 7f3b c0e3 61bd e4cb 1e3e c867 71be
00000130: f0e9 803d 3959 a23d 1482 cb3d 880e 03be
00000140: 2810 cb3d 38d9 9dbe 5610 ebbe 0093 99bc
00000150: 746e d23d 541f 3b3e 40ce 1abe e3b1 9a3e
00000160: 150b 2d3e 8648 983e d65b e4be bf16 2f3e
00000170: fab0 8fbe de31 45be f862 ddbd bcc2 85be
00000180: 8a03 83be 7014 c0be 6c7d edbe e62d 8bbe
00000190: c7b5 b13d da66 b83d a959 003e c80b 3fbe
000001a0: ddd3 653d a252 abbe 7c9c 62be d999 eb3d
000001b0: 385e 683e ac9f 51be 2c09 b2be 00b7 a2be
000001c0: a365 fd3c a7e6 a43e 861a 043e 2a41 56bc
000001d0: 0e1d 83be 4fca 4f3d d6ad 1bbe 9c45 b2be
000001e0: f02a e0be ae5f ac3d 51c9 483d b8c5 5c3e
000001f0: 2c4f b5be 803e d3bb c9e8 a93e f892 bc3d
00000200: 1067 333d c023 42be 6ef3 e9be 85b5 203d
00000210: 12e3 243e 0f0a 59bc 482c 1bbe 28b0 8bbe
00000220: b10c 9f3d 7eb5 a4be 0d22 7f3e 6037 203e
00000230: 8f20 513d 2442 61be e746 a63d 38b3 f5be
00000240: 7d91 083d 9070 34be befc ad3d c214 84be
00000250: 58ac 453d 8cf6 13be 4958 043e 9975 2abc
00000260: 330d 923d bee6 943d 9d06 2ebc 341e 40be
00000270: acf6 d3be c387 e7bb 275a 903e 1eb4 943e
00000280: 04be 19be aa44 c53d b90e 123e 76f8 8bbe
00000290: d5ad 213d 7477 843e 4018 6fbd d220 32bd
000002a0: 788f 84bd 3fd9 bd3d 88d7 b7be c41c a63d
000002b0: d007 7abe 889f d0be 6ce4 a93e b8af 153e
000002c0: 2d6c 6a3c 7d77 9e3c 22d8 fc3d 7266 e3be
000002d0: 2e1d 86be ceb6 e4be 83e7 b6bd fe02 cbbe
000002e0: 0cac 77bd b347 373e f0e7 88be 24b3 d3bd
000002f0: d870 573e b5e2 123c 461c 0c3e 3213 903e
00000300: 217f 643e 3462 66be f446 e73d cacf 80be
00000310: ff40 e03d 90df 39be 9839 3e3d 744a acbe
00000320: 441d 603e d8f8 9abe 1ba1 7b3e c694 633b
00000330: 989a dabd 615b 033e 7b1a 3f3d de83 a3be
00000340: 047d 42be ce8e 593d 401e 9ebc b4a3 523e
00000350: f8ef 8f3e c68b 463e fe3c afbe ea2c d23d
00000360: 94dc 7abe 9a09 683d 4f94 433d f87b 07be
00000370: ee92 d7be 667e babe 14ae 9ebe 6971 5c3e
00000380: 6c3d a1be f61a 293e 4aac 81be 8601 efbe
00000390: c852 8c3e 868b c63d d60d fdbe 4279 963d
000003a0: 4b6a fa3d e799 ec3c 584d a7be c49c a03d
000003b0: eea8 663d 19d0 093e 3e73 c4be b460 0b3c
000003c0: 44ba d03d a4c7 993e 6868 e8be c7cc 55bb
000003d0: 0384 b6bd 5062 56bd 226b 663d 8a31 85be
000003e0: d922 993e 5d5b f23d 001c 2ebe 40a6 51be
000003f0: 98eb 813e 965d 593e d862 24be cc00 90be

fc2.weight f4 [128, 256]
-0.13806555 0.02028989 0.015388479 -0.2604559 0.0712157 0.007254217 -0.13609502 -0.06753668
0.21206276 -0.0072578555 -0.041285075 -0.27584743 0.06333183 -0.1928164 -0.06684994 -0.23617859
-0.0005734979 -0.035926457 -0.015545926 -0.18744451 0.06345576 0.16637863 -0.018828142 -0.07318171
0.113033734 -0.12191155 -0.1295774 0.15766062 -0.03349602 0.047366224 0.15277788 -0.26845044
-0.23395252 0.112295434 0.21049225 0.004171923 -0.38447502 0.16354443 0.036520403 -0.17925255
-0.22222668 -0.10757257 0.14245933 -0.17828521 -0.045797467 0.38155037 -0.042570576 0.2195803
0.08811098 0.00065607077 -0.14014992 -0.17521349 -0.010008953 -0.24022344 0.18320969 0.054457188
0.13521354 -0.086436786 -0.09477324 0.093612835 -0.08037484 -0.14111826 0.06738645 -0.26653418
-0.076345645 0.0074266507 -0.04720339 -0.24788189 -0.069275424 0.026636224 0.16418141 0.03127373
-0.29038796 -0.059478946 -0.21183966 0.03861666 -0.24359132 0.00873634 0.12259011 -0.008170239
-0.18547818 0.15094358 0.1900288 0.034790754 -0.020322531 0.11734998 0.06692814 -0.06560504
-0.12070861 0.11445596 0.011473884 0.1326165 0.09188527 0.23087639 -0.13501047 -0.006296078
-0.050912865 0.09490779 -0.093390256 0.028067505 0.047034282 -0.05654871 -0.096491985 0.22668067
0.041116305 -0.1175948 0.037493557 -0.22772668 -0.15921037 -0.07305797 -0.06747846 0.13091496
-0.0021619743 -0.14699125 0.02826804 0.097473264 0.17528775 -0.11788889 -0.13941778 0.09331565
0.009375019 -0.13115956 0.009485602 0.18469556 0.17304264 0.065499075 0.036803383 -0.13743208
-0.2309413 -0.03631324 -0.0007450968 0.114158556 0.0023647686 -0.1757314 0.07301758 -0.002588413
0.0059338547 -0.11525244 0.11690562 0.01473459 0.057873245 -0.03584971 -0.0010852932 0.123500794
-0.14159858 0.12175817 0.01429552 0.089688994 -0.03165296 0.03417639 0.3123979 -0.021986917
-0.20498194 -0.092180915 -0.13208741 0.032312986 -0.06465979 0.2700894 0.046282705 0.022483649
-0.017567098 -0.017275646 -0.19167805 -0.0775446 0.037287515 -0.24343394 0.15018493 -0.062223926
0.0530823 0.030194944 0.16978322 -0.07426301 -0.21165593 0.09583957 -0.06470927 0.09437422
0.117338784 -0.24654216 -0.1122889 0.084726155 0.23862773 -0.24133089 -0.033055108 0.08503471
0.061570276 -0.12262479 0.20619242 -0.029482765 0.053579904 0.03879608 0.04590376 -0.2268369
-0.20259222 -0.07270074 0.07483791 -0.11444665 0.14424947 0.03054527 0.04159875 0.10167962
-0.2115152 -0.061240304 0.13172123 0.1352601 -0.001686573 -0.06780431 -0.24496551 0.22969201
-0.054516125 0.0029077502 -0.08847431 -0.21677387 -0.17166053 -0.015682857 0.1764426 -0.15620305
0.04184188 0.16000406 0.21666576 -0.044209085 0.1260375 -0.06805468 0.13775882 -0.10436659
0.09733157 -0.10462394 -0.12123318 -0.16057661 -0.19809844 0.1512872 0.033624772 -0.14566799
-0.109275736 -0.011836688 -0.4477473 -0.08672832 -0.12922935 0.020604065 0.022189563 0.17206925
-0.08796722 -0.14606668 0.08202602 -0.012804725 -0.08060329 0.010449155 -0.14468256 0.14415868
-0.28589946 -0.13026828 0.008464615 0.14853275 0.17317128 -0.05035624 0.008338685 -0.259217
00000000: 0e61 0dbe fc36 a63c f61f 7c3c 7a5a 85be
00000010: 89d9 913d c8b4 ed3b 7e5c 0bbe ac50 8abd
00000020: fb26 593e 4ed3 edbb 8a1a 29bd e03b 8dbe
00000030: 1eb4 813d aa71 45be 9fe8 88bd cdd8 71be
00000040: cb56 16ba 9f27 13bd 57b4 7ebc 74f1 3fbe
00000050: 18f5 813d 295f 2a3e 7a3d 9abc 4be0 95bd
00000060: 3b7e e73d c3ac f9bd f0af 04be c971 213e
00000070: 1f33 09bd 1603 423d ce71 1c3e 5672 89be
00000080: 4091 6fbe 26fb e53d 488b 573e a0b4 883b
00000090: e9d9 c4be 3178 273e 6b96 153d fb8d 37be
000000a0: 648f 63be 024f dcbd dce0 113e 6690 36be
000000b0: 2096 3bbd 925a c33e 7c5e 2ebd a8d9 603e
000000c0: 8873 b43d 2afc 2b3a 7683 0fbe 2a6b 33be
000000d0: 97fc 23bc 22fd 75be 529b 3b3e 800e 5f3d
000000e0: 6b75 0a3e c505 b1bd 7918 c2bd 16b8 bf3d
000000f0: 909b a4bd 4e81 10be e801 8a3d 2b77 88be
00000100: 1b5b 9cbd 435b f33b 5858 41bd c0d4 7dbe
00000110: 46e0 8dbd 3634 da3c 2c1f 283e e218 003d
00000120: bbad 94be 32a0 73bd 7fec 58be 812c 1e3d
00000130: 0170 79be de22 0f3c 8610 fb3d 77dc 05bc
00000140: feed 3dbe f490 1a3e e996 423e c080 0e3d
00000150: 707b a6bc 3055 f03d 9f11 893d ef5b 86bd
00000160: 1336 f7bd e367 ea3d f5fc 3b3c 9fcc 073e
00000170: 582e bc3d dc6a 6c3e 2f40 0abe 554f cebb
00000180: 028a 50bd 045f c23d 6443 bfbd d3ed e53c
00000190: 05a7 403d 9f9f 67bd 979d c5bd fa1e 683e
000001a0: 9269 283d 8bd5 f0bd d892 193d 2f31 69be
000001b0: 0b08 23be 6b9f 95bd 2632 8abd 920e 063e
000001c0: e9af 0dbb e084 16be 6092 e73c 10a0 c73d
000001d0: a27e 333e bb6f f1bd 89c3 0ebe 471c bf3d
000001e0: ae99 193c b14e 06be 8069 1b3c d520 3d3e
000001f0: 1732 313e 6124 863d 25bf 163d ffba 0cbe
00000200: e07b 6cbe 31bd 14bd 9a52 43ba f6cb e93d
00000210: 3cfa 1a3b eff2 33be 3e8a 953d 5da2 29bb
00000220: c870 c23b 7909 ecbd 376c ef3d 5a69 713c
00000230: 7f0c 6d3d 25d7 12bd 6640 8eba fced fc3d
00000240: 38ff 10be 595c f93d c237 6a3c ddae b73d
00000250: 89a6 01bd 8bfc 0b3d 9ef2 9f3e e81d b4bc
00000260: c9e6 51be 59c9 bcbd ec41 07be 9f5a 043d
00000270: 5a6c 84bd 2849 8a3e ef92 3d3d a12f b83c
00000280: e0e8 8fbc a885 8dbc 4047 44be b4cf 9ebd
00000290: cbba 183d bf46 79be 14ca 193e 84de 7ebd
000002a0: d36c 593d 635b f73c a7db 2d3e 3417 98bd
000002b0: 55bc 58be 8947 c43d 4b86 84bd 4547 c13d
000002c0: 514f f03d 8c75 7cbe b9f7 e5bd e884 ad3d
000002d0: d45a 743e 721f 77be cb64 07bd ae26 ae3d
000002e0: 1d31 7c3d b522 fbbd 1b24 533e d785 f1bc
000002f0: 9a76 5b3d a3e8 1e3d 9505 3c3d ef47 68be
00000300: 5674 4fbe 20e4 94bd 9e44 993d 0163 eabd
00000310: 22b6 133e 133a fa3c 7363 2a3d 683d d03d
00000320: 7197 58be 1dd7 7abd eee1 063e a081 0a3e
00000330: 0010 ddba fcdc 8abd 3dd8 7abe 6234 6b3e
00000340: 4d4c 5fbd f48f 3e3b 0532 b5bd f8f9 5dbe
00000350: c7c7 2fbe 5679 80bc 5ead 343e b1f3 1fbe
00000360: 6462 2b3d 1bd8 233e a1dd 5d3e 9614 35bd
00000370: f90f 013e 4160 8bbd a610 0d3e 27be d5bd
00000380: c655 c73d 1445 d6bd 1a49 f8bd 326e 24be
00000390: 51da 4abe 08eb 1a3e 21ba 093d fd29 15be
000003a0: f5cb dfbd abee 41bc 223f e5be 9e9e b1bd
000003b0: b354 04be dbc9 a83c e3c6 b53c ec32 303e
000003c0: 2828 b4bd 8192 15be 42fd a73d e9ca 51bc
000003d0: 5613 a5bd ef32 2b3c aa27 14be 559e 133e
000003e0: 6a61 92be 0c65 05be 2baf 0a3c f818 183e
000003f0: d053 313e 5842 4ebd fb9e 083c 17b8 84be

fc2.bias f4 [128]
-0.09229322 0.01559792 -0.016310476 -0.07179674 -0.032206707 0.06515232 -0.0027375966 -0.017106812
0.035161525 -0.069174536 -0.06068356 -0.036714025 -0.10049189 -0.045372687 -0.056436867 0.040385954
-0.03669646 0.008504901 -0.007660752 0.032816358 0.00016723305 -0.060379338 0.03872806 -0.118540145
-0.017400935 -0.043008074 -0.025693117 -0.1067146 0.055213924 -0.043346442 -0.101092905 -0.034555607
-0.023181759 -0.009454229 0.021362655 -0.068958394 -0.068765864 -0.036533915 0.005313609 -0.005260378
0.012080263 -0.055746958 0.0066638766 -0.06483952 0.0048561385 -0.054945283 -0.10157241 -0.044549726
-0.022646671 0.100762635 0.06841932 0.069768615 -0.043854192 -0.07177124 -0.065494694 -0.063917905
0.06446779 -0.13186912 -0.046091903 -0.047923665 0.08569474 -0.05161097 0.06151326 -0.04751741
-0.038459055 -0.07148978 -0.10007688 0.033570487 0.0044431686 -0.023250613 0.0647558 -0.0046881903
0.0031190254 0.03677862 -0.03605801 -0.036168866 -0.080335595 -0.0424202 0.049291212 0.009410561
0.019309998 -0.06686649 0.036710456 0.0015468299 -0.022436308 -0.014472045 0.07001646 -0.053433314
-0.04190374 -0.081104584 0.010277416 0.034575883 -0.007996413 0.053055316 0.053253867 -0.038525555
-0.04826231 0.012229454 -0.070015326 -0.0972112 -0.07139266 0.098385744 0.02217936 0.008719679
-0.040571492 -0.039918426 -0.053362362 0.0150599545 -0.055805407 -0.041694127 0.060385518 -0.0434319
-0.003306963 -0.06706337 -0.007001194 -0.0037598936 -0.03944985 -0.08951196 -0.032321997 0.06720938
0.0025492038 -0.11260196 -0.034404367 -0.06787686 0.015843017 0.064781375 -0.0312963 -0.111013286
00000000: 3a04 bdbd 6b8e 7f3c 8c9d 85bc 2b0a 93bd
00000010: 2eeb 03bd 946e 853d 4069 33bb 9623 8cbc
00000020: 8805 103d 61ab 8dbd 538f 78bd 7261 16bd
00000030: b1ce cdbd b6d8 39bd 582a 67bd be6b 253d
00000040: 074f 16bd 2458 0b3c 0c07 fbbb 726a 063d
00000050: 485b 2f39 5350 77bd 50a1 1e3d 2dc5 f2bd
00000060: 688c 8ebc 3c29 30bd 5f7a d2bc 2f8d dabd
00000070: ff27 623d 0a8c 31bd cc09 cfbd 2e8a 0dbd
00000080: ace7 bdbc e9e5 1abc bc00 af3c 0f3a 8dbd
00000090: 1ed5 8cbd 96a4 15bd c81d ae3b 405f acbb
000000a0: 4cec 453c ec56 64bd a65c da3b 95ca 84bd
000000b0: 3e20 9f3b 4e0e 61bd 3205 d0bd c679 36bd
000000c0: 8385 b9bc a45c ce3d 6e1f 8c3d d9e2 8e3d
000000d0: 74a0 33bd cdfc 92bd 1522 86bd 64e7 82bd
000000e0: b007 843d b308 07be ddca 3cbd 9b4b 44bd
000000f0: b980 af3d 0666 53bd 54f5 7b3d 9ea1 42bd
00000100: 3e87 1dbd 3c69 92bd 1bf5 ccbd 3581 093d
00000110: 0098 913b 1278 bebc b09e 843d 649f 99bb
00000120: 9068 4c3b 2ea5 163d 90b1 13bd ce25 14bd
00000130: fd86 a4bd cec0 2dbd 95e5 493d c12e 1a3c
00000140: 0030 9e3c 4cf1 88bd b45d 163d 00bf ca3a
00000150: 59cc b7bc 281c 6dbc ca64 8f3d e4dc 5abd
00000160: 42a3 2bbd 291a a6bd 9b62 283c 719f 0d3d
00000170: 6303 03bc 8850 593d ba20 5a3d f9cc 1dbd
00000180: b3ae 45bd 0c5e 483c 3264 8fbd aa16 c7bd
00000190: 5136 92bd 777e c93d 7db1 b53c fcdc 0e3c
000001a0: 4b2e 26bd 8181 23bd 7e92 5abd 07be 763c
000001b0: 3694 64bd 76c7 2abd ce56 773d a6e5 31bd
000001c0: a2b9 58bb 8558 89bd 466a e5bb 8c68 76bb
000001d0: 2a96 21bd 0c52 b7bd 1264 04bd 12a5 893d
000001e0: 8b10 273b db9b e6bd 98eb 0cbd 0603 8bbd
000001f0: 37c9 813c 19ac 843d 8d30 00bd ef5a e3bd

fc3.weight f4 [64, 128]
-0.11482112 0.00078646134 0.003312206 -0.08892565 -0.16495934 -0.22181566 -0.20536037 0.21252717
-0.15377612 0.10978151 0.26733303 -0.09343736 -0.309437 0.17933254 0.029126186 -0.089394495
-0.18720417 -0.030559145 0.02375383 -0.23460005 -0.36327967 0.13632466 0.05203011 0.11026719
0.119626164 -0.46052527 0.34116843 0.072111405 -0.91454774 0.1939971 -0.047028285 0.18238503
-0.058315217 0.06418705 0.025465744 -0.22508335 -0.13175324 -0.18176764 0.34955812 0.24214672
0.24989979 0.13377349 -0.16195612 0.05680059 -0.8393061 -0.23420158 0.46810877 0.010311318
-0.0044550947 0.02891556 -0.46671754 -0.7273741 -0.2333247 -0.116780065 -0.10308772 0.22221437
-0.1234938 0.090616606 0.08370433 -0.14932147 0.20051001 -0.25107244 0.12336386 0.11708273
0.26015514 0.18452513 -0.010858815 0.036082417 0.039707605 -0.13846011 0.10486396 -0.26411232
-0.01823068 -0.5322235 -0.22814061 -0.15118386 0.13967347 0.07165973 0.03429092 0.0497765
-0.009242946 0.14627728 0.22445334 0.057414714 -0.028635716 -0.011266984 0.2417335 -0.097644195
-0.013799099 -0.22316119 0.0613743 0.022426011 0.12308411 0.011169936 0.10559251 0.26010448
-0.035987265 0.13984007 0.27651486 0.10340058 0.12911585 -0.99240565 0.012456231 0.17482053
0.26537588 0.18822837 0.2195756 -0.02148647 0.06651941 0.18822655 0.47520107 0.09441336
-0.84244597 0.15171196 -0.6236698 0.31487498 -0.27162823 0.07939901 -0.36888486 -0.22017439
0.33282164 -0.03194192 0.13162819 0.029190611 -0.07526906 0.19234079 0.012433892 -0.11875159
-0.19095221 -0.22777948 -0.32454896 0.2135826 0.2657485 -0.0913664 -0.3502367 0.13915797
0.07949198 -0.069523074 0.067806035 -0.041346382 -0.12729253 0.08117717 -0.2753257 -0.44378522
-0.04369658 0.19343433 0.4112279 -0.13227066 -0.11548527 0.06376305 0.38313946 -0.352499
-0.18364458 0.08798229 -0.27469414 0.29065615 -0.018810684 -0.15275854 -0.16165648 -0.25638908
-0.038043953 -0.017695807 0.5069436 -0.0856632 0.44268253 -0.3943596 -0.17398572 -0.12869236
-0.07407941 0.17200758 -0.01335662 -0.23448822 -0.42604777 -0.21002673 -0.090928435 -0.17927471
0.2151748 0.23215097 0.06569288 -0.3287107 -0.15046509 -0.09899151 0.7079212 0.15808262
0.24519362 -0.033008903 -0.041889627 0.17588623 -0.114371866 -0.16851126 0.07059466 -0.16643499
-0.013924693 0.23629966 0.07015151 -0.27493387 -0.02230907 -0.11701623 -0.100416675 -0.19782108
0.31407896 -0.059069414 0.11897584 -0.29599896 -0.24972947 -0.22729054 0.30366364 0.10869139
-0.13687669 -0.1405847 0.1033432 -0.6222426 -0.09376266 0.31069264 -0.08401281 0.19008857
-0.1627668 -0.16553535 0.080466494 -0.40884864 -0.11403496 0.29190198 -0.27590898 0.20740375
0.1269203 0.011948762 0.12045119 0.393345 0.24606466 -0.6387583 -0.21176529 0.21775468
-0.044724874 0.24723007 -0.3358204 -0.054761242 -0.06680475 0.032800738 -0.019840522 -0.38537666
-0.03021528 -0.2971034 -0.21500108 0.018060219 -0.00407474 0.1613525 0.15010121 -0.10641376
-0.30431268 -0.25311494 -0.08442034 -0.05477779 0.059326787 0.15379964 -0.325589 0.117931865
00000000: 5627 ebbd 872a 4e3a 9811 593b a71e b6bd
00000010: 1aeb 28be a523 63be fd49 52be b9a0 593e
00000020: 7d77 1dbe 21d5 e03d e0df 883e 165c bfbd
00000030: 876e 9ebe f3a2 373e 0a9a ee3c 7614 b7bd
00000040: 73b2 3fbe 2c57 fabc 6497 c23c ff3a 70be
00000050: cbff b9be b198 0b3e 861d 553d c4d3 e13d
00000060: 90fe f43d f8c9 ebbe a1ad ae3e 25af 933d
00000070: cd1f 6abf 2da7 463e bba0 40bd 24c3 3a3e
00000080: f0db 6ebd 8074 833d 899d d03c 407c 66be
00000090: 52ea 06be 4c21 3abe 48f9 b23e 4ff5 773e
000000a0: bbe5 7f3e ebfb 083e d3d7 25be bca7 683d
000000b0: c4dc 56bf 8ad2 6fbe f4ab ef3e cdf0 283c
000000c0: 0bfc 91bb 53e0 ec3c 9af5 eebe 3035 3abf
000000d0: acec 6ebe 632a efbd a81f d3bd 2a8c 633e
000000e0: 51ea fcbd 3395 b93d 2d6d ab3d bae7 18be
000000f0: 7f52 4d3e 918c 80be 31a6 fc3d 12c9 ef3d
00000100: 0e33 853e 28f4 3c3e 2ce9 31bc 28cb 133d
00000110: 71a4 223d 7dc8 0dbe eac2 d63d bb39 87be
00000120: 8258 95bc cd3f 08bf b19d 69be f1cf 1abe
00000130: 9006 0f3e 56c2 923d a374 0c3d 71e2 4b3d
00000140: ba6f 17bc b6c9 153e 19d7 653e b12b 6b3d
00000150: 7395 eabc 2899 38bc fd88 773e aef9 c7bd
00000160: 9e15 62bc 5e84 64be 9e63 7b3d c1b6 b73c
00000170: 8613 fc3d 1b02 373c e340 d83d 6a2c 853e
00000180: 6267 13bd 3c32 0f3e 5b93 8d3e afc3 d33d
00000190: f236 043e 4c0e 7ebf 3815 4c3c 2704 333e
000001a0: 59df 873e f0be 403e 6dd8 603e 6504 b0bc
000001b0: 543b 883d 76be 403e 8e4d f33e cb5b c13d
000001c0: 8aaa 57bf 615a 1b3e d3a8 1fbf 4b37 a13e
000001d0: db12 8bbe f39b a23d 7ade bcbe 6575 61be
000001e0: 9967 aa3e 88d5 02bd 8ac9 063e 2621 ef3c
000001f0: aa26 9abd fcf4 443e 86b7 4b3c 0934 f3bd
00000200: fa88 43be 063f 69be 482b a6be 66b5 5a3e
00000210: 3010 883e 4f1e bbbd 3a52 b3be 6d7f 0e3e
00000220: b1cc a23d 1d62 8ebd e4dd 8a3d d35a 29bd
00000230: f958 02be 3740 a63d 7df7 8cbe d137 e3be
00000240: 2ffb 32bd a613 463e 778c d23e f671 07be
00000250: 8b83 ecbd 3496 823d db2a c43e c07a b4be
00000260: 530d 3cbe 0f30 b43d b6a4 8cbe e2d0 943e
00000270: dd18 9abc bc6c 1cbe 4789 25be 6e45 83be
00000280: fad3 1bbd ccf6 90bc 0ec7 013f 3070 afbd
00000290: 49a7 e23e 80e9 c9be 5029 32be eec7 03be
000002a0: f2b6 97bd c122 303e bad5 5abc ae1d 70be
000002b0: ef22 dabe 3f11 57be b038 babd ca93 37be
000002c0: c856 5c3e fcb8 6d3e fd89 863d c54c a8be
000002d0: 8513 1abe 10bc cabd 533a 353f 69e0 213e
000002e0: 0914 7b3e 5834 07bd 7594 2bbd 851b 343e
000002f0: cc3b eabd 378e 2cbe ef93 903d ef6d 2abe
00000300: 6524 64bc 8af8 713e 98ab 8f3d 22c4 8cbe
00000310: 83c1 b6bc 35a6 efbd 42a7 cdbd 9c91 4abe
00000320: f5ce a03e c5f2 71bd 9ba9 f33d 2d8d 97be
00000330: 15b9 7fbe dabe 68be cd79 9b3e 9799 de3d
00000340: 6729 0cbe 70f5 0fbe 9aa5 d33d 4b4b 1fbf
00000350: a306 c0bd 1b13 9f3e e80e acbd 94a6 423e
00000360: 57ac 26be 1982 29be 9ecb a43d 9c54 d1be
00000370: 298b e9bd 2d74 953e f143 8dbe a661 543e
00000380: 65f7 013e bec4 433c 1daf f63d 8464 c93e
00000390: 60f8 7b3e aa85 23bf 00d9 58be 15fb 5e3e
000003a0: 6e31 37bd e129 7d3e a7f0 abbe 534d 60bd
000003b0: eed0 88bd 115a 063d 9788 a2bc 1750 c5be
000003c0: 0986 f7bc f01d 98be 3e29 5cbe 06f3 933c
000003d0: 6685 85bb 9739 253e 22b4 193e 75ef d9bd
000003e0: dfce 9bbe 4898 81be 92e4 acbd ad5e 60bd
000003f0: a500 733d a77d 1d3e 9ab3 a6be 4386 f13d

fc3.bias f4 [64]
0.06610922 0.031123517 0.09588637 0.0048203026 -0.15832372 0.09487065 -0.039785445 -0.20467968
-0.13391532 -0.036330238 0.031825528 0.14845525 0.00033227963 -0.027339552 0.012928944 0.058357064
0.22076195 -0.013940847 -0.06053291 0.0398995 -0.053525645 -0.13666995 0.101582974 -0.08384248
-0.09675692 -0.019650534 -0.110053845 -0.07690273 -0.17166688 -0.056845203 -0.17945996 0.108999126
-0.090554535 -0.14598389 0.15165287 -0.040135298 -0.019510577 -0.037934233 -0.03817512 0.22268309
-0.03386885 -0.13342708 -0.08584734 -0.14878891 -0.07796044 -0.115992785 -0.050685354 -0.072931886
-0.034510475 0.13335793 -0.06336501 0.07774919 0.1419292 0.008843946 0.128311 0.15066697
-0.056591958 -0.024326675 0.12479684 -0.16180618 -0.001303928 0.101776026 -0.060081534 -0.14588076
00000000: 4564 873d bff6 fe3c 1360 c43d a1f3 9d3b
00000010: 9d1f 22be 8b4b c23d 10f6 22bd 8d97 51be
00000020: 1921 09be 04cf 14bd 7c5b 023d a704 183e
00000030: d135 ae39 32f7 dfbc ecd3 533c d107 6f3d
00000040: 6c0f 623e 2668 64bc 5bf1 77bd a86d 233d
00000050: b53d 5bbd 35f3 0bbe bc0a d03d 9bb5 abbd
00000060: 7e28 c6bd 28fa a0bc e963 e1bd 2e7f 9dbd
00000070: 71c9 2fbe 84d6 68bd 5ac4 37be ef3a df3d
00000080: a874 b9bd cd7c 15be e44a 1b3e e964 24bd
00000090: a5d4 9fbc ed60 1bbd 845d 1cbd 0907 643e
000000a0: 10ba 0abd 1ca1 08be bbd0 afbd 1f5c 18be
000000b0: b9a9 9fbd a08d edbd 729b 4fbd 505d 95bd
000000c0: db5a 0dbd fb8e 083e 84c5 81bd f83a 9f3d
000000d0: e355 113e 33e6 103c f563 033e 7148 1a3e
000000e0: f8cc 67bd bc48 c7bc 7c95 ff3d 85b0 25be
000000f0: 90e8 aaba f36f d03d 0e18 76bd c461 15be

fc4.weight f4 [32, 64]
0.21465653 -0.54118216 0.3010164 0.5759432 0.15295841 0.04905044 -0.1155691 0.34459916
-0.057559606 -0.42062473 -0.40984368 -1.3355061 -0.23667608 0.3073685 0.46589792 -0.5158278
-0.81131244 0.11533353 0.07732143 0.41293338 0.0893367 -0.39867267 0.13820496 0.298727
-0.13896501 0.055168167 -0.40183172 -0.30169025 -0.1332195 0.35259753 -0.2509731 0.13183852
-0.32099086 0.38009855 0.20307264 -0.22011565 0.16159178 0.1779783 -0.5849693 0.10829515
0.24219854 -0.12851599 -0.65489155 0.09776429 0.22728689 -0.19871263 -0.020438988 -0.028846575
0.053781454 -0.049868546 0.20042907 -0.07277449 -0.12674454 -0.12797159 0.062861554 -0.25761655
-0.5646016 0.012195558 -0.0295397 0.14302911 0.21273382 0.32214668 -0.28769213 0.015115392
-0.6832125 0.076312184 0.13341643 -0.20498487 0.39054796 -0.02523413 -0.07199478 -0.16472335
0.01390875 0.1697717 -0.16624299 -0.041511532 -0.21122608 0.37778094 0.64452493 -0.1309981
0.16822155 0.24391137 0.0051493943 0.17508729 -0.11362656 -0.25579834 0.13657518 -0.14919859
0.45410505 -0.21676177 0.16004169 -0.56672865 -0.52085406 -0.1775219 -0.068995394 -0.74942714
-0.17330807 0.3163674 0.2163133 -0.011685989 -0.18835118 -0.12455076 -0.0012323105 0.5211085
0.075949684 0.05941503 -0.27210245 -0.13108318 -0.21322362 0.6116485 0.2616838 -0.2293511
-0.03657053 0.12757233 0.20243466 0.59416455 0.038745653 -0.1687027 0.21048062 0.14726636
0.006556619 0.21816897 -0.06625042 -0.4671825 -0.10948475 -0.36278248 0.038081724 -0.1051289
0.4103718 0.22638372 -0.21029785 -0.11603091 0.14097153 -0.22359177 -0.10810048 0.0919427
-0.31420583 0.31534246 0.023447555 -0.24554968 -0.21590205 -0.3453191 -0.3848075 -0.15006296
-0.011715311 0.36696732 -0.13794003 -0.22892036 -0.42224506 -0.11990476 -0.06650887 0.10444681
-0.02780399 0.29111224 -0.31326845 -0.17719994 0.30223098 0.19079877 0.017855505 -0.19098035
-0.029190795 0.22014925 -0.0037264172 0.11772294 -0.39940494 -0.070279315 -0.021184886 0.0949453
-0.18615627 0.05593965 -0.47338498 0.18370709 -0.14734961 0.114863545 0.13571486 0.28183833
0.07250042 -0.09623225 0.23005967 0.090426415 -0.027937302 0.0006200004 -0.17828272 0.062897466
-0.013649723 0.0059420676 -0.10263713 -0.09816799 -0.012655122 -0.3334083 -0.14244696 0.19692218
-0.12653664 0.03298065 -0.52782387 -0.02857082 0.32398617 0.10944134 0.38888693 -0.52068853
-0.17059962 -0.14666793 -0.022845909 0.08078765 0.21697155 0.5468406 0.28730193 0.11454368
0.2999953 0.082483105 0.17607796 -0.46228504 -0.067696184 0.03135115 -0.0419733 0.12172659
0.03286234 -0.07696938 0.0072140465 -0.16591063 -0.041945554 -0.16338533 0.3255662 0.26107657
-0.012139054 -0.22486462 0.04128547 -0.38926172 -0.1402166 -0.46466193 0.06893622 -0.032087877
0.24984509 -0.53077024 -0.2694821 0.36632282 0.110917464 0.085782364 -0.101352766 -0.19038601
0.16798508 -0.20527485 0.23308502 0.24436651 -0.050625004 -0.05306696 -0.05479457 -0.12985684
0.27237356 -0.32320976 -0.23496386 0.5517299 0.04745772 -0.2725365 0.13052101 0.32790014
00000000: ecce 5b3e ea8a 0abf d21e 9a3e 0371 133f
00000010: 21a1 1c3e 1de9 483d 7eaf ecbd 4d6f b03e
00000020: 9fc3 6bbd 205c d7be 08d7 d1be ddf1 aabf
00000030: 375b 72be 675f 9d3e 2c8a ee3e 4a0d 04bf
00000040: 2cb2 4fbf fc33 ec3d b35a 9e3d 016c d33e
00000050: 29f6 b63d d31e ccbe 9a85 0d3e bff2 983e
00000060: d84c 0ebe 04f8 613d e3bc cdbe 2577 9abe
00000070: b16a 08be aa87 b43e 8c7f 80be ad00 073e
00000080: ea58 a4be 479c c23e 46f2 4f3e ff65 61be
00000090: 5178 253e f23f 363e 8cc0 15bf d9c9 dd3d
000000a0: e502 783e b299 03be f9a6 27bf a538 c83d
000000b0: e5bd 683e 537b 4bbe aa6f a7bc a74f ecbc
000000c0: f149 5c3d f642 4cbd 473d 4d3e cb0a 95bd
000000d0: 52c9 01be fc0a 03be 8fbd 803d 51e6 83be
000000e0: bb89 10bf e1cf 473c 3efd f1bc 3976 123e
000000f0: e5d6 593e 69f0 a43e 624c 93be 8da6 773c
00000100: 04e7 2ebf 9049 9c3d 519e 083e 8ee7 51be
00000110: e7f5 c73e ceb7 cebc 0072 93bd 3dad 28be
00000120: 87e1 633c a2d8 2d3e 9a3b 2abe ff07 2abd
00000130: a64b 58be 816c c13e 96ff 243f 5e24 06be
00000140: 4542 2c3e e7c3 793e 40bc a83b 154a 333e
00000150: 0bb5 e8bd 00f8 82be 5dda 0b3e 84c7 18be
00000160: 7580 e83e ccf6 5dbe f8e1 233e 2115 11bf
00000170: b156 05bf 4dc8 35be 754d 8dbd 75da 3fbf
00000180: ac77 31be e8fa a13e 3c81 5d3e 9776 3fbc
00000190: 22df 40be 7814 ffbd 7b85 a1ba 5e67 053f
000001a0: 828b 9b3d 2d5d 733d 0351 8bbe ab3a 06be
000001b0: 4b57 5abe ff94 1c3f 6bfb 853e 04db 6abe
000001c0: fbca 15bd 52a2 023e 084b 4f3e 2b1b 183f
000001d0: c3b3 1e3d 67c0 2cbe 3b88 573e fecc 163e
000001e0: e8d8 d63b b067 5f3e 4dae 87bd 8b32 efbe
000001f0: 8a39 e0bd a0be b9be 95fb 1b3d d24d d7bd
00000200: 411c d23e 22d1 673e 5258 57be 9da1 edbd
00000210: d75a 103e 3ef5 64be c963 ddbd 744c bc3d
00000220: 96df a0be 9174 a13e 1615 c03c 6071 7bbe
00000230: 6d15 5dbe aacd b0be 7d05 c5be 1baa 19be
00000240: 93f1 3fbc 24e3 bb3e 2740 0dbe 196a 6abe
00000250: 8130 d8be a090 f5bd cd35 88bd 36e8 d53d
00000260: 31c5 e3bc aa0c 953e b964 a0be e773 35be
00000270: 05be 9a3e c160 433e b545 923c 5a90 43be
00000280: 8921 efbc ce6e 613e e836 74bb ba18 f13d
00000290: ce7e ccbe 9aee 8fbd ed8b adbc ae72 c23d
000002a0: c09f 3ebe f920 653d 845f f2be b61d 3c3e
000002b0: d1e2 16be 943d eb3d d6f8 0a3e 1d4d 903e
000002c0: 1a7b 943d 6a15 c5bd c394 6b3e 7c31 b93d
000002d0: c5dc e4bc 8687 223a bf8f 36be 63d0 803d
000002e0: 16a3 5fbc adb5 c23b 6a33 d2bd 4d0c c9bd
000002f0: 6e57 4fbc 7eb4 aabe 9edd 11be f8a5 493e
00000300: d292 01be b816 073d 771f 07bf 5a0d eabc
00000310: 84e1 a53e c822 e03d 301c c73e d84b 05bf
00000320: abb1 2ebe 1e30 16be 5827 bbbc ff73 a53d
00000330: ca2d 5e3e bffd 0b3f 3d19 933e e095 ea3d
00000340: fc98 993e e7ec a83d c84d 343e a0b0 ecbe
00000350: 4ca4 8abd 106a 003d 32ec 2bbd ca4b f93d
00000360: a99a 063d 1fa2 9dbd cf63 ec3b 7ae4 29be
00000370: 1acf 2bbd 7c4e 27be 9db0 a63e d4ab 853e
00000380: e2e2 46bc e942 66be f41a 293d 504d c7be
00000390: f194 0fbe 2be8 edbe 6f2e 8d3d 946e 03bd
000003a0: 64d7 7f3e 8fe0 07bf 8ff9 89be aa8e bb3e
000003b0: b228 e33d aaae af3d 0a92 cfbd 8df4 42be
000003c0: 4804 2c3e 9233 52be d7ad 6e3e 373b 7a3e
000003d0: 2a5c 4fbd be5c 59bd 4570 60bd 31f9 04be
000003e0: 8c74 8b3e c07b a5be 5e9a 70be 2c3e 0d3f
000003f0: 0763 423d e789 8bbe 4da7 053e 87e2 a73e

fc4.bias f4 [32]
0.085816465 0.22936133 -0.115644984 -0.12930454 -0.23157799 -0.054520693 -0.008899947 -0.18421349
0.045723286 0.04585089 -0.094083734 0.0028780971 0.04430859 -0.013461304 -0.100042954 -0.09930786
-0.11291927 -0.14843717 0.12816133 -0.14280777 0.013539025 0.19329283 0.18880549 0.109501176
-0.12453027 0.031451557 0.05312055 -0.022584083 -0.28383753 0.034107033 -0.11334452 -0.06975411
00000000: 8bc0 af3d b2dd 6a3e 47d7 ecbd 6968 04be
00000010: c822 6dbe 1751 5fbd 15d1 11bc 76a2 3cbe
00000020: 5748 3b3d 25ce 3b3d f9ae c0bd 759e 3c3b
00000030: ed7c 353d cd8c 5cbc 52e3 ccbd eb61 cbbd
00000040: 3842 e7bd eaff 17be b93c 033e 333c 12be
00000050: c9d2 5d3c 8eee 453e 3a56 413e 2742 e03d
00000060: ba09 ffbd 59d3 003d ef94 593d 4102 b9bc
00000070: 2753 91be d1b3 0b3d 2c21 e8bd 3edb 8ebd

fc5.weight f4 [16, 32]
-0.16612804 -0.11474567 0.35333622 -0.6316517 -0.09314649 -0.06297152 0.8250846 0.18186922
-0.10891314 -0.3309389 -0.036343638 0.4674862 0.39484653 -0.4127511 -0.08351131 -0.3353108
0.2620865 0.022954656 0.2990642 -0.41928867 0.5278119 0.20447423 0.2550667 -0.39534763
0.8207579 0.63887304 -0.022556707 -0.70884943 -0.7495722 0.33046806 -0.3801956 -0.57906395
-0.5371356 0.36454827 0.5740955 0.07896223 0.015630921 0.021250648 0.027104987 0.51593024
0.15642422 0.11037463 0.35853347 0.20157883 0.23243584 0.36074418 -0.0039848345 0.3308067
-0.040947244 0.27619347 0.14376493 -0.40410796 -0.817812 -0.2591615 -1.4822166 -0.10972619
-0.21039642 -0.29462993 0.48677588 0.33839896 0.18356451 -0.33702695 0.045250017 0.15394188
-0.08602874 -0.06861417 0.08290149 -0.5008821 0.1653781 -0.026062032 -0.061659623 0.67028165
0.55835664 0.061265156 0.59121287 -0.07099837 -0.66780144 -0.051363047 0.16852918 0.92297906
-0.4605568 0.5965625 -0.45020336 0.03588202 0.70686644 0.112816334 -0.039720703 -0.33636445
0.47231048 -0.0060859704 -0.5099324 1.1215451 0.18309684 0.054809187 -0.18115562 -0.52506375
0.27697492 -0.05314521 -0.2779933 -0.47247517 0.09707591 -0.08664901 -0.2108476 -0.011019969
0.09576911 0.2770197 -0.38783905 0.43841985 0.07211699 -0.33231166 0.20524256 -0.30300668
0.05791534 -0.28291282 -0.30741197 -0.13720351 0.054161184 0.50477743 0.33458474 0.72148067
-0.39827767 -0.11332327 0.18234132 -0.53200436 0.15669294 -0.16042198 -0.052553866 0.029582499
-0.25762755 -0.40431952 -0.64936084 -0.19233537 -0.24913491 -0.00440637 0.41199744 0.41130438
0.14853546 -0.07414249 0.42433205 0.438928 0.6397371 0.052923623 -0.23169725 -1.2492042
0.27504992 -0.2059602 -0.1992227 -0.34412858 0.30966723 0.38724065 -0.17363702 0.101626836
0.5651003 0.93846995 -0.5408958 0.12820402 0.015012855 -0.2944167 0.19753858 0.97034925
-0.26664063 0.99106437 0.028048785 -0.082276516 0.67265034 -0.29031056 -0.04927839 -0.12000035
0.17486386 0.55139554 -0.56093407 0.75317085 1.1269497 0.09593657 0.3033117 0.37445349
-0.56292397 0.028972864 0.35303247 0.049902268 -0.1337406 0.668718 -0.09586628 0.104365624
0.43110365 -0.24269938 -0.42944187 -0.3545911 -0.30231443 -0.0041906806 -0.5843372 0.5187816
-0.0072189956 0.05907869 -0.06982682 -0.19326739 0.0056229704 0.05675534 0.12188455 -0.17132151
0.61519635 0.09849983 0.4122248 -0.2559041 0.7139023 0.32061327 0.044418678 0.4677017
-0.19912115 -0.6169501 -0.2568796 0.42437974 -0.79186594 0.16912724 0.588118 0.11436076
-0.4686974 0.47600546 0.1278118 -0.0369066 0.08465894 0.29966584 -0.23959938 0.16356157
0.6737749 -0.23472843 -0.24979231 0.20425886 -0.3876622 -0.027354024 -0.732682 0.054394137
-0.09425247 -0.39298338 -0.23921941 0.092657186 0.45823509 -0.00859385 0.3101834 0.0834036
-0.2864565 0.27777952 -0.42890546 0.27163997 -0.7717098 0.029591091 -0.4824375 -0.10551128
0.288226 0.19374491 -0.39346313 0.025935799 -0.21201085 -0.7727698 -0.37670514 -0.020910524
00000000: 781d 2abe c7ff eabd 7ce8 b43e edb3 21bf
00000010: 96c3 bebd 36f7 80bd bf38 533f ed3b 3a3e
00000020: da0d dfbd d370 a9be 11dd 14bd 5a5a ef3e
00000030: 5329 ca3e 1d54 d3be fa07 abbd dbad abbe
00000040: 3430 863e 670b bc3c f11e 993e 01ad d6be
00000050: ae1e 073f b161 513e 1a98 823e 016b cabe
00000060: 311d 523f 2f8d 233f d8c8 b8bc 2877 35bf
00000070: f7e3 3fbf 1c33 a93e ffa8 c2be 893d 14bf
00000080: b881 09bf 12a6 ba3e ecf7 123f f3b6 a13d
00000090: 6b0c 803c d715 ae3c 470b de3c 0114 043f
000000a0: ac2d 203e 180c e23d b391 b73e ae6a 4e3e
000000b0: a903 6e3e 76b3 b83e 3793 82bb 7f5f a93e
000000c0: 4cb8 27bd 3b69 8d3e 1d37 133e 3de7 cebe
000000d0: 215c 51bf d1b0 84be 46b9 bdbf 20b8 e0bd
000000e0: 2972 57be bcd9 96be b03a f93e a142 ad3e
000000f0: 56f8 3b3e cc8e acbe 1558 393d f1a2 1d3e
00000100: d62f b0bd 9685 8cbd 42c8 a93d cf39 00bf
00000110: e058 293e 0b80 d5bc cd8e 7cbd 9497 2b3f
00000120: 76f0 0e3f 2cf1 7a3d ba59 173f 9867 91bd
00000130: 09f5 2abf 0f62 52bd ea92 2c3e 5b48 6c3f
00000140: 1ace ebbe 52b8 183f 0e81 e6be 06f9 123d
00000150: 33f5 343f 400c e73d 2db2 22bd f637 acbe
00000160: aed2 f13e d26c c7bb ee8a 02bf ca8e 8f3f
00000170: bd7d 3b3e 997f 603d dc80 39be 946a 06bf
00000180: a8cf 8d3e cbae 59bd 2355 8ebe 44e8 f1be
00000190: bccf c63d 0975 b1bd 6fe8 57be 1a8d 34bc
000001a0: 9822 c43d 87d5 8d3e d792 c6be 9178 e03e
000001b0: 13b2 933d c124 aabe 1b2b 523e b123 9bbe
000001c0: a338 6d3d f3d9 90be 1a65 9dbe 147f 0cbe
000001d0: 1ed8 5d3d 1839 013f b14e ab3e f5b2 383f
000001e0: 0deb cbbe 0816 e8bd afb7 3a3e 7031 08bf
000001f0: 1d74 203e a945 24be b942 57bd ff56 f23c
00000200: c2e7 83be f802 cfbe 833c 26bf 90f3 44be
00000210: 391d 7fbe 5063 90bb 54f1 d23e 7d96 d23e
00000220: ae19 183e 05d8 97bd 0d42 d93e 2cbb e03e
00000230: d0c5 233f 71c6 583d 0b42 6dbe ece5 9fbf
00000240: 58d3 8c3e 3be7 52be 0901 4cbe 9f31 b0be
00000250: b48c 9e3e 6844 c63e e7cd 31be bb21 d03d
00000260: 6aaa 103f 913f 703f 2678 0abf ea47 033e
00000270: 7af8 753c c9bd 96be 8e47 4a3e cf68 783f
00000280: 1f85 88be 65b6 7d3f 91c6 e53c 9780 a8bd
00000290: d032 2c3f 96a3 94be 23d8 49bd bec2 f5bd
000002a0: 830f 333e 4228 0d3f 6099 0fbf cecf 403f
000002b0: e33f 903f 647a c43d ac4b 9b3e 5eb8 bf3e
000002c0: c91b 10bf 8058 ed3c acc0 b43e 5266 4c3d
000002d0: 4cf3 08be 1a31 2b3f 8a55 c4bd a5bd d53d
000002e0: 9eb9 dc3e 3086 78be cedf dbbe f78c b5be
000002f0: f5c8 9abe fa51 89bb 1f97 15bf dfce 043f
00000300: 538d ecbb 7ffc 713d 5d01 8fbd e3e7 45be
00000310: e540 b83b 4a78 683d 9b9e f93d e86e 2fbe
00000320: 827d 1d3f 47ba c93d 210f d33e dd05 83be
00000330: 4dc2 363f 6c27 a43e 5cf0 353d 9976 ef3e
00000340: 6ae6 4bbe 71f0 1dbf b985 83be 4d48 d93e
00000350: bab7 4abf b12f 2d3e e78e 163f f935 ea3d
00000360: 1bf9 efbe fdb6 f33e 19e1 023e 602b 17bd
00000370: ab61 ad3d cd6d 993e 8a59 75be af7c 273e
00000380: 837c 2c3f a65c 70be 8ec9 7fbe 3c29 513e
00000390: a97b c6be 8c15 e0bc 0c91 3bbf 63cc 5e3d
000003a0: 7007 c1bd 1e35 c9be eff5 74be 0dc3 bd3d
000003b0: ca9d ea3e 38cd 0cbc 5cd0 9e3e 82cf aa3d
000003c0: 6daa 92be 1e39 8e3e 7f99 dbbe 6514 8b3e
000003d0: c68e 45bf 0469 f23c 0c02 f7be 4c16 d8bd
000003e0: 5c92 933e 1165 463e 0074 c9be 5077 d43c
000003f0: 5f19 59be 3ed4 45bf 7fdf c0be 8c4c abbc

fc5.bias f4 [16]
0.02144755 0.04442064 -0.022953603 0.23751523 -0.13396612 0.056966774 -0.06344165 -0.33951738
-0.18970872 -0.035758357 0.044296782 0.08355171 -0.22723974 0.17352907 -0.20420112 -0.27193618
00000000: c6b2 af3c 6bf2 353d 3209 bcbc 3137 733e
00000010: 6a2e 09be fe55 693d b2ed 81bd 39d5 adbe
00000020: 0143 42be 5b77 12bd 8b70 353d 291d ab3d
00000030: 89b1 68be 9bb1 313e 191a 51be 383b 8bbe

fc6.weight f4 [8, 16]
-0.35172886 0.12910326 0.4252953 -0.6491723 0.22926438 -0.062289797 0.2323292 0.083095714
1.4012134 0.12206325 -0.02954648 0.005524158 -0.42789644 0.21398535 -0.23783569 0.6374216
0.17426935 -0.46971464 0.6221403 -0.102177225 -0.47827616 -0.10733068 0.074598595 0.8148802
-0.47663826 0.5668626 0.1301341 -0.50551456 0.44517386 -0.5762506 0.04472668 -0.3972313
-0.060100265 0.21500097 -0.34992543 -0.30598074 0.18474717 -0.07922951 -0.77950656 -0.12842898
0.11789849 -0.28485775 0.026097927 -0.06873438 -1.3649253 0.21603532 -0.47463787 0.18117063
0.3583514 0.49818212 0.50579745 0.06751511 0.42162076 -0.19453904 -1.019483 -0.32364717
-0.88720894 -0.43243313 0.3990822 -0.506238 -0.81973416 -0.5251247 -0.37853706 0.11065014
-0.83506644 -0.9250874 0.09105551 -0.12346646 -0.977209 0.7799927 -0.86309445 -0.3322557
0.3149285 -0.8810256 0.71753126 -0.011061815 0.2240148 -0.7054818 0.40737438 -0.16806825
-0.30800402 -0.669152 -0.70262617 0.14118178 -0.078619026 -0.8191125 -0.24217892 0.09074539
0.5988543 0.09368384 -0.5981596 0.5008703 0.08802818 0.6085576 -0.83114696 0.41987327
0.12809849 0.1905679 -0.6084334 0.071510755 -0.2746312 0.30267516 0.016118433 0.09233865
-0.6015045 0.2661111 -0.3521759 0.3738421 -0.93283385 -0.63672835 -0.041041914 -1.4911903
-0.08725659 -0.5271788 -0.353147 -0.7384293 -0.019332496 -0.4639984 -0.89659816 0.35863268
-0.43611848 0.55312204 -0.22125237 -0.38956204 -0.7627931 -0.2037238 -0.8655662 -0.13259263
00000000: ce15 b4be a533 043e 4ec0 d93e 2830 26bf
00000010: 48c4 6a3e 9623 7fbd b5e7 6d3e 162e aa3d
00000020: f65a b33f 4cfc f93d 760b f2bc ff03 b53b
00000030: 3e15 dbbe fa1e 5b3e 338b 73be 102e 233f
00000040: aa73 323e 707e f0be 9644 1f3f 4b42 d1bd
00000050: 9de0 f4be 30d0 dbbd 26c7 983d fd9b 503f
00000060: ee09 f4be e81d 113f e041 053e 6769 01bf
00000070: d4ed e33e 2985 13bf 5333 373d e761 cbbe
00000080: b22b 76bd 3729 5c3e 6d29 b3be 82a9 9cbe
00000090: 5d2e 3d3e 1543 a2bd be8d 47bf e382 03be
000000a0: c374 f13d e0d8 91be 52cb d53c 9cc4 8cbd
000000b0: dfb5 aebf 5d38 5d3e bc03 f3be cb84 393e
000000c0: d679 b73e ba11 ff3e f17b 013f 5d45 8a3d
000000d0: adde d73e 3e35 47be 6b7e 82bf 15b5 a5be
000000e0: 2020 63bf e067 ddbe 8154 cc3e d098 01bf
000000f0: 19da 51bf 936e 06bf 9ccf c1be 8a9c e23d
00000100: eac6 55bf 87d2 6cbf 507b ba3d fcdb fcbd
00000110: 5e2a 7abf 9aad 473f c2f3 5cbf 6b1d aabe
00000120: 4f3e a13e e58a 61bf 21b0 373f 9d3c 35bc
00000130: 2364 653e 759a 34bf 6093 d03e 151a 2cbe
00000140: b4b2 9dbe 8c4d 2bbf 4fdf 33bf f591 103e
00000150: 0303 a1bd 5bb1 51bf c0fd 77be b8d8 b93d
00000160: 844e 193f 50dd bf3d fd20 19bf 0939 003f
00000170: 1e48 b43d 6eca 1b3f 0cc6 54bf a1f9 d63e
00000180: 402c 033e 3b24 433e 4bc2 1bbf 3b74 923d
00000190: 769c 8cbe 3df8 9a3e ce0a 843c 0c1c bd3d
000001a0: 33fc 19bf b73f 883e 6650 b4be 3b68 bf3e
000001b0: 33ce 6ebf a100 23bf 911b 28bd 53df bebf
000001c0: 95b3 b2bd 31f5 06bf afcf b4be b409 3dbf
000001d0: 2f5f 9ebc 3391 edbe 7587 65bf b49e b73e
000001e0: ec4a dfbe 6899 0d3f fb8f 62be ad74 c7be
000001f0: 6946 43bf f99c 50be bf95 5dbf 5dc6 07be

fc6.bias f4 [8]
-0.008251629 -0.122481436 -0.28444585 -0.2011764 -0.290706 0.10576085 0.15670757 0.017387185
00000000: d731 07bc 8cd7 fabd e3a2 91be 3001 4ebe
00000010: 6bd7 94be 2599 d83d f377 203e 926f 8e3c

fc7.weight f4 [2, 8]
0.3844288 -0.07685659 -0.35329655 -0.31622663 0.18029532 -0.50167364 0.39274698 -0.07170792
0.27215746 -0.29920778 -0.3144829 -0.19223167 -0.37347636 0.2509304 0.39252868 0.12054364
00000000: dad3 c43e fd66 9dbd 49e3 b4be 75e8 a1be
00000010: 569f 383e af6d 00bf 2216 c93e 9adb 92bd
00000020: 3958 8b3e c331 99be e703 a1be 61d8 44be
00000030: 4b38 bfbe f379 803e 85f9 c83e 95df f63d

fc7.bias f4 [2]
0.48513484 0.38734487
00000000: 9863 f83e 1152 c63e
